…
I0110 23:32:06.694972 2090763008 solver.cpp:90] Creating training net from net file: /Users/JonathanLee/Desktop/sandbox/vision/Net/nets/net2/trainer2.prototxt
I0110 23:32:06.695219 2090763008 net.cpp:322] The NetState phase (0) differed from the phase (1) specified by a rule in layer data
I0110 23:32:06.695240 2090763008 net.cpp:49] Initializing net from parameters: 
name: "net"
state {
  phase: TRAIN
}
layer {
  name: "data"
  type: "HDF5Data"
  top: "data"
  top: "labels"
  include {
    phase: TRAIN
  }
  hdf5_data_param {
    source: "/Users/JonathanLee/Desktop/sandbox/vision/Net/hdf/train_hdf.txt"
    batch_size: 750
  }
}
layer {
  name: "conv1"
  type: "Convolution"
  bottom: "data"
  top: "conv1"
  param {
    lr_mult: 1
    decay_mult: 1
  }
  param {
    lr_mult: 2
    decay_mult: 0
  }
  convolution_param {
    num_output: 16
    kernel_size: 11
    stride: 1
    weight_filler {
      type: "xavier"
    }
    bias_filler {
      type: "constant"
      value: 0
    }
  }
}
layer {
  name: "reluConv1"
  type: "ReLU"
  bottom: "conv1"
  top: "reluConv1"
}
layer {
  name: "conv2"
  type: "Convolution"
  bottom: "reluConv1"
  top: "conv2"
  param {
    lr_mult: 1
    decay_mult: 1
  }
  param {
    lr_mult: 2
    decay_mult: 0
  }
  convolution_param {
    num_output: 16
    kernel_size: 11
    stride: 2
    weight_filler {
      type: "xavier"
    }
    bias_filler {
      type: "constant"
      value: 0
    }
  }
}
layer {
  name: "reluConv2"
  type: "ReLU"
  bottom: "conv2"
  top: "reluConv2"
}
layer {
  name: "fc1"
  type: "InnerProduct"
  bottom: "reluConv2"
  top: "fc1"
  param {
    lr_mult: 1
    decay_mult: 1
  }
  param {
    lr_mult: 2
    decay_mult: 0
  }
  inner_product_param {
    num_output: 40
    weight_filler {
      type: "xavier"
    }
    bias_filler {
      type: "constant"
      value: 0
    }
  }
}
layer {
  name: "relu1"
  type: "ReLU"
  bottom: "fc1"
  top: "relu1"
}
layer {
  name: "fc2"
  type: "InnerProduct"
  bottom: "relu1"
  top: "fc2"
  param {
    lr_mult: 1
    decay_mult: 1
  }
  param {
    lr_mult: 2
    decay_mult: 0
  }
  inner_product_param {
    num_output: 4
    weight_filler {
      type: "xavier"
    }
    bias_filler {
      type: "constant"
      value: 0
    }
  }
}
layer {
  name: "out"
  type: "TanH"
  bottom: "fc2"
  top: "out"
}
layer {
  name: "loss"
  type: "EuclideanLoss"
  bottom: "out"
  bottom: "labels"
  top: "loss"
}
I0110 23:32:06.695366 2090763008 layer_factory.hpp:76] Creating layer data
I0110 23:32:06.695379 2090763008 net.cpp:106] Creating Layer data
I0110 23:32:06.695385 2090763008 net.cpp:411] data -> data
I0110 23:32:06.695405 2090763008 net.cpp:411] data -> labels
I0110 23:32:06.695417 2090763008 hdf5_data_layer.cpp:79] Loading list of HDF5 filenames from: /Users/JonathanLee/Desktop/sandbox/vision/Net/hdf/train_hdf.txt
I0110 23:32:06.695451 2090763008 hdf5_data_layer.cpp:93] Number of HDF5 files: 1
I0110 23:32:06.696599 2090763008 hdf5.cpp:32] Datatype class: H5T_FLOAT
I0110 23:32:07.454567 2090763008 net.cpp:150] Setting up data
I0110 23:32:07.454603 2090763008 net.cpp:157] Top shape: 750 3 125 125 (35156250)
I0110 23:32:07.454664 2090763008 net.cpp:157] Top shape: 750 4 (3000)
I0110 23:32:07.454687 2090763008 net.cpp:165] Memory required for data: 140637000
I0110 23:32:07.454699 2090763008 layer_factory.hpp:76] Creating layer conv1
I0110 23:32:07.454711 2090763008 net.cpp:106] Creating Layer conv1
I0110 23:32:07.454721 2090763008 net.cpp:454] conv1 <- data
I0110 23:32:07.454730 2090763008 net.cpp:411] conv1 -> conv1
I0110 23:32:07.459007 2090763008 net.cpp:150] Setting up conv1
I0110 23:32:07.459015 2090763008 net.cpp:157] Top shape: 750 16 115 115 (158700000)
I0110 23:32:07.459031 2090763008 net.cpp:165] Memory required for data: 775437000
I0110 23:32:07.459065 2090763008 layer_factory.hpp:76] Creating layer reluConv1
I0110 23:32:07.459074 2090763008 net.cpp:106] Creating Layer reluConv1
I0110 23:32:07.459079 2090763008 net.cpp:454] reluConv1 <- conv1
I0110 23:32:07.459085 2090763008 net.cpp:411] reluConv1 -> reluConv1
I0110 23:32:07.459092 2090763008 net.cpp:150] Setting up reluConv1
I0110 23:32:07.459096 2090763008 net.cpp:157] Top shape: 750 16 115 115 (158700000)
I0110 23:32:07.459103 2090763008 net.cpp:165] Memory required for data: 1410237000
I0110 23:32:07.459110 2090763008 layer_factory.hpp:76] Creating layer conv2
I0110 23:32:07.459120 2090763008 net.cpp:106] Creating Layer conv2
I0110 23:32:07.459127 2090763008 net.cpp:454] conv2 <- reluConv1
I0110 23:32:07.459136 2090763008 net.cpp:411] conv2 -> conv2
I0110 23:32:07.459417 2090763008 net.cpp:150] Setting up conv2
I0110 23:32:07.459422 2090763008 net.cpp:157] Top shape: 750 16 53 53 (33708000)
I0110 23:32:07.459439 2090763008 net.cpp:165] Memory required for data: 1545069000
I0110 23:32:07.459445 2090763008 layer_factory.hpp:76] Creating layer reluConv2
I0110 23:32:07.459451 2090763008 net.cpp:106] Creating Layer reluConv2
I0110 23:32:07.459455 2090763008 net.cpp:454] reluConv2 <- conv2
I0110 23:32:07.459461 2090763008 net.cpp:411] reluConv2 -> reluConv2
I0110 23:32:07.459471 2090763008 net.cpp:150] Setting up reluConv2
I0110 23:32:07.459475 2090763008 net.cpp:157] Top shape: 750 16 53 53 (33708000)
I0110 23:32:07.459481 2090763008 net.cpp:165] Memory required for data: 1679901000
I0110 23:32:07.459523 2090763008 layer_factory.hpp:76] Creating layer fc1
I0110 23:32:07.459537 2090763008 net.cpp:106] Creating Layer fc1
I0110 23:32:07.459540 2090763008 net.cpp:454] fc1 <- reluConv2
I0110 23:32:07.459547 2090763008 net.cpp:411] fc1 -> fc1
I0110 23:32:07.473609 2090763008 net.cpp:150] Setting up fc1
I0110 23:32:07.473623 2090763008 net.cpp:157] Top shape: 750 40 (30000)
I0110 23:32:07.473639 2090763008 net.cpp:165] Memory required for data: 1680021000
I0110 23:32:07.473691 2090763008 layer_factory.hpp:76] Creating layer relu1
I0110 23:32:07.473716 2090763008 net.cpp:106] Creating Layer relu1
I0110 23:32:07.473721 2090763008 net.cpp:454] relu1 <- fc1
I0110 23:32:07.473727 2090763008 net.cpp:411] relu1 -> relu1
I0110 23:32:07.473737 2090763008 net.cpp:150] Setting up relu1
I0110 23:32:07.473742 2090763008 net.cpp:157] Top shape: 750 40 (30000)
I0110 23:32:07.473750 2090763008 net.cpp:165] Memory required for data: 1680141000
I0110 23:32:07.473755 2090763008 layer_factory.hpp:76] Creating layer fc2
I0110 23:32:07.473762 2090763008 net.cpp:106] Creating Layer fc2
I0110 23:32:07.473767 2090763008 net.cpp:454] fc2 <- relu1
I0110 23:32:07.473773 2090763008 net.cpp:411] fc2 -> fc2
I0110 23:32:07.473793 2090763008 net.cpp:150] Setting up fc2
I0110 23:32:07.473798 2090763008 net.cpp:157] Top shape: 750 4 (3000)
I0110 23:32:07.473801 2090763008 net.cpp:165] Memory required for data: 1680153000
I0110 23:32:07.473808 2090763008 layer_factory.hpp:76] Creating layer out
I0110 23:32:07.473814 2090763008 net.cpp:106] Creating Layer out
I0110 23:32:07.473817 2090763008 net.cpp:454] out <- fc2
I0110 23:32:07.473822 2090763008 net.cpp:411] out -> out
I0110 23:32:07.473829 2090763008 net.cpp:150] Setting up out
I0110 23:32:07.473836 2090763008 net.cpp:157] Top shape: 750 4 (3000)
I0110 23:32:07.473841 2090763008 net.cpp:165] Memory required for data: 1680165000
I0110 23:32:07.473845 2090763008 layer_factory.hpp:76] Creating layer loss
I0110 23:32:07.473851 2090763008 net.cpp:106] Creating Layer loss
I0110 23:32:07.473855 2090763008 net.cpp:454] loss <- out
I0110 23:32:07.473860 2090763008 net.cpp:454] loss <- labels
I0110 23:32:07.473865 2090763008 net.cpp:411] loss -> loss
…
I0110 23:32:07.474220 2090763008 solver.cpp:180] Creating test net (#0) specified by net file: /Users/JonathanLee/Desktop/sandbox/vision/Net/nets/net2/trainer2.prototxt
I0110 23:32:07.474253 2090763008 net.cpp:322] The NetState phase (1) differed from the phase (0) specified by a rule in layer data
I0110 23:32:07.474273 2090763008 net.cpp:49] Initializing net from parameters: 
name: "net"
state {
  phase: TEST
}
layer {
  name: "data"
  type: "HDF5Data"
  top: "data"
  top: "labels"
  include {
    phase: TEST
  }
  hdf5_data_param {
    source: "/Users/JonathanLee/Desktop/sandbox/vision/Net/hdf/test_hdf.txt"
    batch_size: 200
  }
}
layer {
  name: "conv1"
  type: "Convolution"
  bottom: "data"
  top: "conv1"
  param {
    lr_mult: 1
    decay_mult: 1
  }
  param {
    lr_mult: 2
    decay_mult: 0
  }
  convolution_param {
    num_output: 16
    kernel_size: 11
    stride: 1
    weight_filler {
      type: "xavier"
    }
    bias_filler {
      type: "constant"
      value: 0
    }
  }
}
layer {
  name: "reluConv1"
  type: "ReLU"
  bottom: "conv1"
  top: "reluConv1"
}
layer {
  name: "conv2"
  type: "Convolution"
  bottom: "reluConv1"
  top: "conv2"
  param {
    lr_mult: 1
    decay_mult: 1
  }
  param {
    lr_mult: 2
    decay_mult: 0
  }
  convolution_param {
    num_output: 16
    kernel_size: 11
    stride: 2
    weight_filler {
      type: "xavier"
    }
    bias_filler {
      type: "constant"
      value: 0
    }
  }
}
layer {
  name: "reluConv2"
  type: "ReLU"
  bottom: "conv2"
  top: "reluConv2"
}
layer {
  name: "fc1"
  type: "InnerProduct"
  bottom: "reluConv2"
  top: "fc1"
  param {
    lr_mult: 1
    decay_mult: 1
  }
  param {
    lr_mult: 2
    decay_mult: 0
  }
  inner_product_param {
    num_output: 40
    weight_filler {
      type: "xavier"
    }
    bias_filler {
      type: "constant"
      value: 0
    }
  }
}
layer {
  name: "relu1"
  type: "ReLU"
  bottom: "fc1"
  top: "relu1"
}
layer {
  name: "fc2"
  type: "InnerProduct"
  bottom: "relu1"
  top: "fc2"
  param {
    lr_mult: 1
    decay_mult: 1
  }
  param {
    lr_mult: 2
    decay_mult: 0
  }
  inner_product_param {
    num_output: 4
    weight_filler {
      type: "xavier"
    }
    bias_filler {
      type: "constant"
      value: 0
    }
  }
}
layer {
  name: "out"
  type: "TanH"
  bottom: "fc2"
  top: "out"
}
layer {
  name: "loss"
  type: "EuclideanLoss"
  bottom: "out"
  bottom: "labels"
  top: "loss"
}
I0110 23:32:07.474405 2090763008 layer_factory.hpp:76] Creating layer data
I0110 23:32:07.474411 2090763008 net.cpp:106] Creating Layer data
I0110 23:32:07.474416 2090763008 net.cpp:411] data -> data
I0110 23:32:07.474424 2090763008 net.cpp:411] data -> labels
I0110 23:32:07.474431 2090763008 hdf5_data_layer.cpp:79] Loading list of HDF5 filenames from: /Users/JonathanLee/Desktop/sandbox/vision/Net/hdf/test_hdf.txt
I0110 23:32:07.474464 2090763008 hdf5_data_layer.cpp:93] Number of HDF5 files: 1
I0110 23:32:07.662328 2090763008 net.cpp:150] Setting up data
I0110 23:32:07.662349 2090763008 net.cpp:157] Top shape: 200 3 125 125 (9375000)
I0110 23:32:07.662367 2090763008 net.cpp:157] Top shape: 200 4 (800)
I0110 23:32:07.662371 2090763008 net.cpp:165] Memory required for data: 37503200
I0110 23:32:07.662415 2090763008 layer_factory.hpp:76] Creating layer conv1
I0110 23:32:07.662428 2090763008 net.cpp:106] Creating Layer conv1
I0110 23:32:07.662432 2090763008 net.cpp:454] conv1 <- data
I0110 23:32:07.662441 2090763008 net.cpp:411] conv1 -> conv1
I0110 23:32:07.662533 2090763008 net.cpp:150] Setting up conv1
I0110 23:32:07.662541 2090763008 net.cpp:157] Top shape: 200 16 115 115 (42320000)
I0110 23:32:07.662550 2090763008 net.cpp:165] Memory required for data: 206783200
I0110 23:32:07.662562 2090763008 layer_factory.hpp:76] Creating layer reluConv1
I0110 23:32:07.662570 2090763008 net.cpp:106] Creating Layer reluConv1
I0110 23:32:07.662576 2090763008 net.cpp:454] reluConv1 <- conv1
I0110 23:32:07.662583 2090763008 net.cpp:411] reluConv1 -> reluConv1
I0110 23:32:07.662591 2090763008 net.cpp:150] Setting up reluConv1
I0110 23:32:07.662595 2090763008 net.cpp:157] Top shape: 200 16 115 115 (42320000)
I0110 23:32:07.662600 2090763008 net.cpp:165] Memory required for data: 376063200
I0110 23:32:07.662603 2090763008 layer_factory.hpp:76] Creating layer conv2
I0110 23:32:07.662609 2090763008 net.cpp:106] Creating Layer conv2
I0110 23:32:07.662613 2090763008 net.cpp:454] conv2 <- reluConv1
I0110 23:32:07.662619 2090763008 net.cpp:411] conv2 -> conv2
I0110 23:32:07.662901 2090763008 net.cpp:150] Setting up conv2
I0110 23:32:07.662906 2090763008 net.cpp:157] Top shape: 200 16 53 53 (8988800)
I0110 23:32:07.662920 2090763008 net.cpp:165] Memory required for data: 412018400
I0110 23:32:07.662926 2090763008 layer_factory.hpp:76] Creating layer reluConv2
I0110 23:32:07.662931 2090763008 net.cpp:106] Creating Layer reluConv2
I0110 23:32:07.662935 2090763008 net.cpp:454] reluConv2 <- conv2
I0110 23:32:07.662950 2090763008 net.cpp:411] reluConv2 -> reluConv2
I0110 23:32:07.662956 2090763008 net.cpp:150] Setting up reluConv2
I0110 23:32:07.662961 2090763008 net.cpp:157] Top shape: 200 16 53 53 (8988800)
I0110 23:32:07.662964 2090763008 net.cpp:165] Memory required for data: 447973600
I0110 23:32:07.662967 2090763008 layer_factory.hpp:76] Creating layer fc1
I0110 23:32:07.662976 2090763008 net.cpp:106] Creating Layer fc1
I0110 23:32:07.662979 2090763008 net.cpp:454] fc1 <- reluConv2
I0110 23:32:07.662984 2090763008 net.cpp:411] fc1 -> fc1
I0110 23:32:07.677062 2090763008 net.cpp:150] Setting up fc1
I0110 23:32:07.677076 2090763008 net.cpp:157] Top shape: 200 40 (8000)
I0110 23:32:07.677093 2090763008 net.cpp:165] Memory required for data: 448005600
I0110 23:32:07.677101 2090763008 layer_factory.hpp:76] Creating layer relu1
I0110 23:32:07.677109 2090763008 net.cpp:106] Creating Layer relu1
I0110 23:32:07.677114 2090763008 net.cpp:454] relu1 <- fc1
I0110 23:32:07.677130 2090763008 net.cpp:411] relu1 -> relu1
I0110 23:32:07.677139 2090763008 net.cpp:150] Setting up relu1
I0110 23:32:07.677142 2090763008 net.cpp:157] Top shape: 200 40 (8000)
I0110 23:32:07.677146 2090763008 net.cpp:165] Memory required for data: 448037600
I0110 23:32:07.677150 2090763008 layer_factory.hpp:76] Creating layer fc2
I0110 23:32:07.677156 2090763008 net.cpp:106] Creating Layer fc2
I0110 23:32:07.677161 2090763008 net.cpp:454] fc2 <- relu1
I0110 23:32:07.677166 2090763008 net.cpp:411] fc2 -> fc2
I0110 23:32:07.677181 2090763008 net.cpp:150] Setting up fc2
I0110 23:32:07.677186 2090763008 net.cpp:157] Top shape: 200 4 (800)
I0110 23:32:07.677189 2090763008 net.cpp:165] Memory required for data: 448040800
I0110 23:32:07.677194 2090763008 layer_factory.hpp:76] Creating layer out
I0110 23:32:07.677201 2090763008 net.cpp:106] Creating Layer out
I0110 23:32:07.677204 2090763008 net.cpp:454] out <- fc2
I0110 23:32:07.677209 2090763008 net.cpp:411] out -> out
I0110 23:32:07.677216 2090763008 net.cpp:150] Setting up out
I0110 23:32:07.677219 2090763008 net.cpp:157] Top shape: 200 4 (800)
I0110 23:32:07.677223 2090763008 net.cpp:165] Memory required for data: 448044000
I0110 23:32:07.677227 2090763008 layer_factory.hpp:76] Creating layer loss
I0110 23:32:07.677232 2090763008 net.cpp:106] Creating Layer loss
I0110 23:32:07.677237 2090763008 net.cpp:454] loss <- out
I0110 23:32:07.677263 2090763008 net.cpp:454] loss <- labels
I0110 23:32:07.677268 2090763008 net.cpp:411] loss -> loss
…
