…
I1207 02:50:42.588532 2039878400 solver.cpp:90] Creating training net from net file: /Users/JonathanLee/Desktop/sandbox/vision/Net/nets/net2/trainer2.prototxt
I1207 02:50:42.588752 2039878400 net.cpp:322] The NetState phase (0) differed from the phase (1) specified by a rule in layer data
I1207 02:50:42.588771 2039878400 net.cpp:49] Initializing net from parameters: 
name: "net"
state {
  phase: TRAIN
}
layer {
  name: "data"
  type: "HDF5Data"
  top: "data"
  top: "labels"
  include {
    phase: TRAIN
  }
  hdf5_data_param {
    source: "/Users/JonathanLee/Desktop/sandbox/vision/Net/hdf/train_hdf.txt"
    batch_size: 500
  }
}
layer {
  name: "conv1"
  type: "Convolution"
  bottom: "data"
  top: "conv1"
  param {
    lr_mult: 1
    decay_mult: 1
  }
  param {
    lr_mult: 2
    decay_mult: 0
  }
  convolution_param {
    num_output: 16
    kernel_size: 11
    stride: 1
    weight_filler {
      type: "xavier"
    }
    bias_filler {
      type: "constant"
      value: 0
    }
  }
}
layer {
  name: "reluConv1"
  type: "ReLU"
  bottom: "conv1"
  top: "reluConv1"
}
layer {
  name: "conv2"
  type: "Convolution"
  bottom: "reluConv1"
  top: "conv2"
  param {
    lr_mult: 1
    decay_mult: 1
  }
  param {
    lr_mult: 2
    decay_mult: 0
  }
  convolution_param {
    num_output: 16
    kernel_size: 11
    stride: 2
    weight_filler {
      type: "xavier"
    }
    bias_filler {
      type: "constant"
      value: 0
    }
  }
}
layer {
  name: "reluConv2"
  type: "ReLU"
  bottom: "conv2"
  top: "reluConv2"
}
layer {
  name: "fc1"
  type: "InnerProduct"
  bottom: "reluConv2"
  top: "fc1"
  param {
    lr_mult: 1
    decay_mult: 1
  }
  param {
    lr_mult: 2
    decay_mult: 0
  }
  inner_product_param {
    num_output: 40
    weight_filler {
      type: "xavier"
    }
    bias_filler {
      type: "constant"
      value: 0
    }
  }
}
layer {
  name: "relu1"
  type: "ReLU"
  bottom: "fc1"
  top: "relu1"
}
layer {
  name: "fc2"
  type: "InnerProduct"
  bottom: "relu1"
  top: "fc2"
  param {
    lr_mult: 1
    decay_mult: 1
  }
  param {
    lr_mult: 2
    decay_mult: 0
  }
  inner_product_param {
    num_output: 4
    weight_filler {
      type: "xavier"
    }
    bias_filler {
      type: "constant"
      value: 0
    }
  }
}
layer {
  name: "out"
  type: "TanH"
  bottom: "fc2"
  top: "out"
}
layer {
  name: "loss"
  type: "EuclideanLoss"
  bottom: "out"
  bottom: "labels"
  top: "loss"
}
I1207 02:50:42.588894 2039878400 layer_factory.hpp:76] Creating layer data
I1207 02:50:42.588908 2039878400 net.cpp:106] Creating Layer data
I1207 02:50:42.588914 2039878400 net.cpp:411] data -> data
I1207 02:50:42.588937 2039878400 net.cpp:411] data -> labels
I1207 02:50:42.588949 2039878400 hdf5_data_layer.cpp:79] Loading list of HDF5 filenames from: /Users/JonathanLee/Desktop/sandbox/vision/Net/hdf/train_hdf.txt
I1207 02:50:42.588984 2039878400 hdf5_data_layer.cpp:93] Number of HDF5 files: 1
I1207 02:50:42.590558 2039878400 hdf5.cpp:32] Datatype class: H5T_FLOAT
I1207 02:50:43.113632 2039878400 net.cpp:150] Setting up data
I1207 02:50:43.113662 2039878400 net.cpp:157] Top shape: 500 3 125 125 (23437500)
I1207 02:50:43.113674 2039878400 net.cpp:157] Top shape: 500 4 (2000)
I1207 02:50:43.113680 2039878400 net.cpp:165] Memory required for data: 93758000
I1207 02:50:43.113689 2039878400 layer_factory.hpp:76] Creating layer conv1
I1207 02:50:43.113703 2039878400 net.cpp:106] Creating Layer conv1
I1207 02:50:43.113713 2039878400 net.cpp:454] conv1 <- data
I1207 02:50:43.113724 2039878400 net.cpp:411] conv1 -> conv1
I1207 02:50:43.118613 2039878400 net.cpp:150] Setting up conv1
I1207 02:50:43.118625 2039878400 net.cpp:157] Top shape: 500 16 115 115 (105800000)
I1207 02:50:43.118633 2039878400 net.cpp:165] Memory required for data: 516958000
I1207 02:50:43.118674 2039878400 layer_factory.hpp:76] Creating layer reluConv1
I1207 02:50:43.118685 2039878400 net.cpp:106] Creating Layer reluConv1
I1207 02:50:43.118690 2039878400 net.cpp:454] reluConv1 <- conv1
I1207 02:50:43.118696 2039878400 net.cpp:411] reluConv1 -> reluConv1
I1207 02:50:43.118726 2039878400 net.cpp:150] Setting up reluConv1
I1207 02:50:43.118736 2039878400 net.cpp:157] Top shape: 500 16 115 115 (105800000)
I1207 02:50:43.118743 2039878400 net.cpp:165] Memory required for data: 940158000
I1207 02:50:43.118747 2039878400 layer_factory.hpp:76] Creating layer conv2
I1207 02:50:43.118755 2039878400 net.cpp:106] Creating Layer conv2
I1207 02:50:43.118759 2039878400 net.cpp:454] conv2 <- reluConv1
I1207 02:50:43.118767 2039878400 net.cpp:411] conv2 -> conv2
I1207 02:50:43.119009 2039878400 net.cpp:150] Setting up conv2
I1207 02:50:43.119014 2039878400 net.cpp:157] Top shape: 500 16 53 53 (22472000)
I1207 02:50:43.119031 2039878400 net.cpp:165] Memory required for data: 1030046000
I1207 02:50:43.119043 2039878400 layer_factory.hpp:76] Creating layer reluConv2
I1207 02:50:43.119050 2039878400 net.cpp:106] Creating Layer reluConv2
I1207 02:50:43.119055 2039878400 net.cpp:454] reluConv2 <- conv2
I1207 02:50:43.119060 2039878400 net.cpp:411] reluConv2 -> reluConv2
I1207 02:50:43.119066 2039878400 net.cpp:150] Setting up reluConv2
I1207 02:50:43.119070 2039878400 net.cpp:157] Top shape: 500 16 53 53 (22472000)
I1207 02:50:43.119076 2039878400 net.cpp:165] Memory required for data: 1119934000
I1207 02:50:43.119081 2039878400 layer_factory.hpp:76] Creating layer fc1
I1207 02:50:43.119096 2039878400 net.cpp:106] Creating Layer fc1
I1207 02:50:43.119102 2039878400 net.cpp:454] fc1 <- reluConv2
I1207 02:50:43.119107 2039878400 net.cpp:411] fc1 -> fc1
I1207 02:50:43.133252 2039878400 net.cpp:150] Setting up fc1
I1207 02:50:43.133287 2039878400 net.cpp:157] Top shape: 500 40 (20000)
I1207 02:50:43.133293 2039878400 net.cpp:165] Memory required for data: 1120014000
I1207 02:50:43.133303 2039878400 layer_factory.hpp:76] Creating layer relu1
I1207 02:50:43.133313 2039878400 net.cpp:106] Creating Layer relu1
I1207 02:50:43.133317 2039878400 net.cpp:454] relu1 <- fc1
I1207 02:50:43.133334 2039878400 net.cpp:411] relu1 -> relu1
I1207 02:50:43.133347 2039878400 net.cpp:150] Setting up relu1
I1207 02:50:43.133350 2039878400 net.cpp:157] Top shape: 500 40 (20000)
I1207 02:50:43.133355 2039878400 net.cpp:165] Memory required for data: 1120094000
I1207 02:50:43.133359 2039878400 layer_factory.hpp:76] Creating layer fc2
I1207 02:50:43.133366 2039878400 net.cpp:106] Creating Layer fc2
I1207 02:50:43.133371 2039878400 net.cpp:454] fc2 <- relu1
I1207 02:50:43.133376 2039878400 net.cpp:411] fc2 -> fc2
I1207 02:50:43.133395 2039878400 net.cpp:150] Setting up fc2
I1207 02:50:43.133400 2039878400 net.cpp:157] Top shape: 500 4 (2000)
I1207 02:50:43.133405 2039878400 net.cpp:165] Memory required for data: 1120102000
I1207 02:50:43.133410 2039878400 layer_factory.hpp:76] Creating layer out
I1207 02:50:43.133416 2039878400 net.cpp:106] Creating Layer out
I1207 02:50:43.133420 2039878400 net.cpp:454] out <- fc2
I1207 02:50:43.133425 2039878400 net.cpp:411] out -> out
I1207 02:50:43.133432 2039878400 net.cpp:150] Setting up out
I1207 02:50:43.133436 2039878400 net.cpp:157] Top shape: 500 4 (2000)
I1207 02:50:43.133441 2039878400 net.cpp:165] Memory required for data: 1120110000
I1207 02:50:43.133445 2039878400 layer_factory.hpp:76] Creating layer loss
I1207 02:50:43.133451 2039878400 net.cpp:106] Creating Layer loss
I1207 02:50:43.133455 2039878400 net.cpp:454] loss <- out
I1207 02:50:43.133460 2039878400 net.cpp:454] loss <- labels
I1207 02:50:43.133465 2039878400 net.cpp:411] loss -> loss
…
I1207 02:50:43.133851 2039878400 solver.cpp:180] Creating test net (#0) specified by net file: /Users/JonathanLee/Desktop/sandbox/vision/Net/nets/net2/trainer2.prototxt
I1207 02:50:43.133883 2039878400 net.cpp:322] The NetState phase (1) differed from the phase (0) specified by a rule in layer data
I1207 02:50:43.133904 2039878400 net.cpp:49] Initializing net from parameters: 
name: "net"
state {
  phase: TEST
}
layer {
  name: "data"
  type: "HDF5Data"
  top: "data"
  top: "labels"
  include {
    phase: TEST
  }
  hdf5_data_param {
    source: "/Users/JonathanLee/Desktop/sandbox/vision/Net/hdf/test_hdf.txt"
    batch_size: 120
  }
}
layer {
  name: "conv1"
  type: "Convolution"
  bottom: "data"
  top: "conv1"
  param {
    lr_mult: 1
    decay_mult: 1
  }
  param {
    lr_mult: 2
    decay_mult: 0
  }
  convolution_param {
    num_output: 16
    kernel_size: 11
    stride: 1
    weight_filler {
      type: "xavier"
    }
    bias_filler {
      type: "constant"
      value: 0
    }
  }
}
layer {
  name: "reluConv1"
  type: "ReLU"
  bottom: "conv1"
  top: "reluConv1"
}
layer {
  name: "conv2"
  type: "Convolution"
  bottom: "reluConv1"
  top: "conv2"
  param {
    lr_mult: 1
    decay_mult: 1
  }
  param {
    lr_mult: 2
    decay_mult: 0
  }
  convolution_param {
    num_output: 16
    kernel_size: 11
    stride: 2
    weight_filler {
      type: "xavier"
    }
    bias_filler {
      type: "constant"
      value: 0
    }
  }
}
layer {
  name: "reluConv2"
  type: "ReLU"
  bottom: "conv2"
  top: "reluConv2"
}
layer {
  name: "fc1"
  type: "InnerProduct"
  bottom: "reluConv2"
  top: "fc1"
  param {
    lr_mult: 1
    decay_mult: 1
  }
  param {
    lr_mult: 2
    decay_mult: 0
  }
  inner_product_param {
    num_output: 40
    weight_filler {
      type: "xavier"
    }
    bias_filler {
      type: "constant"
      value: 0
    }
  }
}
layer {
  name: "relu1"
  type: "ReLU"
  bottom: "fc1"
  top: "relu1"
}
layer {
  name: "fc2"
  type: "InnerProduct"
  bottom: "relu1"
  top: "fc2"
  param {
    lr_mult: 1
    decay_mult: 1
  }
  param {
    lr_mult: 2
    decay_mult: 0
  }
  inner_product_param {
    num_output: 4
    weight_filler {
      type: "xavier"
    }
    bias_filler {
      type: "constant"
      value: 0
    }
  }
}
layer {
  name: "out"
  type: "TanH"
  bottom: "fc2"
  top: "out"
}
layer {
  name: "loss"
  type: "EuclideanLoss"
  bottom: "out"
  bottom: "labels"
  top: "loss"
}
I1207 02:50:43.134063 2039878400 layer_factory.hpp:76] Creating layer data
I1207 02:50:43.134070 2039878400 net.cpp:106] Creating Layer data
I1207 02:50:43.134086 2039878400 net.cpp:411] data -> data
I1207 02:50:43.134093 2039878400 net.cpp:411] data -> labels
I1207 02:50:43.134100 2039878400 hdf5_data_layer.cpp:79] Loading list of HDF5 filenames from: /Users/JonathanLee/Desktop/sandbox/vision/Net/hdf/test_hdf.txt
I1207 02:50:43.134124 2039878400 hdf5_data_layer.cpp:93] Number of HDF5 files: 1
I1207 02:50:43.281301 2039878400 net.cpp:150] Setting up data
I1207 02:50:43.281324 2039878400 net.cpp:157] Top shape: 120 3 125 125 (5625000)
I1207 02:50:43.281333 2039878400 net.cpp:157] Top shape: 120 4 (480)
I1207 02:50:43.281338 2039878400 net.cpp:165] Memory required for data: 22501920
I1207 02:50:43.281366 2039878400 layer_factory.hpp:76] Creating layer conv1
I1207 02:50:43.281379 2039878400 net.cpp:106] Creating Layer conv1
I1207 02:50:43.281386 2039878400 net.cpp:454] conv1 <- data
I1207 02:50:43.281394 2039878400 net.cpp:411] conv1 -> conv1
I1207 02:50:43.281477 2039878400 net.cpp:150] Setting up conv1
I1207 02:50:43.281484 2039878400 net.cpp:157] Top shape: 120 16 115 115 (25392000)
I1207 02:50:43.281491 2039878400 net.cpp:165] Memory required for data: 124069920
I1207 02:50:43.281499 2039878400 layer_factory.hpp:76] Creating layer reluConv1
I1207 02:50:43.281507 2039878400 net.cpp:106] Creating Layer reluConv1
I1207 02:50:43.281510 2039878400 net.cpp:454] reluConv1 <- conv1
I1207 02:50:43.281520 2039878400 net.cpp:411] reluConv1 -> reluConv1
I1207 02:50:43.281533 2039878400 net.cpp:150] Setting up reluConv1
I1207 02:50:43.281538 2039878400 net.cpp:157] Top shape: 120 16 115 115 (25392000)
I1207 02:50:43.281544 2039878400 net.cpp:165] Memory required for data: 225637920
I1207 02:50:43.281548 2039878400 layer_factory.hpp:76] Creating layer conv2
I1207 02:50:43.281556 2039878400 net.cpp:106] Creating Layer conv2
I1207 02:50:43.281561 2039878400 net.cpp:454] conv2 <- reluConv1
I1207 02:50:43.281568 2039878400 net.cpp:411] conv2 -> conv2
I1207 02:50:43.281873 2039878400 net.cpp:150] Setting up conv2
I1207 02:50:43.281879 2039878400 net.cpp:157] Top shape: 120 16 53 53 (5393280)
I1207 02:50:43.281885 2039878400 net.cpp:165] Memory required for data: 247211040
I1207 02:50:43.281894 2039878400 layer_factory.hpp:76] Creating layer reluConv2
I1207 02:50:43.281901 2039878400 net.cpp:106] Creating Layer reluConv2
I1207 02:50:43.281905 2039878400 net.cpp:454] reluConv2 <- conv2
I1207 02:50:43.281911 2039878400 net.cpp:411] reluConv2 -> reluConv2
I1207 02:50:43.281919 2039878400 net.cpp:150] Setting up reluConv2
I1207 02:50:43.281924 2039878400 net.cpp:157] Top shape: 120 16 53 53 (5393280)
I1207 02:50:43.281929 2039878400 net.cpp:165] Memory required for data: 268784160
I1207 02:50:43.281932 2039878400 layer_factory.hpp:76] Creating layer fc1
I1207 02:50:43.281940 2039878400 net.cpp:106] Creating Layer fc1
I1207 02:50:43.281946 2039878400 net.cpp:454] fc1 <- reluConv2
I1207 02:50:43.281960 2039878400 net.cpp:411] fc1 -> fc1
I1207 02:50:43.296272 2039878400 net.cpp:150] Setting up fc1
I1207 02:50:43.296291 2039878400 net.cpp:157] Top shape: 120 40 (4800)
I1207 02:50:43.296296 2039878400 net.cpp:165] Memory required for data: 268803360
I1207 02:50:43.296306 2039878400 layer_factory.hpp:76] Creating layer relu1
I1207 02:50:43.296314 2039878400 net.cpp:106] Creating Layer relu1
I1207 02:50:43.296319 2039878400 net.cpp:454] relu1 <- fc1
I1207 02:50:43.296324 2039878400 net.cpp:411] relu1 -> relu1
I1207 02:50:43.296344 2039878400 net.cpp:150] Setting up relu1
I1207 02:50:43.296349 2039878400 net.cpp:157] Top shape: 120 40 (4800)
I1207 02:50:43.296352 2039878400 net.cpp:165] Memory required for data: 268822560
I1207 02:50:43.296356 2039878400 layer_factory.hpp:76] Creating layer fc2
I1207 02:50:43.296370 2039878400 net.cpp:106] Creating Layer fc2
I1207 02:50:43.296373 2039878400 net.cpp:454] fc2 <- relu1
I1207 02:50:43.296378 2039878400 net.cpp:411] fc2 -> fc2
I1207 02:50:43.296393 2039878400 net.cpp:150] Setting up fc2
I1207 02:50:43.296399 2039878400 net.cpp:157] Top shape: 120 4 (480)
I1207 02:50:43.296403 2039878400 net.cpp:165] Memory required for data: 268824480
I1207 02:50:43.296408 2039878400 layer_factory.hpp:76] Creating layer out
I1207 02:50:43.296416 2039878400 net.cpp:106] Creating Layer out
I1207 02:50:43.296421 2039878400 net.cpp:454] out <- fc2
I1207 02:50:43.296425 2039878400 net.cpp:411] out -> out
I1207 02:50:43.296432 2039878400 net.cpp:150] Setting up out
I1207 02:50:43.296437 2039878400 net.cpp:157] Top shape: 120 4 (480)
I1207 02:50:43.296452 2039878400 net.cpp:165] Memory required for data: 268826400
I1207 02:50:43.296465 2039878400 layer_factory.hpp:76] Creating layer loss
I1207 02:50:43.296475 2039878400 net.cpp:106] Creating Layer loss
I1207 02:50:43.296479 2039878400 net.cpp:454] loss <- out
I1207 02:50:43.296509 2039878400 net.cpp:454] loss <- labels
I1207 02:50:43.296525 2039878400 net.cpp:411] loss -> loss
…
