…
I1204 03:55:54.750388 1969066752 solver.cpp:90] Creating training net from net file: /Users/JonathanLee/Desktop/sandbox/vision/Net/nets/net2/trainer2.prototxt
I1204 03:55:54.750612 1969066752 net.cpp:322] The NetState phase (0) differed from the phase (1) specified by a rule in layer data
I1204 03:55:54.750632 1969066752 net.cpp:49] Initializing net from parameters: 
name: "net"
state {
  phase: TRAIN
}
layer {
  name: "data"
  type: "HDF5Data"
  top: "data"
  top: "labels"
  include {
    phase: TRAIN
  }
  hdf5_data_param {
    source: "/Users/JonathanLee/Desktop/sandbox/vision/Net/hdf/train_hdf.txt"
    batch_size: 450
  }
}
layer {
  name: "conv1"
  type: "Convolution"
  bottom: "data"
  top: "conv1"
  param {
    lr_mult: 1
    decay_mult: 1
  }
  param {
    lr_mult: 2
    decay_mult: 0
  }
  convolution_param {
    num_output: 16
    kernel_size: 11
    stride: 1
    weight_filler {
      type: "xavier"
    }
    bias_filler {
      type: "constant"
      value: 0
    }
  }
}
layer {
  name: "reluConv1"
  type: "ReLU"
  bottom: "conv1"
  top: "conv1"
}
layer {
  name: "conv2"
  type: "Convolution"
  bottom: "conv1"
  top: "conv2"
  param {
    lr_mult: 1
    decay_mult: 1
  }
  param {
    lr_mult: 2
    decay_mult: 0
  }
  convolution_param {
    num_output: 16
    kernel_size: 11
    stride: 2
    weight_filler {
      type: "xavier"
    }
    bias_filler {
      type: "constant"
      value: 0
    }
  }
}
layer {
  name: "reluConv2"
  type: "ReLU"
  bottom: "conv2"
  top: "conv2"
}
layer {
  name: "fc1"
  type: "InnerProduct"
  bottom: "conv2"
  top: "fc1"
  param {
    lr_mult: 1
    decay_mult: 1
  }
  param {
    lr_mult: 2
    decay_mult: 0
  }
  inner_product_param {
    num_output: 40
    weight_filler {
      type: "xavier"
    }
    bias_filler {
      type: "constant"
      value: 0
    }
  }
}
layer {
  name: "relu1"
  type: "ReLU"
  bottom: "fc1"
  top: "fc1"
}
layer {
  name: "fc2"
  type: "InnerProduct"
  bottom: "fc1"
  top: "fc2"
  param {
    lr_mult: 1
    decay_mult: 1
  }
  param {
    lr_mult: 2
    decay_mult: 0
  }
  inner_product_param {
    num_output: 4
    weight_filler {
      type: "xavier"
    }
    bias_filler {
      type: "constant"
      value: 0
    }
  }
}
layer {
  name: "out"
  type: "TanH"
  bottom: "fc2"
  top: "out"
}
layer {
  name: "loss"
  type: "EuclideanLoss"
  bottom: "out"
  bottom: "labels"
  top: "loss"
}
I1204 03:55:54.750758 1969066752 layer_factory.hpp:76] Creating layer data
I1204 03:55:54.750771 1969066752 net.cpp:106] Creating Layer data
I1204 03:55:54.750777 1969066752 net.cpp:411] data -> data
I1204 03:55:54.750794 1969066752 net.cpp:411] data -> labels
I1204 03:55:54.750808 1969066752 hdf5_data_layer.cpp:79] Loading list of HDF5 filenames from: /Users/JonathanLee/Desktop/sandbox/vision/Net/hdf/train_hdf.txt
I1204 03:55:54.750838 1969066752 hdf5_data_layer.cpp:93] Number of HDF5 files: 1
I1204 03:55:54.751795 1969066752 hdf5.cpp:32] Datatype class: H5T_FLOAT
I1204 03:55:54.971120 1969066752 net.cpp:150] Setting up data
I1204 03:55:54.971146 1969066752 net.cpp:157] Top shape: 450 3 125 125 (21093750)
I1204 03:55:54.971158 1969066752 net.cpp:157] Top shape: 450 4 (1800)
I1204 03:55:54.971164 1969066752 net.cpp:165] Memory required for data: 84382200
I1204 03:55:54.971173 1969066752 layer_factory.hpp:76] Creating layer conv1
I1204 03:55:54.971184 1969066752 net.cpp:106] Creating Layer conv1
I1204 03:55:54.971192 1969066752 net.cpp:454] conv1 <- data
I1204 03:55:54.971201 1969066752 net.cpp:411] conv1 -> conv1
I1204 03:55:54.976092 1969066752 net.cpp:150] Setting up conv1
I1204 03:55:54.976106 1969066752 net.cpp:157] Top shape: 450 16 115 115 (95220000)
I1204 03:55:54.976124 1969066752 net.cpp:165] Memory required for data: 465262200
I1204 03:55:54.976164 1969066752 layer_factory.hpp:76] Creating layer reluConv1
I1204 03:55:54.976176 1969066752 net.cpp:106] Creating Layer reluConv1
I1204 03:55:54.976181 1969066752 net.cpp:454] reluConv1 <- conv1
I1204 03:55:54.976188 1969066752 net.cpp:397] reluConv1 -> conv1 (in-place)
I1204 03:55:54.976198 1969066752 net.cpp:150] Setting up reluConv1
I1204 03:55:54.976202 1969066752 net.cpp:157] Top shape: 450 16 115 115 (95220000)
I1204 03:55:54.976207 1969066752 net.cpp:165] Memory required for data: 846142200
I1204 03:55:54.976212 1969066752 layer_factory.hpp:76] Creating layer conv2
I1204 03:55:54.976218 1969066752 net.cpp:106] Creating Layer conv2
I1204 03:55:54.976223 1969066752 net.cpp:454] conv2 <- conv1
I1204 03:55:54.976233 1969066752 net.cpp:411] conv2 -> conv2
I1204 03:55:54.976524 1969066752 net.cpp:150] Setting up conv2
I1204 03:55:54.976531 1969066752 net.cpp:157] Top shape: 450 16 53 53 (20224800)
I1204 03:55:54.976547 1969066752 net.cpp:165] Memory required for data: 927041400
I1204 03:55:54.976553 1969066752 layer_factory.hpp:76] Creating layer reluConv2
I1204 03:55:54.976559 1969066752 net.cpp:106] Creating Layer reluConv2
I1204 03:55:54.976563 1969066752 net.cpp:454] reluConv2 <- conv2
I1204 03:55:54.976569 1969066752 net.cpp:397] reluConv2 -> conv2 (in-place)
I1204 03:55:54.976577 1969066752 net.cpp:150] Setting up reluConv2
I1204 03:55:54.976582 1969066752 net.cpp:157] Top shape: 450 16 53 53 (20224800)
I1204 03:55:54.976586 1969066752 net.cpp:165] Memory required for data: 1007940600
I1204 03:55:54.976589 1969066752 layer_factory.hpp:76] Creating layer fc1
I1204 03:55:54.976631 1969066752 net.cpp:106] Creating Layer fc1
I1204 03:55:54.976639 1969066752 net.cpp:454] fc1 <- conv2
I1204 03:55:54.976647 1969066752 net.cpp:411] fc1 -> fc1
I1204 03:55:54.992647 1969066752 net.cpp:150] Setting up fc1
I1204 03:55:54.992665 1969066752 net.cpp:157] Top shape: 450 40 (18000)
I1204 03:55:54.992681 1969066752 net.cpp:165] Memory required for data: 1008012600
I1204 03:55:54.992691 1969066752 layer_factory.hpp:76] Creating layer relu1
I1204 03:55:54.992697 1969066752 net.cpp:106] Creating Layer relu1
I1204 03:55:54.992702 1969066752 net.cpp:454] relu1 <- fc1
I1204 03:55:54.992708 1969066752 net.cpp:397] relu1 -> fc1 (in-place)
I1204 03:55:54.992717 1969066752 net.cpp:150] Setting up relu1
I1204 03:55:54.992722 1969066752 net.cpp:157] Top shape: 450 40 (18000)
I1204 03:55:54.992727 1969066752 net.cpp:165] Memory required for data: 1008084600
I1204 03:55:54.992732 1969066752 layer_factory.hpp:76] Creating layer fc2
I1204 03:55:54.992738 1969066752 net.cpp:106] Creating Layer fc2
I1204 03:55:54.992743 1969066752 net.cpp:454] fc2 <- fc1
I1204 03:55:54.992768 1969066752 net.cpp:411] fc2 -> fc2
I1204 03:55:54.992800 1969066752 net.cpp:150] Setting up fc2
I1204 03:55:54.992805 1969066752 net.cpp:157] Top shape: 450 4 (1800)
I1204 03:55:54.992810 1969066752 net.cpp:165] Memory required for data: 1008091800
I1204 03:55:54.992816 1969066752 layer_factory.hpp:76] Creating layer out
I1204 03:55:54.992825 1969066752 net.cpp:106] Creating Layer out
I1204 03:55:54.992828 1969066752 net.cpp:454] out <- fc2
I1204 03:55:54.992833 1969066752 net.cpp:411] out -> out
I1204 03:55:54.992841 1969066752 net.cpp:150] Setting up out
I1204 03:55:54.992844 1969066752 net.cpp:157] Top shape: 450 4 (1800)
I1204 03:55:54.992849 1969066752 net.cpp:165] Memory required for data: 1008099000
I1204 03:55:54.992852 1969066752 layer_factory.hpp:76] Creating layer loss
I1204 03:55:54.992859 1969066752 net.cpp:106] Creating Layer loss
I1204 03:55:54.992862 1969066752 net.cpp:454] loss <- out
I1204 03:55:54.992867 1969066752 net.cpp:454] loss <- labels
I1204 03:55:54.992871 1969066752 net.cpp:411] loss -> loss
…
I1204 03:55:54.993202 1969066752 solver.cpp:180] Creating test net (#0) specified by net file: /Users/JonathanLee/Desktop/sandbox/vision/Net/nets/net2/trainer2.prototxt
I1204 03:55:54.993227 1969066752 net.cpp:322] The NetState phase (1) differed from the phase (0) specified by a rule in layer data
I1204 03:55:54.993237 1969066752 net.cpp:49] Initializing net from parameters: 
name: "net"
state {
  phase: TEST
}
layer {
  name: "data"
  type: "HDF5Data"
  top: "data"
  top: "labels"
  include {
    phase: TEST
  }
  hdf5_data_param {
    source: "/Users/JonathanLee/Desktop/sandbox/vision/Net/hdf/test_hdf.txt"
    batch_size: 120
  }
}
layer {
  name: "conv1"
  type: "Convolution"
  bottom: "data"
  top: "conv1"
  param {
    lr_mult: 1
    decay_mult: 1
  }
  param {
    lr_mult: 2
    decay_mult: 0
  }
  convolution_param {
    num_output: 16
    kernel_size: 11
    stride: 1
    weight_filler {
      type: "xavier"
    }
    bias_filler {
      type: "constant"
      value: 0
    }
  }
}
layer {
  name: "reluConv1"
  type: "ReLU"
  bottom: "conv1"
  top: "conv1"
}
layer {
  name: "conv2"
  type: "Convolution"
  bottom: "conv1"
  top: "conv2"
  param {
    lr_mult: 1
    decay_mult: 1
  }
  param {
    lr_mult: 2
    decay_mult: 0
  }
  convolution_param {
    num_output: 16
    kernel_size: 11
    stride: 2
    weight_filler {
      type: "xavier"
    }
    bias_filler {
      type: "constant"
      value: 0
    }
  }
}
layer {
  name: "reluConv2"
  type: "ReLU"
  bottom: "conv2"
  top: "conv2"
}
layer {
  name: "fc1"
  type: "InnerProduct"
  bottom: "conv2"
  top: "fc1"
  param {
    lr_mult: 1
    decay_mult: 1
  }
  param {
    lr_mult: 2
    decay_mult: 0
  }
  inner_product_param {
    num_output: 40
    weight_filler {
      type: "xavier"
    }
    bias_filler {
      type: "constant"
      value: 0
    }
  }
}
layer {
  name: "relu1"
  type: "ReLU"
  bottom: "fc1"
  top: "fc1"
}
layer {
  name: "fc2"
  type: "InnerProduct"
  bottom: "fc1"
  top: "fc2"
  param {
    lr_mult: 1
    decay_mult: 1
  }
  param {
    lr_mult: 2
    decay_mult: 0
  }
  inner_product_param {
    num_output: 4
    weight_filler {
      type: "xavier"
    }
    bias_filler {
      type: "constant"
      value: 0
    }
  }
}
layer {
  name: "out"
  type: "TanH"
  bottom: "fc2"
  top: "out"
}
layer {
  name: "loss"
  type: "EuclideanLoss"
  bottom: "out"
  bottom: "labels"
  top: "loss"
}
I1204 03:55:54.993393 1969066752 layer_factory.hpp:76] Creating layer data
I1204 03:55:54.993409 1969066752 net.cpp:106] Creating Layer data
I1204 03:55:54.993422 1969066752 net.cpp:411] data -> data
I1204 03:55:54.993437 1969066752 net.cpp:411] data -> labels
I1204 03:55:54.993449 1969066752 hdf5_data_layer.cpp:79] Loading list of HDF5 filenames from: /Users/JonathanLee/Desktop/sandbox/vision/Net/hdf/test_hdf.txt
I1204 03:55:54.993486 1969066752 hdf5_data_layer.cpp:93] Number of HDF5 files: 1
I1204 03:55:55.055449 1969066752 net.cpp:150] Setting up data
I1204 03:55:55.055471 1969066752 net.cpp:157] Top shape: 120 3 125 125 (5625000)
I1204 03:55:55.055480 1969066752 net.cpp:157] Top shape: 120 4 (480)
I1204 03:55:55.055483 1969066752 net.cpp:165] Memory required for data: 22501920
I1204 03:55:55.055519 1969066752 layer_factory.hpp:76] Creating layer conv1
I1204 03:55:55.055531 1969066752 net.cpp:106] Creating Layer conv1
I1204 03:55:55.055538 1969066752 net.cpp:454] conv1 <- data
I1204 03:55:55.055549 1969066752 net.cpp:411] conv1 -> conv1
I1204 03:55:55.055649 1969066752 net.cpp:150] Setting up conv1
I1204 03:55:55.055654 1969066752 net.cpp:157] Top shape: 120 16 115 115 (25392000)
I1204 03:55:55.055660 1969066752 net.cpp:165] Memory required for data: 124069920
I1204 03:55:55.055667 1969066752 layer_factory.hpp:76] Creating layer reluConv1
I1204 03:55:55.055673 1969066752 net.cpp:106] Creating Layer reluConv1
I1204 03:55:55.055677 1969066752 net.cpp:454] reluConv1 <- conv1
I1204 03:55:55.055682 1969066752 net.cpp:397] reluConv1 -> conv1 (in-place)
I1204 03:55:55.055690 1969066752 net.cpp:150] Setting up reluConv1
I1204 03:55:55.055692 1969066752 net.cpp:157] Top shape: 120 16 115 115 (25392000)
I1204 03:55:55.055698 1969066752 net.cpp:165] Memory required for data: 225637920
I1204 03:55:55.055701 1969066752 layer_factory.hpp:76] Creating layer conv2
I1204 03:55:55.055707 1969066752 net.cpp:106] Creating Layer conv2
I1204 03:55:55.055711 1969066752 net.cpp:454] conv2 <- conv1
I1204 03:55:55.055717 1969066752 net.cpp:411] conv2 -> conv2
I1204 03:55:55.056080 1969066752 net.cpp:150] Setting up conv2
I1204 03:55:55.056089 1969066752 net.cpp:157] Top shape: 120 16 53 53 (5393280)
I1204 03:55:55.056094 1969066752 net.cpp:165] Memory required for data: 247211040
I1204 03:55:55.056133 1969066752 layer_factory.hpp:76] Creating layer reluConv2
I1204 03:55:55.056167 1969066752 net.cpp:106] Creating Layer reluConv2
I1204 03:55:55.056179 1969066752 net.cpp:454] reluConv2 <- conv2
I1204 03:55:55.056187 1969066752 net.cpp:397] reluConv2 -> conv2 (in-place)
I1204 03:55:55.056198 1969066752 net.cpp:150] Setting up reluConv2
I1204 03:55:55.056205 1969066752 net.cpp:157] Top shape: 120 16 53 53 (5393280)
I1204 03:55:55.056215 1969066752 net.cpp:165] Memory required for data: 268784160
I1204 03:55:55.056221 1969066752 layer_factory.hpp:76] Creating layer fc1
I1204 03:55:55.056232 1969066752 net.cpp:106] Creating Layer fc1
I1204 03:55:55.056236 1969066752 net.cpp:454] fc1 <- conv2
I1204 03:55:55.056246 1969066752 net.cpp:411] fc1 -> fc1
I1204 03:55:55.073194 1969066752 net.cpp:150] Setting up fc1
I1204 03:55:55.073213 1969066752 net.cpp:157] Top shape: 120 40 (4800)
I1204 03:55:55.073220 1969066752 net.cpp:165] Memory required for data: 268803360
I1204 03:55:55.073230 1969066752 layer_factory.hpp:76] Creating layer relu1
I1204 03:55:55.073237 1969066752 net.cpp:106] Creating Layer relu1
I1204 03:55:55.073241 1969066752 net.cpp:454] relu1 <- fc1
I1204 03:55:55.073253 1969066752 net.cpp:397] relu1 -> fc1 (in-place)
I1204 03:55:55.073262 1969066752 net.cpp:150] Setting up relu1
I1204 03:55:55.073266 1969066752 net.cpp:157] Top shape: 120 40 (4800)
I1204 03:55:55.073271 1969066752 net.cpp:165] Memory required for data: 268822560
I1204 03:55:55.073274 1969066752 layer_factory.hpp:76] Creating layer fc2
I1204 03:55:55.073281 1969066752 net.cpp:106] Creating Layer fc2
I1204 03:55:55.073285 1969066752 net.cpp:454] fc2 <- fc1
I1204 03:55:55.073290 1969066752 net.cpp:411] fc2 -> fc2
I1204 03:55:55.073307 1969066752 net.cpp:150] Setting up fc2
I1204 03:55:55.073312 1969066752 net.cpp:157] Top shape: 120 4 (480)
I1204 03:55:55.073319 1969066752 net.cpp:165] Memory required for data: 268824480
I1204 03:55:55.073328 1969066752 layer_factory.hpp:76] Creating layer out
I1204 03:55:55.073379 1969066752 net.cpp:106] Creating Layer out
I1204 03:55:55.073385 1969066752 net.cpp:454] out <- fc2
I1204 03:55:55.073395 1969066752 net.cpp:411] out -> out
I1204 03:55:55.073407 1969066752 net.cpp:150] Setting up out
I1204 03:55:55.073415 1969066752 net.cpp:157] Top shape: 120 4 (480)
I1204 03:55:55.073423 1969066752 net.cpp:165] Memory required for data: 268826400
I1204 03:55:55.073431 1969066752 layer_factory.hpp:76] Creating layer loss
I1204 03:55:55.073437 1969066752 net.cpp:106] Creating Layer loss
I1204 03:55:55.073462 1969066752 net.cpp:454] loss <- out
I1204 03:55:55.073467 1969066752 net.cpp:454] loss <- labels
I1204 03:55:55.073473 1969066752 net.cpp:411] loss -> loss
…
