…
I1209 18:40:36.835988 2039878400 solver.cpp:90] Creating training net from net file: /Users/JonathanLee/Desktop/sandbox/vision/Net/nets/net2/trainer2.prototxt
I1209 18:40:36.836189 2039878400 net.cpp:322] The NetState phase (0) differed from the phase (1) specified by a rule in layer data
I1209 18:40:36.836205 2039878400 net.cpp:49] Initializing net from parameters: 
name: "net"
state {
  phase: TRAIN
}
layer {
  name: "data"
  type: "HDF5Data"
  top: "data"
  top: "labels"
  include {
    phase: TRAIN
  }
  hdf5_data_param {
    source: "/Users/JonathanLee/Desktop/sandbox/vision/Net/hdf/train_hdf.txt"
    batch_size: 500
  }
}
layer {
  name: "conv1"
  type: "Convolution"
  bottom: "data"
  top: "conv1"
  param {
    lr_mult: 1
    decay_mult: 1
  }
  param {
    lr_mult: 2
    decay_mult: 0
  }
  convolution_param {
    num_output: 16
    kernel_size: 11
    stride: 1
    weight_filler {
      type: "xavier"
    }
    bias_filler {
      type: "constant"
      value: 0
    }
  }
}
layer {
  name: "reluConv1"
  type: "ReLU"
  bottom: "conv1"
  top: "reluConv1"
}
layer {
  name: "conv2"
  type: "Convolution"
  bottom: "reluConv1"
  top: "conv2"
  param {
    lr_mult: 1
    decay_mult: 1
  }
  param {
    lr_mult: 2
    decay_mult: 0
  }
  convolution_param {
    num_output: 16
    kernel_size: 11
    stride: 2
    weight_filler {
      type: "xavier"
    }
    bias_filler {
      type: "constant"
      value: 0
    }
  }
}
layer {
  name: "reluConv2"
  type: "ReLU"
  bottom: "conv2"
  top: "reluConv2"
}
layer {
  name: "fc1"
  type: "InnerProduct"
  bottom: "reluConv2"
  top: "fc1"
  param {
    lr_mult: 1
    decay_mult: 1
  }
  param {
    lr_mult: 2
    decay_mult: 0
  }
  inner_product_param {
    num_output: 40
    weight_filler {
      type: "xavier"
    }
    bias_filler {
      type: "constant"
      value: 0
    }
  }
}
layer {
  name: "relu1"
  type: "ReLU"
  bottom: "fc1"
  top: "relu1"
}
layer {
  name: "fc2"
  type: "InnerProduct"
  bottom: "relu1"
  top: "fc2"
  param {
    lr_mult: 1
    decay_mult: 1
  }
  param {
    lr_mult: 2
    decay_mult: 0
  }
  inner_product_param {
    num_output: 4
    weight_filler {
      type: "xavier"
    }
    bias_filler {
      type: "constant"
      value: 0
    }
  }
}
layer {
  name: "out"
  type: "TanH"
  bottom: "fc2"
  top: "out"
}
layer {
  name: "loss"
  type: "EuclideanLoss"
  bottom: "out"
  bottom: "labels"
  top: "loss"
}
I1209 18:40:36.836336 2039878400 layer_factory.hpp:76] Creating layer data
I1209 18:40:36.836354 2039878400 net.cpp:106] Creating Layer data
I1209 18:40:36.836364 2039878400 net.cpp:411] data -> data
I1209 18:40:36.836392 2039878400 net.cpp:411] data -> labels
I1209 18:40:36.836408 2039878400 hdf5_data_layer.cpp:79] Loading list of HDF5 filenames from: /Users/JonathanLee/Desktop/sandbox/vision/Net/hdf/train_hdf.txt
I1209 18:40:36.836441 2039878400 hdf5_data_layer.cpp:93] Number of HDF5 files: 1
I1209 18:40:36.837522 2039878400 hdf5.cpp:32] Datatype class: H5T_FLOAT
I1209 18:40:37.055598 2039878400 net.cpp:150] Setting up data
I1209 18:40:37.055634 2039878400 net.cpp:157] Top shape: 500 3 125 125 (23437500)
I1209 18:40:37.055701 2039878400 net.cpp:157] Top shape: 500 4 (2000)
I1209 18:40:37.055712 2039878400 net.cpp:165] Memory required for data: 93758000
I1209 18:40:37.055721 2039878400 layer_factory.hpp:76] Creating layer conv1
I1209 18:40:37.055733 2039878400 net.cpp:106] Creating Layer conv1
I1209 18:40:37.055768 2039878400 net.cpp:454] conv1 <- data
I1209 18:40:37.055786 2039878400 net.cpp:411] conv1 -> conv1
I1209 18:40:37.060158 2039878400 net.cpp:150] Setting up conv1
I1209 18:40:37.060173 2039878400 net.cpp:157] Top shape: 500 16 115 115 (105800000)
I1209 18:40:37.060190 2039878400 net.cpp:165] Memory required for data: 516958000
I1209 18:40:37.060235 2039878400 layer_factory.hpp:76] Creating layer reluConv1
I1209 18:40:37.060246 2039878400 net.cpp:106] Creating Layer reluConv1
I1209 18:40:37.060250 2039878400 net.cpp:454] reluConv1 <- conv1
I1209 18:40:37.060256 2039878400 net.cpp:411] reluConv1 -> reluConv1
I1209 18:40:37.060268 2039878400 net.cpp:150] Setting up reluConv1
I1209 18:40:37.060272 2039878400 net.cpp:157] Top shape: 500 16 115 115 (105800000)
I1209 18:40:37.060289 2039878400 net.cpp:165] Memory required for data: 940158000
I1209 18:40:37.060303 2039878400 layer_factory.hpp:76] Creating layer conv2
I1209 18:40:37.060314 2039878400 net.cpp:106] Creating Layer conv2
I1209 18:40:37.060320 2039878400 net.cpp:454] conv2 <- reluConv1
I1209 18:40:37.060333 2039878400 net.cpp:411] conv2 -> conv2
I1209 18:40:37.060619 2039878400 net.cpp:150] Setting up conv2
I1209 18:40:37.060626 2039878400 net.cpp:157] Top shape: 500 16 53 53 (22472000)
I1209 18:40:37.060642 2039878400 net.cpp:165] Memory required for data: 1030046000
I1209 18:40:37.060650 2039878400 layer_factory.hpp:76] Creating layer reluConv2
I1209 18:40:37.060658 2039878400 net.cpp:106] Creating Layer reluConv2
I1209 18:40:37.060663 2039878400 net.cpp:454] reluConv2 <- conv2
I1209 18:40:37.060674 2039878400 net.cpp:411] reluConv2 -> reluConv2
I1209 18:40:37.060683 2039878400 net.cpp:150] Setting up reluConv2
I1209 18:40:37.060686 2039878400 net.cpp:157] Top shape: 500 16 53 53 (22472000)
I1209 18:40:37.060693 2039878400 net.cpp:165] Memory required for data: 1119934000
I1209 18:40:37.060696 2039878400 layer_factory.hpp:76] Creating layer fc1
I1209 18:40:37.060704 2039878400 net.cpp:106] Creating Layer fc1
I1209 18:40:37.060708 2039878400 net.cpp:454] fc1 <- reluConv2
I1209 18:40:37.060714 2039878400 net.cpp:411] fc1 -> fc1
I1209 18:40:37.076942 2039878400 net.cpp:150] Setting up fc1
I1209 18:40:37.076961 2039878400 net.cpp:157] Top shape: 500 40 (20000)
I1209 18:40:37.076978 2039878400 net.cpp:165] Memory required for data: 1120014000
I1209 18:40:37.076987 2039878400 layer_factory.hpp:76] Creating layer relu1
I1209 18:40:37.076994 2039878400 net.cpp:106] Creating Layer relu1
I1209 18:40:37.076999 2039878400 net.cpp:454] relu1 <- fc1
I1209 18:40:37.077004 2039878400 net.cpp:411] relu1 -> relu1
I1209 18:40:37.077014 2039878400 net.cpp:150] Setting up relu1
I1209 18:40:37.077018 2039878400 net.cpp:157] Top shape: 500 40 (20000)
I1209 18:40:37.077023 2039878400 net.cpp:165] Memory required for data: 1120094000
I1209 18:40:37.077026 2039878400 layer_factory.hpp:76] Creating layer fc2
I1209 18:40:37.077033 2039878400 net.cpp:106] Creating Layer fc2
I1209 18:40:37.077039 2039878400 net.cpp:454] fc2 <- relu1
I1209 18:40:37.077051 2039878400 net.cpp:411] fc2 -> fc2
I1209 18:40:37.077098 2039878400 net.cpp:150] Setting up fc2
I1209 18:40:37.077111 2039878400 net.cpp:157] Top shape: 500 4 (2000)
I1209 18:40:37.077116 2039878400 net.cpp:165] Memory required for data: 1120102000
I1209 18:40:37.077122 2039878400 layer_factory.hpp:76] Creating layer out
I1209 18:40:37.077142 2039878400 net.cpp:106] Creating Layer out
I1209 18:40:37.077155 2039878400 net.cpp:454] out <- fc2
I1209 18:40:37.077164 2039878400 net.cpp:411] out -> out
I1209 18:40:37.077178 2039878400 net.cpp:150] Setting up out
I1209 18:40:37.077185 2039878400 net.cpp:157] Top shape: 500 4 (2000)
I1209 18:40:37.077191 2039878400 net.cpp:165] Memory required for data: 1120110000
I1209 18:40:37.077195 2039878400 layer_factory.hpp:76] Creating layer loss
I1209 18:40:37.077203 2039878400 net.cpp:106] Creating Layer loss
I1209 18:40:37.077206 2039878400 net.cpp:454] loss <- out
I1209 18:40:37.077211 2039878400 net.cpp:454] loss <- labels
I1209 18:40:37.077216 2039878400 net.cpp:411] loss -> loss
…
I1209 18:40:37.077608 2039878400 solver.cpp:180] Creating test net (#0) specified by net file: /Users/JonathanLee/Desktop/sandbox/vision/Net/nets/net2/trainer2.prototxt
I1209 18:40:37.077664 2039878400 net.cpp:322] The NetState phase (1) differed from the phase (0) specified by a rule in layer data
I1209 18:40:37.077680 2039878400 net.cpp:49] Initializing net from parameters: 
name: "net"
state {
  phase: TEST
}
layer {
  name: "data"
  type: "HDF5Data"
  top: "data"
  top: "labels"
  include {
    phase: TEST
  }
  hdf5_data_param {
    source: "/Users/JonathanLee/Desktop/sandbox/vision/Net/hdf/test_hdf.txt"
    batch_size: 120
  }
}
layer {
  name: "conv1"
  type: "Convolution"
  bottom: "data"
  top: "conv1"
  param {
    lr_mult: 1
    decay_mult: 1
  }
  param {
    lr_mult: 2
    decay_mult: 0
  }
  convolution_param {
    num_output: 16
    kernel_size: 11
    stride: 1
    weight_filler {
      type: "xavier"
    }
    bias_filler {
      type: "constant"
      value: 0
    }
  }
}
layer {
  name: "reluConv1"
  type: "ReLU"
  bottom: "conv1"
  top: "reluConv1"
}
layer {
  name: "conv2"
  type: "Convolution"
  bottom: "reluConv1"
  top: "conv2"
  param {
    lr_mult: 1
    decay_mult: 1
  }
  param {
    lr_mult: 2
    decay_mult: 0
  }
  convolution_param {
    num_output: 16
    kernel_size: 11
    stride: 2
    weight_filler {
      type: "xavier"
    }
    bias_filler {
      type: "constant"
      value: 0
    }
  }
}
layer {
  name: "reluConv2"
  type: "ReLU"
  bottom: "conv2"
  top: "reluConv2"
}
layer {
  name: "fc1"
  type: "InnerProduct"
  bottom: "reluConv2"
  top: "fc1"
  param {
    lr_mult: 1
    decay_mult: 1
  }
  param {
    lr_mult: 2
    decay_mult: 0
  }
  inner_product_param {
    num_output: 40
    weight_filler {
      type: "xavier"
    }
    bias_filler {
      type: "constant"
      value: 0
    }
  }
}
layer {
  name: "relu1"
  type: "ReLU"
  bottom: "fc1"
  top: "relu1"
}
layer {
  name: "fc2"
  type: "InnerProduct"
  bottom: "relu1"
  top: "fc2"
  param {
    lr_mult: 1
    decay_mult: 1
  }
  param {
    lr_mult: 2
    decay_mult: 0
  }
  inner_product_param {
    num_output: 4
    weight_filler {
      type: "xavier"
    }
    bias_filler {
      type: "constant"
      value: 0
    }
  }
}
layer {
  name: "out"
  type: "TanH"
  bottom: "fc2"
  top: "out"
}
layer {
  name: "loss"
  type: "EuclideanLoss"
  bottom: "out"
  bottom: "labels"
  top: "loss"
}
I1209 18:40:37.077841 2039878400 layer_factory.hpp:76] Creating layer data
I1209 18:40:37.077854 2039878400 net.cpp:106] Creating Layer data
I1209 18:40:37.077860 2039878400 net.cpp:411] data -> data
I1209 18:40:37.077868 2039878400 net.cpp:411] data -> labels
I1209 18:40:37.077875 2039878400 hdf5_data_layer.cpp:79] Loading list of HDF5 filenames from: /Users/JonathanLee/Desktop/sandbox/vision/Net/hdf/test_hdf.txt
I1209 18:40:37.077904 2039878400 hdf5_data_layer.cpp:93] Number of HDF5 files: 1
I1209 18:40:37.130085 2039878400 net.cpp:150] Setting up data
I1209 18:40:37.130110 2039878400 net.cpp:157] Top shape: 120 3 125 125 (5625000)
I1209 18:40:37.130117 2039878400 net.cpp:157] Top shape: 120 4 (480)
I1209 18:40:37.130121 2039878400 net.cpp:165] Memory required for data: 22501920
I1209 18:40:37.130154 2039878400 layer_factory.hpp:76] Creating layer conv1
I1209 18:40:37.130170 2039878400 net.cpp:106] Creating Layer conv1
I1209 18:40:37.130177 2039878400 net.cpp:454] conv1 <- data
I1209 18:40:37.130184 2039878400 net.cpp:411] conv1 -> conv1
I1209 18:40:37.131407 2039878400 net.cpp:150] Setting up conv1
I1209 18:40:37.131427 2039878400 net.cpp:157] Top shape: 120 16 115 115 (25392000)
I1209 18:40:37.131434 2039878400 net.cpp:165] Memory required for data: 124069920
I1209 18:40:37.131444 2039878400 layer_factory.hpp:76] Creating layer reluConv1
I1209 18:40:37.131454 2039878400 net.cpp:106] Creating Layer reluConv1
I1209 18:40:37.131458 2039878400 net.cpp:454] reluConv1 <- conv1
I1209 18:40:37.131464 2039878400 net.cpp:411] reluConv1 -> reluConv1
I1209 18:40:37.131479 2039878400 net.cpp:150] Setting up reluConv1
I1209 18:40:37.131484 2039878400 net.cpp:157] Top shape: 120 16 115 115 (25392000)
I1209 18:40:37.131489 2039878400 net.cpp:165] Memory required for data: 225637920
I1209 18:40:37.131494 2039878400 layer_factory.hpp:76] Creating layer conv2
I1209 18:40:37.131501 2039878400 net.cpp:106] Creating Layer conv2
I1209 18:40:37.131525 2039878400 net.cpp:454] conv2 <- reluConv1
I1209 18:40:37.131541 2039878400 net.cpp:411] conv2 -> conv2
I1209 18:40:37.131842 2039878400 net.cpp:150] Setting up conv2
I1209 18:40:37.131850 2039878400 net.cpp:157] Top shape: 120 16 53 53 (5393280)
I1209 18:40:37.131855 2039878400 net.cpp:165] Memory required for data: 247211040
I1209 18:40:37.131863 2039878400 layer_factory.hpp:76] Creating layer reluConv2
I1209 18:40:37.131870 2039878400 net.cpp:106] Creating Layer reluConv2
I1209 18:40:37.131875 2039878400 net.cpp:454] reluConv2 <- conv2
I1209 18:40:37.131893 2039878400 net.cpp:411] reluConv2 -> reluConv2
I1209 18:40:37.131903 2039878400 net.cpp:150] Setting up reluConv2
I1209 18:40:37.131907 2039878400 net.cpp:157] Top shape: 120 16 53 53 (5393280)
I1209 18:40:37.131924 2039878400 net.cpp:165] Memory required for data: 268784160
I1209 18:40:37.131938 2039878400 layer_factory.hpp:76] Creating layer fc1
I1209 18:40:37.131949 2039878400 net.cpp:106] Creating Layer fc1
I1209 18:40:37.131955 2039878400 net.cpp:454] fc1 <- reluConv2
I1209 18:40:37.131963 2039878400 net.cpp:411] fc1 -> fc1
I1209 18:40:37.147130 2039878400 net.cpp:150] Setting up fc1
I1209 18:40:37.147145 2039878400 net.cpp:157] Top shape: 120 40 (4800)
I1209 18:40:37.147161 2039878400 net.cpp:165] Memory required for data: 268803360
I1209 18:40:37.147169 2039878400 layer_factory.hpp:76] Creating layer relu1
I1209 18:40:37.147181 2039878400 net.cpp:106] Creating Layer relu1
I1209 18:40:37.147186 2039878400 net.cpp:454] relu1 <- fc1
I1209 18:40:37.147192 2039878400 net.cpp:411] relu1 -> relu1
I1209 18:40:37.147200 2039878400 net.cpp:150] Setting up relu1
I1209 18:40:37.147205 2039878400 net.cpp:157] Top shape: 120 40 (4800)
I1209 18:40:37.147598 2039878400 net.cpp:165] Memory required for data: 268822560
I1209 18:40:37.147806 2039878400 layer_factory.hpp:76] Creating layer fc2
I1209 18:40:37.147961 2039878400 net.cpp:106] Creating Layer fc2
I1209 18:40:37.148133 2039878400 net.cpp:454] fc2 <- relu1
I1209 18:40:37.148241 2039878400 net.cpp:411] fc2 -> fc2
I1209 18:40:37.148296 2039878400 net.cpp:150] Setting up fc2
I1209 18:40:37.148309 2039878400 net.cpp:157] Top shape: 120 4 (480)
I1209 18:40:37.148316 2039878400 net.cpp:165] Memory required for data: 268824480
I1209 18:40:37.148334 2039878400 layer_factory.hpp:76] Creating layer out
I1209 18:40:37.148360 2039878400 net.cpp:106] Creating Layer out
I1209 18:40:37.148380 2039878400 net.cpp:454] out <- fc2
I1209 18:40:37.148392 2039878400 net.cpp:411] out -> out
I1209 18:40:37.148403 2039878400 net.cpp:150] Setting up out
I1209 18:40:37.148408 2039878400 net.cpp:157] Top shape: 120 4 (480)
I1209 18:40:37.148413 2039878400 net.cpp:165] Memory required for data: 268826400
I1209 18:40:37.148421 2039878400 layer_factory.hpp:76] Creating layer loss
I1209 18:40:37.148432 2039878400 net.cpp:106] Creating Layer loss
I1209 18:40:37.148435 2039878400 net.cpp:454] loss <- out
I1209 18:40:37.148481 2039878400 net.cpp:454] loss <- labels
I1209 18:40:37.148494 2039878400 net.cpp:411] loss -> loss
…
