…
I1209 18:22:23.464494 2039878400 solver.cpp:90] Creating training net from net file: /Users/JonathanLee/Desktop/sandbox/vision/Net/nets/net3/trainer3.prototxt
I1209 18:22:23.465929 2039878400 net.cpp:322] The NetState phase (0) differed from the phase (1) specified by a rule in layer data
I1209 18:22:23.465950 2039878400 net.cpp:49] Initializing net from parameters: 
name: "net"
state {
  phase: TRAIN
}
layer {
  name: "data"
  type: "HDF5Data"
  top: "data"
  top: "labels"
  include {
    phase: TRAIN
  }
  hdf5_data_param {
    source: "/Users/JonathanLee/Desktop/sandbox/vision/Net/hdf/train_hdf.txt"
    batch_size: 500
  }
}
layer {
  name: "conv1"
  type: "Convolution"
  bottom: "data"
  top: "conv1"
  param {
    lr_mult: 1
    decay_mult: 1
  }
  param {
    lr_mult: 2
    decay_mult: 0
  }
  convolution_param {
    num_output: 16
    kernel_size: 11
    stride: 1
    weight_filler {
      type: "xavier"
    }
    bias_filler {
      type: "constant"
      value: 0
    }
  }
}
layer {
  name: "reluConv1"
  type: "ReLU"
  bottom: "conv1"
  top: "conv1"
}
layer {
  name: "fc1"
  type: "InnerProduct"
  bottom: "conv1"
  top: "fc1"
  param {
    lr_mult: 1
    decay_mult: 1
  }
  param {
    lr_mult: 2
    decay_mult: 0
  }
  inner_product_param {
    num_output: 40
    weight_filler {
      type: "xavier"
    }
    bias_filler {
      type: "constant"
      value: 0
    }
  }
}
layer {
  name: "relu1"
  type: "ReLU"
  bottom: "fc1"
  top: "fc1"
}
layer {
  name: "fc2"
  type: "InnerProduct"
  bottom: "fc1"
  top: "fc2"
  param {
    lr_mult: 1
    decay_mult: 1
  }
  param {
    lr_mult: 2
    decay_mult: 0
  }
  inner_product_param {
    num_output: 4
    weight_filler {
      type: "xavier"
    }
    bias_filler {
      type: "constant"
      value: 0
    }
  }
}
layer {
  name: "out"
  type: "TanH"
  bottom: "fc2"
  top: "out"
}
layer {
  name: "loss"
  type: "EuclideanLoss"
  bottom: "out"
  bottom: "labels"
  top: "loss"
}
I1209 18:22:23.466423 2039878400 layer_factory.hpp:76] Creating layer data
I1209 18:22:23.466444 2039878400 net.cpp:106] Creating Layer data
I1209 18:22:23.466449 2039878400 net.cpp:411] data -> data
I1209 18:22:23.466471 2039878400 net.cpp:411] data -> labels
I1209 18:22:23.466490 2039878400 hdf5_data_layer.cpp:79] Loading list of HDF5 filenames from: /Users/JonathanLee/Desktop/sandbox/vision/Net/hdf/train_hdf.txt
I1209 18:22:23.466552 2039878400 hdf5_data_layer.cpp:93] Number of HDF5 files: 1
I1209 18:22:23.485512 2039878400 hdf5.cpp:32] Datatype class: H5T_FLOAT
I1209 18:22:23.693037 2039878400 net.cpp:150] Setting up data
I1209 18:22:23.693064 2039878400 net.cpp:157] Top shape: 500 3 125 125 (23437500)
I1209 18:22:23.693074 2039878400 net.cpp:157] Top shape: 500 4 (2000)
I1209 18:22:23.693079 2039878400 net.cpp:165] Memory required for data: 93758000
I1209 18:22:23.693086 2039878400 layer_factory.hpp:76] Creating layer conv1
I1209 18:22:23.693097 2039878400 net.cpp:106] Creating Layer conv1
I1209 18:22:23.693104 2039878400 net.cpp:454] conv1 <- data
I1209 18:22:23.693112 2039878400 net.cpp:411] conv1 -> conv1
I1209 18:22:23.698931 2039878400 net.cpp:150] Setting up conv1
I1209 18:22:23.698942 2039878400 net.cpp:157] Top shape: 500 16 115 115 (105800000)
I1209 18:22:23.698959 2039878400 net.cpp:165] Memory required for data: 516958000
I1209 18:22:23.698967 2039878400 layer_factory.hpp:76] Creating layer reluConv1
I1209 18:22:23.698987 2039878400 net.cpp:106] Creating Layer reluConv1
I1209 18:22:23.698992 2039878400 net.cpp:454] reluConv1 <- conv1
I1209 18:22:23.698997 2039878400 net.cpp:397] reluConv1 -> conv1 (in-place)
I1209 18:22:23.699003 2039878400 net.cpp:150] Setting up reluConv1
I1209 18:22:23.699007 2039878400 net.cpp:157] Top shape: 500 16 115 115 (105800000)
I1209 18:22:23.699038 2039878400 net.cpp:165] Memory required for data: 940158000
I1209 18:22:23.699043 2039878400 layer_factory.hpp:76] Creating layer fc1
I1209 18:22:23.699050 2039878400 net.cpp:106] Creating Layer fc1
I1209 18:22:23.699054 2039878400 net.cpp:454] fc1 <- conv1
I1209 18:22:23.699069 2039878400 net.cpp:411] fc1 -> fc1
I1209 18:22:23.765836 2039878400 net.cpp:150] Setting up fc1
I1209 18:22:23.765861 2039878400 net.cpp:157] Top shape: 500 40 (20000)
I1209 18:22:23.765877 2039878400 net.cpp:165] Memory required for data: 940238000
I1209 18:22:23.765887 2039878400 layer_factory.hpp:76] Creating layer relu1
I1209 18:22:23.765897 2039878400 net.cpp:106] Creating Layer relu1
I1209 18:22:23.765902 2039878400 net.cpp:454] relu1 <- fc1
I1209 18:22:23.765918 2039878400 net.cpp:397] relu1 -> fc1 (in-place)
I1209 18:22:23.765926 2039878400 net.cpp:150] Setting up relu1
I1209 18:22:23.765930 2039878400 net.cpp:157] Top shape: 500 40 (20000)
I1209 18:22:23.765935 2039878400 net.cpp:165] Memory required for data: 940318000
I1209 18:22:23.765939 2039878400 layer_factory.hpp:76] Creating layer fc2
I1209 18:22:23.765946 2039878400 net.cpp:106] Creating Layer fc2
I1209 18:22:23.765950 2039878400 net.cpp:454] fc2 <- fc1
I1209 18:22:23.765964 2039878400 net.cpp:411] fc2 -> fc2
I1209 18:22:23.765981 2039878400 net.cpp:150] Setting up fc2
I1209 18:22:23.765986 2039878400 net.cpp:157] Top shape: 500 4 (2000)
I1209 18:22:23.765991 2039878400 net.cpp:165] Memory required for data: 940326000
I1209 18:22:23.765997 2039878400 layer_factory.hpp:76] Creating layer out
I1209 18:22:23.766002 2039878400 net.cpp:106] Creating Layer out
I1209 18:22:23.766006 2039878400 net.cpp:454] out <- fc2
I1209 18:22:23.766013 2039878400 net.cpp:411] out -> out
I1209 18:22:23.766019 2039878400 net.cpp:150] Setting up out
I1209 18:22:23.766023 2039878400 net.cpp:157] Top shape: 500 4 (2000)
I1209 18:22:23.766028 2039878400 net.cpp:165] Memory required for data: 940334000
I1209 18:22:23.766032 2039878400 layer_factory.hpp:76] Creating layer loss
I1209 18:22:23.766037 2039878400 net.cpp:106] Creating Layer loss
I1209 18:22:23.766042 2039878400 net.cpp:454] loss <- out
I1209 18:22:23.766047 2039878400 net.cpp:454] loss <- labels
I1209 18:22:23.766052 2039878400 net.cpp:411] loss -> loss
…
I1209 18:22:23.766387 2039878400 solver.cpp:180] Creating test net (#0) specified by net file: /Users/JonathanLee/Desktop/sandbox/vision/Net/nets/net3/trainer3.prototxt
I1209 18:22:23.766433 2039878400 net.cpp:322] The NetState phase (1) differed from the phase (0) specified by a rule in layer data
I1209 18:22:23.766443 2039878400 net.cpp:49] Initializing net from parameters: 
name: "net"
state {
  phase: TEST
}
layer {
  name: "data"
  type: "HDF5Data"
  top: "data"
  top: "labels"
  include {
    phase: TEST
  }
  hdf5_data_param {
    source: "/Users/JonathanLee/Desktop/sandbox/vision/Net/hdf/test_hdf.txt"
    batch_size: 120
  }
}
layer {
  name: "conv1"
  type: "Convolution"
  bottom: "data"
  top: "conv1"
  param {
    lr_mult: 1
    decay_mult: 1
  }
  param {
    lr_mult: 2
    decay_mult: 0
  }
  convolution_param {
    num_output: 16
    kernel_size: 11
    stride: 1
    weight_filler {
      type: "xavier"
    }
    bias_filler {
      type: "constant"
      value: 0
    }
  }
}
layer {
  name: "reluConv1"
  type: "ReLU"
  bottom: "conv1"
  top: "conv1"
}
layer {
  name: "fc1"
  type: "InnerProduct"
  bottom: "conv1"
  top: "fc1"
  param {
    lr_mult: 1
    decay_mult: 1
  }
  param {
    lr_mult: 2
    decay_mult: 0
  }
  inner_product_param {
    num_output: 40
    weight_filler {
      type: "xavier"
    }
    bias_filler {
      type: "constant"
      value: 0
    }
  }
}
layer {
  name: "relu1"
  type: "ReLU"
  bottom: "fc1"
  top: "fc1"
}
layer {
  name: "fc2"
  type: "InnerProduct"
  bottom: "fc1"
  top: "fc2"
  param {
    lr_mult: 1
    decay_mult: 1
  }
  param {
    lr_mult: 2
    decay_mult: 0
  }
  inner_product_param {
    num_output: 4
    weight_filler {
      type: "xavier"
    }
    bias_filler {
      type: "constant"
      value: 0
    }
  }
}
layer {
  name: "out"
  type: "TanH"
  bottom: "fc2"
  top: "out"
}
layer {
  name: "loss"
  type: "EuclideanLoss"
  bottom: "out"
  bottom: "labels"
  top: "loss"
}
I1209 18:22:23.766579 2039878400 layer_factory.hpp:76] Creating layer data
I1209 18:22:23.766587 2039878400 net.cpp:106] Creating Layer data
I1209 18:22:23.766593 2039878400 net.cpp:411] data -> data
I1209 18:22:23.766602 2039878400 net.cpp:411] data -> labels
I1209 18:22:23.766608 2039878400 hdf5_data_layer.cpp:79] Loading list of HDF5 filenames from: /Users/JonathanLee/Desktop/sandbox/vision/Net/hdf/test_hdf.txt
I1209 18:22:23.766633 2039878400 hdf5_data_layer.cpp:93] Number of HDF5 files: 1
I1209 18:22:23.810935 2039878400 net.cpp:150] Setting up data
I1209 18:22:23.810956 2039878400 net.cpp:157] Top shape: 120 3 125 125 (5625000)
I1209 18:22:23.810973 2039878400 net.cpp:157] Top shape: 120 4 (480)
I1209 18:22:23.810978 2039878400 net.cpp:165] Memory required for data: 22501920
I1209 18:22:23.810983 2039878400 layer_factory.hpp:76] Creating layer conv1
I1209 18:22:23.810994 2039878400 net.cpp:106] Creating Layer conv1
I1209 18:22:23.810999 2039878400 net.cpp:454] conv1 <- data
I1209 18:22:23.811022 2039878400 net.cpp:411] conv1 -> conv1
I1209 18:22:23.811131 2039878400 net.cpp:150] Setting up conv1
I1209 18:22:23.811136 2039878400 net.cpp:157] Top shape: 120 16 115 115 (25392000)
I1209 18:22:23.811152 2039878400 net.cpp:165] Memory required for data: 124069920
I1209 18:22:23.811161 2039878400 layer_factory.hpp:76] Creating layer reluConv1
I1209 18:22:23.811167 2039878400 net.cpp:106] Creating Layer reluConv1
I1209 18:22:23.811182 2039878400 net.cpp:454] reluConv1 <- conv1
I1209 18:22:23.811187 2039878400 net.cpp:397] reluConv1 -> conv1 (in-place)
I1209 18:22:23.811193 2039878400 net.cpp:150] Setting up reluConv1
I1209 18:22:23.811197 2039878400 net.cpp:157] Top shape: 120 16 115 115 (25392000)
I1209 18:22:23.811203 2039878400 net.cpp:165] Memory required for data: 225637920
I1209 18:22:23.811208 2039878400 layer_factory.hpp:76] Creating layer fc1
I1209 18:22:23.811213 2039878400 net.cpp:106] Creating Layer fc1
I1209 18:22:23.811218 2039878400 net.cpp:454] fc1 <- conv1
I1209 18:22:23.811223 2039878400 net.cpp:411] fc1 -> fc1
I1209 18:22:23.876883 2039878400 net.cpp:150] Setting up fc1
I1209 18:22:23.876902 2039878400 net.cpp:157] Top shape: 120 40 (4800)
I1209 18:22:23.876919 2039878400 net.cpp:165] Memory required for data: 225657120
I1209 18:22:23.876992 2039878400 layer_factory.hpp:76] Creating layer relu1
I1209 18:22:23.877007 2039878400 net.cpp:106] Creating Layer relu1
I1209 18:22:23.877013 2039878400 net.cpp:454] relu1 <- fc1
I1209 18:22:23.877020 2039878400 net.cpp:397] relu1 -> fc1 (in-place)
I1209 18:22:23.877028 2039878400 net.cpp:150] Setting up relu1
I1209 18:22:23.877032 2039878400 net.cpp:157] Top shape: 120 40 (4800)
I1209 18:22:23.877038 2039878400 net.cpp:165] Memory required for data: 225676320
I1209 18:22:23.877041 2039878400 layer_factory.hpp:76] Creating layer fc2
I1209 18:22:23.877075 2039878400 net.cpp:106] Creating Layer fc2
I1209 18:22:23.877079 2039878400 net.cpp:454] fc2 <- fc1
I1209 18:22:23.877085 2039878400 net.cpp:411] fc2 -> fc2
I1209 18:22:23.877122 2039878400 net.cpp:150] Setting up fc2
I1209 18:22:23.877126 2039878400 net.cpp:157] Top shape: 120 4 (480)
I1209 18:22:23.877141 2039878400 net.cpp:165] Memory required for data: 225678240
I1209 18:22:23.877148 2039878400 layer_factory.hpp:76] Creating layer out
I1209 18:22:23.877154 2039878400 net.cpp:106] Creating Layer out
I1209 18:22:23.877157 2039878400 net.cpp:454] out <- fc2
I1209 18:22:23.877163 2039878400 net.cpp:411] out -> out
I1209 18:22:23.877169 2039878400 net.cpp:150] Setting up out
I1209 18:22:23.877173 2039878400 net.cpp:157] Top shape: 120 4 (480)
I1209 18:22:23.877178 2039878400 net.cpp:165] Memory required for data: 225680160
I1209 18:22:23.877182 2039878400 layer_factory.hpp:76] Creating layer loss
I1209 18:22:23.877187 2039878400 net.cpp:106] Creating Layer loss
I1209 18:22:23.877192 2039878400 net.cpp:454] loss <- out
I1209 18:22:23.877195 2039878400 net.cpp:454] loss <- labels
I1209 18:22:23.877202 2039878400 net.cpp:411] loss -> loss
…
