…
I0111 01:59:53.732827 2090763008 solver.cpp:90] Creating training net from net file: /Users/JonathanLee/desktop/sandbox/vision/Net/nets/alexnet/train_val.prototxt
I0111 01:59:53.733198 2090763008 net.cpp:322] The NetState phase (0) differed from the phase (1) specified by a rule in layer data
I0111 01:59:53.733232 2090763008 net.cpp:49] Initializing net from parameters: 
name: "net"
state {
  phase: TRAIN
}
layer {
  name: "data"
  type: "HDF5Data"
  top: "data"
  top: "labels"
  include {
    phase: TRAIN
  }
  hdf5_data_param {
    source: "/Users/JonathanLee/Desktop/sandbox/vision/Net/hdf/train_hdf.txt"
    batch_size: 750
  }
}
layer {
  name: "conv1"
  type: "Convolution"
  bottom: "data"
  top: "conv1"
  param {
    lr_mult: 1
    decay_mult: 1
  }
  param {
    lr_mult: 2
    decay_mult: 0
  }
  convolution_param {
    num_output: 96
    kernel_size: 11
    stride: 4
    weight_filler {
      type: "gaussian"
      std: 0.01
    }
    bias_filler {
      type: "constant"
      value: 0
    }
  }
}
layer {
  name: "relu1"
  type: "ReLU"
  bottom: "conv1"
  top: "conv1"
}
layer {
  name: "norm1"
  type: "LRN"
  bottom: "conv1"
  top: "norm1"
  lrn_param {
    local_size: 5
    alpha: 0.0001
    beta: 0.75
  }
}
layer {
  name: "pool1"
  type: "Pooling"
  bottom: "norm1"
  top: "pool1"
  pooling_param {
    pool: MAX
    kernel_size: 3
    stride: 2
  }
}
layer {
  name: "conv2"
  type: "Convolution"
  bottom: "pool1"
  top: "conv2"
  param {
    lr_mult: 1
    decay_mult: 1
  }
  param {
    lr_mult: 2
    decay_mult: 0
  }
  convolution_param {
    num_output: 256
    pad: 2
    kernel_size: 5
    group: 2
    weight_filler {
      type: "gaussian"
      std: 0.01
    }
    bias_filler {
      type: "constant"
      value: 0.1
    }
  }
}
layer {
  name: "relu2"
  type: "ReLU"
  bottom: "conv2"
  top: "conv2"
}
layer {
  name: "norm2"
  type: "LRN"
  bottom: "conv2"
  top: "norm2"
  lrn_param {
    local_size: 5
    alpha: 0.0001
    beta: 0.75
  }
}
layer {
  name: "pool2"
  type: "Pooling"
  bottom: "norm2"
  top: "pool2"
  pooling_param {
    pool: MAX
    kernel_size: 3
    stride: 2
  }
}
layer {
  name: "conv3"
  type: "Convolution"
  bottom: "pool2"
  top: "conv3"
  param {
    lr_mult: 1
    decay_mult: 1
  }
  param {
    lr_mult: 2
    decay_mult: 0
  }
  convolution_param {
    num_output: 384
    pad: 1
    kernel_size: 3
    weight_filler {
      type: "gaussian"
      std: 0.01
    }
    bias_filler {
      type: "constant"
      value: 0
    }
  }
}
layer {
  name: "relu3"
  type: "ReLU"
  bottom: "conv3"
  top: "conv3"
}
layer {
  name: "conv4"
  type: "Convolution"
  bottom: "conv3"
  top: "conv4"
  param {
    lr_mult: 1
    decay_mult: 1
  }
  param {
    lr_mult: 2
    decay_mult: 0
  }
  convolution_param {
    num_output: 384
    pad: 1
    kernel_size: 3
    group: 2
    weight_filler {
      type: "gaussian"
      std: 0.01
    }
    bias_filler {
      type: "constant"
      value: 0.1
    }
  }
}
layer {
  name: "relu4"
  type: "ReLU"
  bottom: "conv4"
  top: "conv4"
}
layer {
  name: "conv5"
  type: "Convolution"
  bottom: "conv4"
  top: "conv5"
  param {
    lr_mult: 1
    decay_mult: 1
  }
  param {
    lr_mult: 2
    decay_mult: 0
  }
  convolution_param {
    num_output: 256
    pad: 1
    kernel_size: 3
    group: 2
    weight_filler {
      type: "gaussian"
      std: 0.01
    }
    bias_filler {
      type: "constant"
      value: 0.1
    }
  }
}
layer {
  name: "relu5"
  type: "ReLU"
  bottom: "conv5"
  top: "conv5"
}
layer {
  name: "pool5"
  type: "Pooling"
  bottom: "conv5"
  top: "pool5"
  pooling_param {
    pool: MAX
    kernel_size: 3
    stride: 2
  }
}
layer {
  name: "fc6"
  type: "InnerProduct"
  bottom: "pool5"
  top: "fc6"
  param {
    lr_mult: 1
    decay_mult: 1
  }
  param {
    lr_mult: 2
    decay_mult: 0
  }
  inner_product_param {
    num_output: 4096
    weight_filler {
      type: "gaussian"
      std: 0.005
    }
    bias_filler {
      type: "constant"
      value: 0.1
    }
  }
}
layer {
  name: "relu6"
  type: "ReLU"
  bottom: "fc6"
  top: "fc6"
}
layer {
  name: "drop6"
  type: "Dropout"
  bottom: "fc6"
  top: "fc6"
  dropout_param {
    dropout_ratio: 0.5
  }
}
layer {
  name: "fc7"
  type: "InnerProduct"
  bottom: "fc6"
  top: "fc7"
  param {
    lr_mult: 1
    decay_mult: 1
  }
  param {
    lr_mult: 2
    decay_mult: 0
  }
  inner_product_param {
    num_output: 4096
    weight_filler {
      type: "gaussian"
      std: 0.005
    }
    bias_filler {
      type: "constant"
      value: 0.1
    }
  }
}
layer {
  name: "relu7"
  type: "ReLU"
  bottom: "fc7"
  top: "fc7"
}
layer {
  name: "drop7"
  type: "Dropout"
  bottom: "fc7"
  top: "fc7"
  dropout_param {
    dropout_ratio: 0.5
  }
}
layer {
  name: "fc8"
  type: "InnerProduct"
  bottom: "fc7"
  top: "fc8"
  param {
    lr_mult: 1
    decay_mult: 1
  }
  param {
    lr_mult: 2
    decay_mult: 0
  }
  inner_product_param {
    num_output: 4
    weight_filler {
      type: "gaussian"
      std: 0.01
    }
    bias_filler {
      type: "constant"
      value: 0
    }
  }
}
layer {
  name: "out"
  type: "TanH"
  bottom: "fc8"
  top: "out"
}
layer {
  name: "loss"
  type: "EuclideanLoss"
  bottom: "out"
  bottom: "labels"
  top: "loss"
}
I0111 01:59:53.733500 2090763008 layer_factory.hpp:76] Creating layer data
I0111 01:59:53.733515 2090763008 net.cpp:106] Creating Layer data
I0111 01:59:53.733520 2090763008 net.cpp:411] data -> data
I0111 01:59:53.733537 2090763008 net.cpp:411] data -> labels
I0111 01:59:53.733551 2090763008 hdf5_data_layer.cpp:79] Loading list of HDF5 filenames from: /Users/JonathanLee/Desktop/sandbox/vision/Net/hdf/train_hdf.txt
I0111 01:59:53.733585 2090763008 hdf5_data_layer.cpp:93] Number of HDF5 files: 1
I0111 01:59:53.734596 2090763008 hdf5.cpp:32] Datatype class: H5T_FLOAT
I0111 01:59:54.678999 2090763008 net.cpp:150] Setting up data
I0111 01:59:54.679028 2090763008 net.cpp:157] Top shape: 750 3 125 125 (35156250)
I0111 01:59:54.679041 2090763008 net.cpp:157] Top shape: 750 4 (3000)
I0111 01:59:54.679046 2090763008 net.cpp:165] Memory required for data: 140637000
I0111 01:59:54.679055 2090763008 layer_factory.hpp:76] Creating layer conv1
I0111 01:59:54.679069 2090763008 net.cpp:106] Creating Layer conv1
I0111 01:59:54.679078 2090763008 net.cpp:454] conv1 <- data
I0111 01:59:54.679090 2090763008 net.cpp:411] conv1 -> conv1
I0111 01:59:54.684165 2090763008 net.cpp:150] Setting up conv1
I0111 01:59:54.684182 2090763008 net.cpp:157] Top shape: 750 96 29 29 (60552000)
I0111 01:59:54.684192 2090763008 net.cpp:165] Memory required for data: 382845000
I0111 01:59:54.684206 2090763008 layer_factory.hpp:76] Creating layer relu1
I0111 01:59:54.684237 2090763008 net.cpp:106] Creating Layer relu1
I0111 01:59:54.684281 2090763008 net.cpp:454] relu1 <- conv1
I0111 01:59:54.684353 2090763008 net.cpp:397] relu1 -> conv1 (in-place)
I0111 01:59:54.684370 2090763008 net.cpp:150] Setting up relu1
I0111 01:59:54.684376 2090763008 net.cpp:157] Top shape: 750 96 29 29 (60552000)
I0111 01:59:54.684407 2090763008 net.cpp:165] Memory required for data: 625053000
I0111 01:59:54.684433 2090763008 layer_factory.hpp:76] Creating layer norm1
I0111 01:59:54.684448 2090763008 net.cpp:106] Creating Layer norm1
I0111 01:59:54.684453 2090763008 net.cpp:454] norm1 <- conv1
I0111 01:59:54.684461 2090763008 net.cpp:411] norm1 -> norm1
I0111 01:59:54.684478 2090763008 net.cpp:150] Setting up norm1
I0111 01:59:54.684491 2090763008 net.cpp:157] Top shape: 750 96 29 29 (60552000)
I0111 01:59:54.684533 2090763008 net.cpp:165] Memory required for data: 867261000
I0111 01:59:54.684547 2090763008 layer_factory.hpp:76] Creating layer pool1
I0111 01:59:54.684558 2090763008 net.cpp:106] Creating Layer pool1
I0111 01:59:54.684563 2090763008 net.cpp:454] pool1 <- norm1
I0111 01:59:54.684597 2090763008 net.cpp:411] pool1 -> pool1
I0111 01:59:54.684645 2090763008 net.cpp:150] Setting up pool1
I0111 01:59:54.684655 2090763008 net.cpp:157] Top shape: 750 96 14 14 (14112000)
I0111 01:59:54.684679 2090763008 net.cpp:165] Memory required for data: 923709000
I0111 01:59:54.684689 2090763008 layer_factory.hpp:76] Creating layer conv2
I0111 01:59:54.684697 2090763008 net.cpp:106] Creating Layer conv2
I0111 01:59:54.684711 2090763008 net.cpp:454] conv2 <- pool1
I0111 01:59:54.684726 2090763008 net.cpp:411] conv2 -> conv2
I0111 01:59:54.688967 2090763008 net.cpp:150] Setting up conv2
I0111 01:59:54.688984 2090763008 net.cpp:157] Top shape: 750 256 14 14 (37632000)
I0111 01:59:54.689002 2090763008 net.cpp:165] Memory required for data: 1074237000
I0111 01:59:54.689069 2090763008 layer_factory.hpp:76] Creating layer relu2
I0111 01:59:54.689102 2090763008 net.cpp:106] Creating Layer relu2
I0111 01:59:54.689116 2090763008 net.cpp:454] relu2 <- conv2
I0111 01:59:54.689123 2090763008 net.cpp:397] relu2 -> conv2 (in-place)
I0111 01:59:54.689131 2090763008 net.cpp:150] Setting up relu2
I0111 01:59:54.689134 2090763008 net.cpp:157] Top shape: 750 256 14 14 (37632000)
I0111 01:59:54.689141 2090763008 net.cpp:165] Memory required for data: 1224765000
I0111 01:59:54.689144 2090763008 layer_factory.hpp:76] Creating layer norm2
I0111 01:59:54.689151 2090763008 net.cpp:106] Creating Layer norm2
I0111 01:59:54.689155 2090763008 net.cpp:454] norm2 <- conv2
I0111 01:59:54.689170 2090763008 net.cpp:411] norm2 -> norm2
I0111 01:59:54.689193 2090763008 net.cpp:150] Setting up norm2
I0111 01:59:54.689213 2090763008 net.cpp:157] Top shape: 750 256 14 14 (37632000)
I0111 01:59:54.689227 2090763008 net.cpp:165] Memory required for data: 1375293000
I0111 01:59:54.689232 2090763008 layer_factory.hpp:76] Creating layer pool2
I0111 01:59:54.689239 2090763008 net.cpp:106] Creating Layer pool2
I0111 01:59:54.689244 2090763008 net.cpp:454] pool2 <- norm2
I0111 01:59:54.689249 2090763008 net.cpp:411] pool2 -> pool2
I0111 01:59:54.689260 2090763008 net.cpp:150] Setting up pool2
I0111 01:59:54.689263 2090763008 net.cpp:157] Top shape: 750 256 7 7 (9408000)
I0111 01:59:54.689287 2090763008 net.cpp:165] Memory required for data: 1412925000
I0111 01:59:54.689296 2090763008 layer_factory.hpp:76] Creating layer conv3
I0111 01:59:54.689319 2090763008 net.cpp:106] Creating Layer conv3
I0111 01:59:54.689327 2090763008 net.cpp:454] conv3 <- pool2
I0111 01:59:54.689333 2090763008 net.cpp:411] conv3 -> conv3
I0111 01:59:54.703045 2090763008 net.cpp:150] Setting up conv3
I0111 01:59:54.703063 2090763008 net.cpp:157] Top shape: 750 384 7 7 (14112000)
I0111 01:59:54.703080 2090763008 net.cpp:165] Memory required for data: 1469373000
I0111 01:59:54.703090 2090763008 layer_factory.hpp:76] Creating layer relu3
I0111 01:59:54.703104 2090763008 net.cpp:106] Creating Layer relu3
I0111 01:59:54.703110 2090763008 net.cpp:454] relu3 <- conv3
I0111 01:59:54.703115 2090763008 net.cpp:397] relu3 -> conv3 (in-place)
I0111 01:59:54.703124 2090763008 net.cpp:150] Setting up relu3
I0111 01:59:54.703126 2090763008 net.cpp:157] Top shape: 750 384 7 7 (14112000)
I0111 01:59:54.703132 2090763008 net.cpp:165] Memory required for data: 1525821000
I0111 01:59:54.703157 2090763008 layer_factory.hpp:76] Creating layer conv4
I0111 01:59:54.703167 2090763008 net.cpp:106] Creating Layer conv4
I0111 01:59:54.703171 2090763008 net.cpp:454] conv4 <- conv3
I0111 01:59:54.703176 2090763008 net.cpp:411] conv4 -> conv4
I0111 01:59:54.712456 2090763008 net.cpp:150] Setting up conv4
I0111 01:59:54.712474 2090763008 net.cpp:157] Top shape: 750 384 7 7 (14112000)
I0111 01:59:54.712491 2090763008 net.cpp:165] Memory required for data: 1582269000
I0111 01:59:54.712496 2090763008 layer_factory.hpp:76] Creating layer relu4
I0111 01:59:54.712505 2090763008 net.cpp:106] Creating Layer relu4
I0111 01:59:54.712509 2090763008 net.cpp:454] relu4 <- conv4
I0111 01:59:54.712515 2090763008 net.cpp:397] relu4 -> conv4 (in-place)
I0111 01:59:54.712541 2090763008 net.cpp:150] Setting up relu4
I0111 01:59:54.712553 2090763008 net.cpp:157] Top shape: 750 384 7 7 (14112000)
I0111 01:59:54.713523 2090763008 net.cpp:165] Memory required for data: 1638717000
I0111 01:59:54.713549 2090763008 layer_factory.hpp:76] Creating layer conv5
I0111 01:59:54.713578 2090763008 net.cpp:106] Creating Layer conv5
I0111 01:59:54.713644 2090763008 net.cpp:454] conv5 <- conv4
I0111 01:59:54.713673 2090763008 net.cpp:411] conv5 -> conv5
I0111 01:59:54.720536 2090763008 net.cpp:150] Setting up conv5
I0111 01:59:54.720552 2090763008 net.cpp:157] Top shape: 750 256 7 7 (9408000)
I0111 01:59:54.720558 2090763008 net.cpp:165] Memory required for data: 1676349000
I0111 01:59:54.720567 2090763008 layer_factory.hpp:76] Creating layer relu5
I0111 01:59:54.720576 2090763008 net.cpp:106] Creating Layer relu5
I0111 01:59:54.720578 2090763008 net.cpp:454] relu5 <- conv5
I0111 01:59:54.720584 2090763008 net.cpp:397] relu5 -> conv5 (in-place)
I0111 01:59:54.720592 2090763008 net.cpp:150] Setting up relu5
I0111 01:59:54.720594 2090763008 net.cpp:157] Top shape: 750 256 7 7 (9408000)
I0111 01:59:54.720600 2090763008 net.cpp:165] Memory required for data: 1713981000
I0111 01:59:54.720603 2090763008 layer_factory.hpp:76] Creating layer pool5
I0111 01:59:54.720612 2090763008 net.cpp:106] Creating Layer pool5
I0111 01:59:54.720615 2090763008 net.cpp:454] pool5 <- conv5
I0111 01:59:54.720619 2090763008 net.cpp:411] pool5 -> pool5
I0111 01:59:54.720628 2090763008 net.cpp:150] Setting up pool5
I0111 01:59:54.720631 2090763008 net.cpp:157] Top shape: 750 256 3 3 (1728000)
I0111 01:59:54.720635 2090763008 net.cpp:165] Memory required for data: 1720893000
I0111 01:59:54.720639 2090763008 layer_factory.hpp:76] Creating layer fc6
I0111 01:59:54.720648 2090763008 net.cpp:106] Creating Layer fc6
I0111 01:59:54.720651 2090763008 net.cpp:454] fc6 <- pool5
I0111 01:59:54.720659 2090763008 net.cpp:411] fc6 -> fc6
I0111 01:59:54.865938 2090763008 net.cpp:150] Setting up fc6
I0111 01:59:54.865960 2090763008 net.cpp:157] Top shape: 750 4096 (3072000)
I0111 01:59:54.865977 2090763008 net.cpp:165] Memory required for data: 1733181000
I0111 01:59:54.866042 2090763008 layer_factory.hpp:76] Creating layer relu6
I0111 01:59:54.866055 2090763008 net.cpp:106] Creating Layer relu6
I0111 01:59:54.866060 2090763008 net.cpp:454] relu6 <- fc6
I0111 01:59:54.866087 2090763008 net.cpp:397] relu6 -> fc6 (in-place)
I0111 01:59:54.866099 2090763008 net.cpp:150] Setting up relu6
I0111 01:59:54.866117 2090763008 net.cpp:157] Top shape: 750 4096 (3072000)
I0111 01:59:54.866127 2090763008 net.cpp:165] Memory required for data: 1745469000
I0111 01:59:54.866132 2090763008 layer_factory.hpp:76] Creating layer drop6
I0111 01:59:54.866142 2090763008 net.cpp:106] Creating Layer drop6
I0111 01:59:54.866145 2090763008 net.cpp:454] drop6 <- fc6
I0111 01:59:54.866152 2090763008 net.cpp:397] drop6 -> fc6 (in-place)
I0111 01:59:54.866166 2090763008 net.cpp:150] Setting up drop6
I0111 01:59:54.866170 2090763008 net.cpp:157] Top shape: 750 4096 (3072000)
I0111 01:59:54.866174 2090763008 net.cpp:165] Memory required for data: 1757757000
I0111 01:59:54.866178 2090763008 layer_factory.hpp:76] Creating layer fc7
I0111 01:59:54.866204 2090763008 net.cpp:106] Creating Layer fc7
I0111 01:59:54.866228 2090763008 net.cpp:454] fc7 <- fc6
I0111 01:59:54.866245 2090763008 net.cpp:411] fc7 -> fc7
I0111 01:59:55.129530 2090763008 net.cpp:150] Setting up fc7
I0111 01:59:55.129559 2090763008 net.cpp:157] Top shape: 750 4096 (3072000)
I0111 01:59:55.129575 2090763008 net.cpp:165] Memory required for data: 1770045000
I0111 01:59:55.129582 2090763008 layer_factory.hpp:76] Creating layer relu7
I0111 01:59:55.129591 2090763008 net.cpp:106] Creating Layer relu7
I0111 01:59:55.129595 2090763008 net.cpp:454] relu7 <- fc7
I0111 01:59:55.130574 2090763008 net.cpp:397] relu7 -> fc7 (in-place)
I0111 01:59:55.130606 2090763008 net.cpp:150] Setting up relu7
I0111 01:59:55.130611 2090763008 net.cpp:157] Top shape: 750 4096 (3072000)
I0111 01:59:55.130616 2090763008 net.cpp:165] Memory required for data: 1782333000
I0111 01:59:55.130650 2090763008 layer_factory.hpp:76] Creating layer drop7
I0111 01:59:55.130753 2090763008 net.cpp:106] Creating Layer drop7
I0111 01:59:55.130765 2090763008 net.cpp:454] drop7 <- fc7
I0111 01:59:55.130772 2090763008 net.cpp:397] drop7 -> fc7 (in-place)
I0111 01:59:55.130789 2090763008 net.cpp:150] Setting up drop7
I0111 01:59:55.130817 2090763008 net.cpp:157] Top shape: 750 4096 (3072000)
I0111 01:59:55.130825 2090763008 net.cpp:165] Memory required for data: 1794621000
I0111 01:59:55.130830 2090763008 layer_factory.hpp:76] Creating layer fc8
I0111 01:59:55.130837 2090763008 net.cpp:106] Creating Layer fc8
I0111 01:59:55.130867 2090763008 net.cpp:454] fc8 <- fc7
I0111 01:59:55.130892 2090763008 net.cpp:411] fc8 -> fc8
I0111 01:59:55.131161 2090763008 net.cpp:150] Setting up fc8
I0111 01:59:55.131172 2090763008 net.cpp:157] Top shape: 750 4 (3000)
I0111 01:59:55.131177 2090763008 net.cpp:165] Memory required for data: 1794633000
I0111 01:59:55.131184 2090763008 layer_factory.hpp:76] Creating layer out
I0111 01:59:55.131196 2090763008 net.cpp:106] Creating Layer out
I0111 01:59:55.131242 2090763008 net.cpp:454] out <- fc8
I0111 01:59:55.131268 2090763008 net.cpp:411] out -> out
I0111 01:59:55.131309 2090763008 net.cpp:150] Setting up out
I0111 01:59:55.131330 2090763008 net.cpp:157] Top shape: 750 4 (3000)
I0111 01:59:55.131343 2090763008 net.cpp:165] Memory required for data: 1794645000
I0111 01:59:55.131348 2090763008 layer_factory.hpp:76] Creating layer loss
I0111 01:59:55.131377 2090763008 net.cpp:106] Creating Layer loss
I0111 01:59:55.131383 2090763008 net.cpp:454] loss <- out
I0111 01:59:55.131388 2090763008 net.cpp:454] loss <- labels
I0111 01:59:55.131393 2090763008 net.cpp:411] loss -> loss
…
I0111 01:59:55.132223 2090763008 solver.cpp:180] Creating test net (#0) specified by net file: /Users/JonathanLee/desktop/sandbox/vision/Net/nets/alexnet/train_val.prototxt
I0111 01:59:55.132264 2090763008 net.cpp:322] The NetState phase (1) differed from the phase (0) specified by a rule in layer data
I0111 01:59:55.132302 2090763008 net.cpp:49] Initializing net from parameters: 
name: "net"
state {
  phase: TEST
}
layer {
  name: "data"
  type: "HDF5Data"
  top: "data"
  top: "labels"
  include {
    phase: TEST
  }
  hdf5_data_param {
    source: "/Users/JonathanLee/Desktop/sandbox/vision/Net/hdf/test_hdf.txt"
    batch_size: 300
  }
}
layer {
  name: "conv1"
  type: "Convolution"
  bottom: "data"
  top: "conv1"
  param {
    lr_mult: 1
    decay_mult: 1
  }
  param {
    lr_mult: 2
    decay_mult: 0
  }
  convolution_param {
    num_output: 96
    kernel_size: 11
    stride: 4
    weight_filler {
      type: "gaussian"
      std: 0.01
    }
    bias_filler {
      type: "constant"
      value: 0
    }
  }
}
layer {
  name: "relu1"
  type: "ReLU"
  bottom: "conv1"
  top: "conv1"
}
layer {
  name: "norm1"
  type: "LRN"
  bottom: "conv1"
  top: "norm1"
  lrn_param {
    local_size: 5
    alpha: 0.0001
    beta: 0.75
  }
}
layer {
  name: "pool1"
  type: "Pooling"
  bottom: "norm1"
  top: "pool1"
  pooling_param {
    pool: MAX
    kernel_size: 3
    stride: 2
  }
}
layer {
  name: "conv2"
  type: "Convolution"
  bottom: "pool1"
  top: "conv2"
  param {
    lr_mult: 1
    decay_mult: 1
  }
  param {
    lr_mult: 2
    decay_mult: 0
  }
  convolution_param {
    num_output: 256
    pad: 2
    kernel_size: 5
    group: 2
    weight_filler {
      type: "gaussian"
      std: 0.01
    }
    bias_filler {
      type: "constant"
      value: 0.1
    }
  }
}
layer {
  name: "relu2"
  type: "ReLU"
  bottom: "conv2"
  top: "conv2"
}
layer {
  name: "norm2"
  type: "LRN"
  bottom: "conv2"
  top: "norm2"
  lrn_param {
    local_size: 5
    alpha: 0.0001
    beta: 0.75
  }
}
layer {
  name: "pool2"
  type: "Pooling"
  bottom: "norm2"
  top: "pool2"
  pooling_param {
    pool: MAX
    kernel_size: 3
    stride: 2
  }
}
layer {
  name: "conv3"
  type: "Convolution"
  bottom: "pool2"
  top: "conv3"
  param {
    lr_mult: 1
    decay_mult: 1
  }
  param {
    lr_mult: 2
    decay_mult: 0
  }
  convolution_param {
    num_output: 384
    pad: 1
    kernel_size: 3
    weight_filler {
      type: "gaussian"
      std: 0.01
    }
    bias_filler {
      type: "constant"
      value: 0
    }
  }
}
layer {
  name: "relu3"
  type: "ReLU"
  bottom: "conv3"
  top: "conv3"
}
layer {
  name: "conv4"
  type: "Convolution"
  bottom: "conv3"
  top: "conv4"
  param {
    lr_mult: 1
    decay_mult: 1
  }
  param {
    lr_mult: 2
    decay_mult: 0
  }
  convolution_param {
    num_output: 384
    pad: 1
    kernel_size: 3
    group: 2
    weight_filler {
      type: "gaussian"
      std: 0.01
    }
    bias_filler {
      type: "constant"
      value: 0.1
    }
  }
}
layer {
  name: "relu4"
  type: "ReLU"
  bottom: "conv4"
  top: "conv4"
}
layer {
  name: "conv5"
  type: "Convolution"
  bottom: "conv4"
  top: "conv5"
  param {
    lr_mult: 1
    decay_mult: 1
  }
  param {
    lr_mult: 2
    decay_mult: 0
  }
  convolution_param {
    num_output: 256
    pad: 1
    kernel_size: 3
    group: 2
    weight_filler {
      type: "gaussian"
      std: 0.01
    }
    bias_filler {
      type: "constant"
      value: 0.1
    }
  }
}
layer {
  name: "relu5"
  type: "ReLU"
  bottom: "conv5"
  top: "conv5"
}
layer {
  name: "pool5"
  type: "Pooling"
  bottom: "conv5"
  top: "pool5"
  pooling_param {
    pool: MAX
    kernel_size: 3
    stride: 2
  }
}
layer {
  name: "fc6"
  type: "InnerProduct"
  bottom: "pool5"
  top: "fc6"
  param {
    lr_mult: 1
    decay_mult: 1
  }
  param {
    lr_mult: 2
    decay_mult: 0
  }
  inner_product_param {
    num_output: 4096
    weight_filler {
      type: "gaussian"
      std: 0.005
    }
    bias_filler {
      type: "constant"
      value: 0.1
    }
  }
}
layer {
  name: "relu6"
  type: "ReLU"
  bottom: "fc6"
  top: "fc6"
}
layer {
  name: "drop6"
  type: "Dropout"
  bottom: "fc6"
  top: "fc6"
  dropout_param {
    dropout_ratio: 0.5
  }
}
layer {
  name: "fc7"
  type: "InnerProduct"
  bottom: "fc6"
  top: "fc7"
  param {
    lr_mult: 1
    decay_mult: 1
  }
  param {
    lr_mult: 2
    decay_mult: 0
  }
  inner_product_param {
    num_output: 4096
    weight_filler {
      type: "gaussian"
      std: 0.005
    }
    bias_filler {
      type: "constant"
      value: 0.1
    }
  }
}
layer {
  name: "relu7"
  type: "ReLU"
  bottom: "fc7"
  top: "fc7"
}
layer {
  name: "drop7"
  type: "Dropout"
  bottom: "fc7"
  top: "fc7"
  dropout_param {
    dropout_ratio: 0.5
  }
}
layer {
  name: "fc8"
  type: "InnerProduct"
  bottom: "fc7"
  top: "fc8"
  param {
    lr_mult: 1
    decay_mult: 1
  }
  param {
    lr_mult: 2
    decay_mult: 0
  }
  inner_product_param {
    num_output: 4
    weight_filler {
      type: "gaussian"
      std: 0.01
    }
    bias_filler {
      type: "constant"
      value: 0
    }
  }
}
layer {
  name: "out"
  type: "TanH"
  bottom: "fc8"
  top: "out"
}
layer {
  name: "loss"
  type: "EuclideanLoss"
  bottom: "out"
  bottom: "labels"
  top: "loss"
}
I0111 01:59:55.132596 2090763008 layer_factory.hpp:76] Creating layer data
I0111 01:59:55.132629 2090763008 net.cpp:106] Creating Layer data
I0111 01:59:55.132642 2090763008 net.cpp:411] data -> data
I0111 01:59:55.132650 2090763008 net.cpp:411] data -> labels
I0111 01:59:55.132658 2090763008 hdf5_data_layer.cpp:79] Loading list of HDF5 filenames from: /Users/JonathanLee/Desktop/sandbox/vision/Net/hdf/test_hdf.txt
I0111 01:59:55.133391 2090763008 hdf5_data_layer.cpp:93] Number of HDF5 files: 1
I0111 01:59:55.872474 2090763008 net.cpp:150] Setting up data
I0111 01:59:55.872532 2090763008 net.cpp:157] Top shape: 300 3 125 125 (14062500)
I0111 01:59:55.872545 2090763008 net.cpp:157] Top shape: 300 4 (1200)
I0111 01:59:55.872555 2090763008 net.cpp:165] Memory required for data: 56254800
I0111 01:59:55.872565 2090763008 layer_factory.hpp:76] Creating layer conv1
I0111 01:59:55.872583 2090763008 net.cpp:106] Creating Layer conv1
I0111 01:59:55.872591 2090763008 net.cpp:454] conv1 <- data
I0111 01:59:55.872603 2090763008 net.cpp:411] conv1 -> conv1
I0111 01:59:55.874068 2090763008 net.cpp:150] Setting up conv1
I0111 01:59:55.874089 2090763008 net.cpp:157] Top shape: 300 96 29 29 (24220800)
I0111 01:59:55.874096 2090763008 net.cpp:165] Memory required for data: 153138000
I0111 01:59:55.874109 2090763008 layer_factory.hpp:76] Creating layer relu1
I0111 01:59:55.874125 2090763008 net.cpp:106] Creating Layer relu1
I0111 01:59:55.874133 2090763008 net.cpp:454] relu1 <- conv1
I0111 01:59:55.874143 2090763008 net.cpp:397] relu1 -> conv1 (in-place)
I0111 01:59:55.874168 2090763008 net.cpp:150] Setting up relu1
I0111 01:59:55.874187 2090763008 net.cpp:157] Top shape: 300 96 29 29 (24220800)
I0111 01:59:55.874214 2090763008 net.cpp:165] Memory required for data: 250021200
I0111 01:59:55.874225 2090763008 layer_factory.hpp:76] Creating layer norm1
I0111 01:59:55.874236 2090763008 net.cpp:106] Creating Layer norm1
I0111 01:59:55.874244 2090763008 net.cpp:454] norm1 <- conv1
I0111 01:59:55.874254 2090763008 net.cpp:411] norm1 -> norm1
I0111 01:59:55.874269 2090763008 net.cpp:150] Setting up norm1
I0111 01:59:55.874277 2090763008 net.cpp:157] Top shape: 300 96 29 29 (24220800)
I0111 01:59:55.874289 2090763008 net.cpp:165] Memory required for data: 346904400
I0111 01:59:55.874294 2090763008 layer_factory.hpp:76] Creating layer pool1
I0111 01:59:55.874305 2090763008 net.cpp:106] Creating Layer pool1
I0111 01:59:55.874311 2090763008 net.cpp:454] pool1 <- norm1
I0111 01:59:55.874325 2090763008 net.cpp:411] pool1 -> pool1
I0111 01:59:55.874341 2090763008 net.cpp:150] Setting up pool1
I0111 01:59:55.874348 2090763008 net.cpp:157] Top shape: 300 96 14 14 (5644800)
I0111 01:59:55.874356 2090763008 net.cpp:165] Memory required for data: 369483600
I0111 01:59:55.874364 2090763008 layer_factory.hpp:76] Creating layer conv2
I0111 01:59:55.874377 2090763008 net.cpp:106] Creating Layer conv2
I0111 01:59:55.874408 2090763008 net.cpp:454] conv2 <- pool1
I0111 01:59:55.874420 2090763008 net.cpp:411] conv2 -> conv2
I0111 01:59:55.880596 2090763008 net.cpp:150] Setting up conv2
I0111 01:59:55.880615 2090763008 net.cpp:157] Top shape: 300 256 14 14 (15052800)
I0111 01:59:55.880622 2090763008 net.cpp:165] Memory required for data: 429694800
I0111 01:59:55.880631 2090763008 layer_factory.hpp:76] Creating layer relu2
I0111 01:59:55.880642 2090763008 net.cpp:106] Creating Layer relu2
I0111 01:59:55.880650 2090763008 net.cpp:454] relu2 <- conv2
I0111 01:59:55.880657 2090763008 net.cpp:397] relu2 -> conv2 (in-place)
I0111 01:59:55.880669 2090763008 net.cpp:150] Setting up relu2
I0111 01:59:55.880676 2090763008 net.cpp:157] Top shape: 300 256 14 14 (15052800)
I0111 01:59:55.880684 2090763008 net.cpp:165] Memory required for data: 489906000
I0111 01:59:55.880712 2090763008 layer_factory.hpp:76] Creating layer norm2
I0111 01:59:55.880727 2090763008 net.cpp:106] Creating Layer norm2
I0111 01:59:55.880734 2090763008 net.cpp:454] norm2 <- conv2
I0111 01:59:55.880743 2090763008 net.cpp:411] norm2 -> norm2
I0111 01:59:55.880758 2090763008 net.cpp:150] Setting up norm2
I0111 01:59:55.880764 2090763008 net.cpp:157] Top shape: 300 256 14 14 (15052800)
I0111 01:59:55.880774 2090763008 net.cpp:165] Memory required for data: 550117200
I0111 01:59:55.880781 2090763008 layer_factory.hpp:76] Creating layer pool2
I0111 01:59:55.880790 2090763008 net.cpp:106] Creating Layer pool2
I0111 01:59:55.880797 2090763008 net.cpp:454] pool2 <- norm2
I0111 01:59:55.880805 2090763008 net.cpp:411] pool2 -> pool2
I0111 01:59:55.880820 2090763008 net.cpp:150] Setting up pool2
I0111 01:59:55.880826 2090763008 net.cpp:157] Top shape: 300 256 7 7 (3763200)
I0111 01:59:55.880834 2090763008 net.cpp:165] Memory required for data: 565170000
I0111 01:59:55.880841 2090763008 layer_factory.hpp:76] Creating layer conv3
I0111 01:59:55.880856 2090763008 net.cpp:106] Creating Layer conv3
I0111 01:59:55.880863 2090763008 net.cpp:454] conv3 <- pool2
I0111 01:59:55.880872 2090763008 net.cpp:411] conv3 -> conv3
I0111 01:59:55.894181 2090763008 net.cpp:150] Setting up conv3
I0111 01:59:55.894196 2090763008 net.cpp:157] Top shape: 300 384 7 7 (5644800)
I0111 01:59:55.894202 2090763008 net.cpp:165] Memory required for data: 587749200
I0111 01:59:55.894212 2090763008 layer_factory.hpp:76] Creating layer relu3
I0111 01:59:55.894218 2090763008 net.cpp:106] Creating Layer relu3
I0111 01:59:55.894222 2090763008 net.cpp:454] relu3 <- conv3
I0111 01:59:55.894227 2090763008 net.cpp:397] relu3 -> conv3 (in-place)
I0111 01:59:55.894234 2090763008 net.cpp:150] Setting up relu3
I0111 01:59:55.894239 2090763008 net.cpp:157] Top shape: 300 384 7 7 (5644800)
I0111 01:59:55.894243 2090763008 net.cpp:165] Memory required for data: 610328400
I0111 01:59:55.894248 2090763008 layer_factory.hpp:76] Creating layer conv4
I0111 01:59:55.894254 2090763008 net.cpp:106] Creating Layer conv4
I0111 01:59:55.894258 2090763008 net.cpp:454] conv4 <- conv3
I0111 01:59:55.894263 2090763008 net.cpp:411] conv4 -> conv4
I0111 01:59:55.903889 2090763008 net.cpp:150] Setting up conv4
I0111 01:59:55.903909 2090763008 net.cpp:157] Top shape: 300 384 7 7 (5644800)
I0111 01:59:55.903916 2090763008 net.cpp:165] Memory required for data: 632907600
I0111 01:59:55.903923 2090763008 layer_factory.hpp:76] Creating layer relu4
I0111 01:59:55.903931 2090763008 net.cpp:106] Creating Layer relu4
I0111 01:59:55.903936 2090763008 net.cpp:454] relu4 <- conv4
I0111 01:59:55.903942 2090763008 net.cpp:397] relu4 -> conv4 (in-place)
I0111 01:59:55.903952 2090763008 net.cpp:150] Setting up relu4
I0111 01:59:55.903959 2090763008 net.cpp:157] Top shape: 300 384 7 7 (5644800)
I0111 01:59:55.903964 2090763008 net.cpp:165] Memory required for data: 655486800
I0111 01:59:55.903969 2090763008 layer_factory.hpp:76] Creating layer conv5
I0111 01:59:55.903975 2090763008 net.cpp:106] Creating Layer conv5
I0111 01:59:55.903980 2090763008 net.cpp:454] conv5 <- conv4
I0111 01:59:55.903990 2090763008 net.cpp:411] conv5 -> conv5
I0111 01:59:55.911546 2090763008 net.cpp:150] Setting up conv5
I0111 01:59:55.911564 2090763008 net.cpp:157] Top shape: 300 256 7 7 (3763200)
I0111 01:59:55.911572 2090763008 net.cpp:165] Memory required for data: 670539600
I0111 01:59:55.911591 2090763008 layer_factory.hpp:76] Creating layer relu5
I0111 01:59:55.911602 2090763008 net.cpp:106] Creating Layer relu5
I0111 01:59:55.911610 2090763008 net.cpp:454] relu5 <- conv5
I0111 01:59:55.911620 2090763008 net.cpp:397] relu5 -> conv5 (in-place)
I0111 01:59:55.911633 2090763008 net.cpp:150] Setting up relu5
I0111 01:59:55.911639 2090763008 net.cpp:157] Top shape: 300 256 7 7 (3763200)
I0111 01:59:55.911648 2090763008 net.cpp:165] Memory required for data: 685592400
I0111 01:59:55.911655 2090763008 layer_factory.hpp:76] Creating layer pool5
I0111 01:59:55.911665 2090763008 net.cpp:106] Creating Layer pool5
I0111 01:59:55.911674 2090763008 net.cpp:454] pool5 <- conv5
I0111 01:59:55.911684 2090763008 net.cpp:411] pool5 -> pool5
I0111 01:59:55.911697 2090763008 net.cpp:150] Setting up pool5
I0111 01:59:55.911703 2090763008 net.cpp:157] Top shape: 300 256 3 3 (691200)
I0111 01:59:55.911712 2090763008 net.cpp:165] Memory required for data: 688357200
I0111 01:59:55.911720 2090763008 layer_factory.hpp:76] Creating layer fc6
I0111 01:59:55.911732 2090763008 net.cpp:106] Creating Layer fc6
I0111 01:59:55.911738 2090763008 net.cpp:454] fc6 <- pool5
I0111 01:59:55.911747 2090763008 net.cpp:411] fc6 -> fc6
I0111 01:59:56.070267 2090763008 net.cpp:150] Setting up fc6
I0111 01:59:56.070291 2090763008 net.cpp:157] Top shape: 300 4096 (1228800)
I0111 01:59:56.070308 2090763008 net.cpp:165] Memory required for data: 693272400
I0111 01:59:56.070368 2090763008 layer_factory.hpp:76] Creating layer relu6
I0111 01:59:56.070382 2090763008 net.cpp:106] Creating Layer relu6
I0111 01:59:56.070389 2090763008 net.cpp:454] relu6 <- fc6
I0111 01:59:56.070394 2090763008 net.cpp:397] relu6 -> fc6 (in-place)
I0111 01:59:56.070404 2090763008 net.cpp:150] Setting up relu6
I0111 01:59:56.070425 2090763008 net.cpp:157] Top shape: 300 4096 (1228800)
I0111 01:59:56.070435 2090763008 net.cpp:165] Memory required for data: 698187600
I0111 01:59:56.070442 2090763008 layer_factory.hpp:76] Creating layer drop6
I0111 01:59:56.070454 2090763008 net.cpp:106] Creating Layer drop6
I0111 01:59:56.070461 2090763008 net.cpp:454] drop6 <- fc6
I0111 01:59:56.070472 2090763008 net.cpp:397] drop6 -> fc6 (in-place)
I0111 01:59:56.070484 2090763008 net.cpp:150] Setting up drop6
I0111 01:59:56.070490 2090763008 net.cpp:157] Top shape: 300 4096 (1228800)
I0111 01:59:56.070498 2090763008 net.cpp:165] Memory required for data: 703102800
I0111 01:59:56.070505 2090763008 layer_factory.hpp:76] Creating layer fc7
I0111 01:59:56.070516 2090763008 net.cpp:106] Creating Layer fc7
I0111 01:59:56.070538 2090763008 net.cpp:454] fc7 <- fc6
I0111 01:59:56.070555 2090763008 net.cpp:411] fc7 -> fc7
I0111 01:59:56.347080 2090763008 net.cpp:150] Setting up fc7
I0111 01:59:56.347101 2090763008 net.cpp:157] Top shape: 300 4096 (1228800)
I0111 01:59:56.347107 2090763008 net.cpp:165] Memory required for data: 708018000
I0111 01:59:56.347115 2090763008 layer_factory.hpp:76] Creating layer relu7
I0111 01:59:56.347125 2090763008 net.cpp:106] Creating Layer relu7
I0111 01:59:56.347129 2090763008 net.cpp:454] relu7 <- fc7
I0111 01:59:56.347134 2090763008 net.cpp:397] relu7 -> fc7 (in-place)
I0111 01:59:56.347142 2090763008 net.cpp:150] Setting up relu7
I0111 01:59:56.347146 2090763008 net.cpp:157] Top shape: 300 4096 (1228800)
I0111 01:59:56.347151 2090763008 net.cpp:165] Memory required for data: 712933200
I0111 01:59:56.347156 2090763008 layer_factory.hpp:76] Creating layer drop7
I0111 01:59:56.347160 2090763008 net.cpp:106] Creating Layer drop7
I0111 01:59:56.347164 2090763008 net.cpp:454] drop7 <- fc7
I0111 01:59:56.347169 2090763008 net.cpp:397] drop7 -> fc7 (in-place)
I0111 01:59:56.347177 2090763008 net.cpp:150] Setting up drop7
I0111 01:59:56.347182 2090763008 net.cpp:157] Top shape: 300 4096 (1228800)
I0111 01:59:56.347185 2090763008 net.cpp:165] Memory required for data: 717848400
I0111 01:59:56.347218 2090763008 layer_factory.hpp:76] Creating layer fc8
I0111 01:59:56.347234 2090763008 net.cpp:106] Creating Layer fc8
I0111 01:59:56.347239 2090763008 net.cpp:454] fc8 <- fc7
I0111 01:59:56.347244 2090763008 net.cpp:411] fc8 -> fc8
I0111 01:59:56.347489 2090763008 net.cpp:150] Setting up fc8
I0111 01:59:56.347496 2090763008 net.cpp:157] Top shape: 300 4 (1200)
I0111 01:59:56.347499 2090763008 net.cpp:165] Memory required for data: 717853200
I0111 01:59:56.347504 2090763008 layer_factory.hpp:76] Creating layer out
I0111 01:59:56.347511 2090763008 net.cpp:106] Creating Layer out
I0111 01:59:56.347513 2090763008 net.cpp:454] out <- fc8
I0111 01:59:56.347518 2090763008 net.cpp:411] out -> out
I0111 01:59:56.347524 2090763008 net.cpp:150] Setting up out
I0111 01:59:56.347529 2090763008 net.cpp:157] Top shape: 300 4 (1200)
I0111 01:59:56.347533 2090763008 net.cpp:165] Memory required for data: 717858000
I0111 01:59:56.347537 2090763008 layer_factory.hpp:76] Creating layer loss
I0111 01:59:56.347544 2090763008 net.cpp:106] Creating Layer loss
I0111 01:59:56.347548 2090763008 net.cpp:454] loss <- out
I0111 01:59:56.347561 2090763008 net.cpp:454] loss <- labels
I0111 01:59:56.347568 2090763008 net.cpp:411] loss -> loss
…
