…
I1207 01:30:28.897841 2039878400 solver.cpp:90] Creating training net from net file: /Users/JonathanLee/Desktop/sandbox/vision/Net/nets/net4/trainer4.prototxt
I1207 01:30:28.898082 2039878400 net.cpp:322] The NetState phase (0) differed from the phase (1) specified by a rule in layer data
I1207 01:30:28.898109 2039878400 net.cpp:49] Initializing net from parameters: 
name: "net"
state {
  phase: TRAIN
}
layer {
  name: "data"
  type: "HDF5Data"
  top: "data"
  top: "labels"
  include {
    phase: TRAIN
  }
  hdf5_data_param {
    source: "/Users/JonathanLee/Desktop/sandbox/vision/Net/hdf/train_hdf.txt"
    batch_size: 500
  }
}
layer {
  name: "conv1"
  type: "Convolution"
  bottom: "data"
  top: "conv1"
  param {
    lr_mult: 1
    decay_mult: 1
  }
  param {
    lr_mult: 2
    decay_mult: 0
  }
  convolution_param {
    num_output: 16
    kernel_size: 11
    stride: 1
    weight_filler {
      type: "xavier"
    }
    bias_filler {
      type: "constant"
      value: 0
    }
  }
}
layer {
  name: "tanhConv1"
  type: "TanH"
  bottom: "conv1"
  top: "conv1"
}
layer {
  name: "conv2"
  type: "Convolution"
  bottom: "conv1"
  top: "conv2"
  param {
    lr_mult: 1
    decay_mult: 1
  }
  param {
    lr_mult: 2
    decay_mult: 0
  }
  convolution_param {
    num_output: 16
    kernel_size: 11
    stride: 2
    weight_filler {
      type: "xavier"
    }
    bias_filler {
      type: "constant"
      value: 0
    }
  }
}
layer {
  name: "reluConv2"
  type: "ReLU"
  bottom: "conv2"
  top: "conv2"
}
layer {
  name: "fc1"
  type: "InnerProduct"
  bottom: "conv2"
  top: "fc1"
  param {
    lr_mult: 1
    decay_mult: 1
  }
  param {
    lr_mult: 2
    decay_mult: 0
  }
  inner_product_param {
    num_output: 40
    weight_filler {
      type: "xavier"
    }
    bias_filler {
      type: "constant"
      value: 0
    }
  }
}
layer {
  name: "tanh"
  type: "TanH"
  bottom: "fc1"
  top: "fc1"
}
layer {
  name: "fc2"
  type: "InnerProduct"
  bottom: "fc1"
  top: "fc2"
  param {
    lr_mult: 1
    decay_mult: 1
  }
  param {
    lr_mult: 2
    decay_mult: 0
  }
  inner_product_param {
    num_output: 4
    weight_filler {
      type: "xavier"
    }
    bias_filler {
      type: "constant"
      value: 0
    }
  }
}
layer {
  name: "out"
  type: "TanH"
  bottom: "fc2"
  top: "out"
}
layer {
  name: "loss"
  type: "EuclideanLoss"
  bottom: "out"
  bottom: "labels"
  top: "loss"
}
I1207 01:30:28.898273 2039878400 layer_factory.hpp:76] Creating layer data
I1207 01:30:28.898286 2039878400 net.cpp:106] Creating Layer data
I1207 01:30:28.898295 2039878400 net.cpp:411] data -> data
I1207 01:30:28.898315 2039878400 net.cpp:411] data -> labels
I1207 01:30:28.898327 2039878400 hdf5_data_layer.cpp:79] Loading list of HDF5 filenames from: /Users/JonathanLee/Desktop/sandbox/vision/Net/hdf/train_hdf.txt
I1207 01:30:28.898356 2039878400 hdf5_data_layer.cpp:93] Number of HDF5 files: 1
I1207 01:30:28.899313 2039878400 hdf5.cpp:32] Datatype class: H5T_FLOAT
I1207 01:30:29.080241 2039878400 net.cpp:150] Setting up data
I1207 01:30:29.080276 2039878400 net.cpp:157] Top shape: 500 3 125 125 (23437500)
I1207 01:30:29.080286 2039878400 net.cpp:157] Top shape: 500 4 (2000)
I1207 01:30:29.080291 2039878400 net.cpp:165] Memory required for data: 93758000
I1207 01:30:29.080298 2039878400 layer_factory.hpp:76] Creating layer conv1
I1207 01:30:29.080309 2039878400 net.cpp:106] Creating Layer conv1
I1207 01:30:29.080327 2039878400 net.cpp:454] conv1 <- data
I1207 01:30:29.080334 2039878400 net.cpp:411] conv1 -> conv1
I1207 01:30:29.084514 2039878400 net.cpp:150] Setting up conv1
I1207 01:30:29.084522 2039878400 net.cpp:157] Top shape: 500 16 115 115 (105800000)
I1207 01:30:29.084538 2039878400 net.cpp:165] Memory required for data: 516958000
I1207 01:30:29.084630 2039878400 layer_factory.hpp:76] Creating layer tanhConv1
I1207 01:30:29.084645 2039878400 net.cpp:106] Creating Layer tanhConv1
I1207 01:30:29.084650 2039878400 net.cpp:454] tanhConv1 <- conv1
I1207 01:30:29.084656 2039878400 net.cpp:397] tanhConv1 -> conv1 (in-place)
I1207 01:30:29.084663 2039878400 net.cpp:150] Setting up tanhConv1
I1207 01:30:29.084667 2039878400 net.cpp:157] Top shape: 500 16 115 115 (105800000)
I1207 01:30:29.084673 2039878400 net.cpp:165] Memory required for data: 940158000
I1207 01:30:29.084677 2039878400 layer_factory.hpp:76] Creating layer conv2
I1207 01:30:29.084684 2039878400 net.cpp:106] Creating Layer conv2
I1207 01:30:29.084688 2039878400 net.cpp:454] conv2 <- conv1
I1207 01:30:29.084694 2039878400 net.cpp:411] conv2 -> conv2
I1207 01:30:29.085002 2039878400 net.cpp:150] Setting up conv2
I1207 01:30:29.085007 2039878400 net.cpp:157] Top shape: 500 16 53 53 (22472000)
I1207 01:30:29.085023 2039878400 net.cpp:165] Memory required for data: 1030046000
I1207 01:30:29.085036 2039878400 layer_factory.hpp:76] Creating layer reluConv2
I1207 01:30:29.085055 2039878400 net.cpp:106] Creating Layer reluConv2
I1207 01:30:29.085059 2039878400 net.cpp:454] reluConv2 <- conv2
I1207 01:30:29.085064 2039878400 net.cpp:397] reluConv2 -> conv2 (in-place)
I1207 01:30:29.085070 2039878400 net.cpp:150] Setting up reluConv2
I1207 01:30:29.085074 2039878400 net.cpp:157] Top shape: 500 16 53 53 (22472000)
I1207 01:30:29.085079 2039878400 net.cpp:165] Memory required for data: 1119934000
I1207 01:30:29.085085 2039878400 layer_factory.hpp:76] Creating layer fc1
I1207 01:30:29.085098 2039878400 net.cpp:106] Creating Layer fc1
I1207 01:30:29.085103 2039878400 net.cpp:454] fc1 <- conv2
I1207 01:30:29.085108 2039878400 net.cpp:411] fc1 -> fc1
I1207 01:30:29.099093 2039878400 net.cpp:150] Setting up fc1
I1207 01:30:29.099105 2039878400 net.cpp:157] Top shape: 500 40 (20000)
I1207 01:30:29.099122 2039878400 net.cpp:165] Memory required for data: 1120014000
I1207 01:30:29.099140 2039878400 layer_factory.hpp:76] Creating layer tanh
I1207 01:30:29.099148 2039878400 net.cpp:106] Creating Layer tanh
I1207 01:30:29.099151 2039878400 net.cpp:454] tanh <- fc1
I1207 01:30:29.099159 2039878400 net.cpp:397] tanh -> fc1 (in-place)
I1207 01:30:29.099165 2039878400 net.cpp:150] Setting up tanh
I1207 01:30:29.099169 2039878400 net.cpp:157] Top shape: 500 40 (20000)
I1207 01:30:29.099174 2039878400 net.cpp:165] Memory required for data: 1120094000
I1207 01:30:29.099177 2039878400 layer_factory.hpp:76] Creating layer fc2
I1207 01:30:29.099184 2039878400 net.cpp:106] Creating Layer fc2
I1207 01:30:29.099189 2039878400 net.cpp:454] fc2 <- fc1
I1207 01:30:29.099195 2039878400 net.cpp:411] fc2 -> fc2
I1207 01:30:29.099208 2039878400 net.cpp:150] Setting up fc2
I1207 01:30:29.099212 2039878400 net.cpp:157] Top shape: 500 4 (2000)
I1207 01:30:29.099216 2039878400 net.cpp:165] Memory required for data: 1120102000
I1207 01:30:29.099222 2039878400 layer_factory.hpp:76] Creating layer out
I1207 01:30:29.099231 2039878400 net.cpp:106] Creating Layer out
I1207 01:30:29.099234 2039878400 net.cpp:454] out <- fc2
I1207 01:30:29.099239 2039878400 net.cpp:411] out -> out
I1207 01:30:29.099246 2039878400 net.cpp:150] Setting up out
I1207 01:30:29.099249 2039878400 net.cpp:157] Top shape: 500 4 (2000)
I1207 01:30:29.099254 2039878400 net.cpp:165] Memory required for data: 1120110000
I1207 01:30:29.099258 2039878400 layer_factory.hpp:76] Creating layer loss
I1207 01:30:29.099264 2039878400 net.cpp:106] Creating Layer loss
I1207 01:30:29.099268 2039878400 net.cpp:454] loss <- out
I1207 01:30:29.099273 2039878400 net.cpp:454] loss <- labels
I1207 01:30:29.099278 2039878400 net.cpp:411] loss -> loss
…
I1207 01:30:29.099596 2039878400 solver.cpp:180] Creating test net (#0) specified by net file: /Users/JonathanLee/Desktop/sandbox/vision/Net/nets/net4/trainer4.prototxt
I1207 01:30:29.099628 2039878400 net.cpp:322] The NetState phase (1) differed from the phase (0) specified by a rule in layer data
I1207 01:30:29.099639 2039878400 net.cpp:49] Initializing net from parameters: 
name: "net"
state {
  phase: TEST
}
layer {
  name: "data"
  type: "HDF5Data"
  top: "data"
  top: "labels"
  include {
    phase: TEST
  }
  hdf5_data_param {
    source: "/Users/JonathanLee/Desktop/sandbox/vision/Net/hdf/test_hdf.txt"
    batch_size: 120
  }
}
layer {
  name: "conv1"
  type: "Convolution"
  bottom: "data"
  top: "conv1"
  param {
    lr_mult: 1
    decay_mult: 1
  }
  param {
    lr_mult: 2
    decay_mult: 0
  }
  convolution_param {
    num_output: 16
    kernel_size: 11
    stride: 1
    weight_filler {
      type: "xavier"
    }
    bias_filler {
      type: "constant"
      value: 0
    }
  }
}
layer {
  name: "tanhConv1"
  type: "TanH"
  bottom: "conv1"
  top: "conv1"
}
layer {
  name: "conv2"
  type: "Convolution"
  bottom: "conv1"
  top: "conv2"
  param {
    lr_mult: 1
    decay_mult: 1
  }
  param {
    lr_mult: 2
    decay_mult: 0
  }
  convolution_param {
    num_output: 16
    kernel_size: 11
    stride: 2
    weight_filler {
      type: "xavier"
    }
    bias_filler {
      type: "constant"
      value: 0
    }
  }
}
layer {
  name: "reluConv2"
  type: "ReLU"
  bottom: "conv2"
  top: "conv2"
}
layer {
  name: "fc1"
  type: "InnerProduct"
  bottom: "conv2"
  top: "fc1"
  param {
    lr_mult: 1
    decay_mult: 1
  }
  param {
    lr_mult: 2
    decay_mult: 0
  }
  inner_product_param {
    num_output: 40
    weight_filler {
      type: "xavier"
    }
    bias_filler {
      type: "constant"
      value: 0
    }
  }
}
layer {
  name: "tanh"
  type: "TanH"
  bottom: "fc1"
  top: "fc1"
}
layer {
  name: "fc2"
  type: "InnerProduct"
  bottom: "fc1"
  top: "fc2"
  param {
    lr_mult: 1
    decay_mult: 1
  }
  param {
    lr_mult: 2
    decay_mult: 0
  }
  inner_product_param {
    num_output: 4
    weight_filler {
      type: "xavier"
    }
    bias_filler {
      type: "constant"
      value: 0
    }
  }
}
layer {
  name: "out"
  type: "TanH"
  bottom: "fc2"
  top: "out"
}
layer {
  name: "loss"
  type: "EuclideanLoss"
  bottom: "out"
  bottom: "labels"
  top: "loss"
}
I1207 01:30:29.099761 2039878400 layer_factory.hpp:76] Creating layer data
I1207 01:30:29.099771 2039878400 net.cpp:106] Creating Layer data
I1207 01:30:29.099777 2039878400 net.cpp:411] data -> data
I1207 01:30:29.099786 2039878400 net.cpp:411] data -> labels
I1207 01:30:29.099795 2039878400 hdf5_data_layer.cpp:79] Loading list of HDF5 filenames from: /Users/JonathanLee/Desktop/sandbox/vision/Net/hdf/test_hdf.txt
I1207 01:30:29.099828 2039878400 hdf5_data_layer.cpp:93] Number of HDF5 files: 1
I1207 01:30:29.154377 2039878400 net.cpp:150] Setting up data
I1207 01:30:29.154400 2039878400 net.cpp:157] Top shape: 120 3 125 125 (5625000)
I1207 01:30:29.154418 2039878400 net.cpp:157] Top shape: 120 4 (480)
I1207 01:30:29.154423 2039878400 net.cpp:165] Memory required for data: 22501920
I1207 01:30:29.154458 2039878400 layer_factory.hpp:76] Creating layer conv1
I1207 01:30:29.154469 2039878400 net.cpp:106] Creating Layer conv1
I1207 01:30:29.154484 2039878400 net.cpp:454] conv1 <- data
I1207 01:30:29.154492 2039878400 net.cpp:411] conv1 -> conv1
I1207 01:30:29.154618 2039878400 net.cpp:150] Setting up conv1
I1207 01:30:29.154624 2039878400 net.cpp:157] Top shape: 120 16 115 115 (25392000)
I1207 01:30:29.154640 2039878400 net.cpp:165] Memory required for data: 124069920
I1207 01:30:29.154672 2039878400 layer_factory.hpp:76] Creating layer tanhConv1
I1207 01:30:29.154686 2039878400 net.cpp:106] Creating Layer tanhConv1
I1207 01:30:29.154692 2039878400 net.cpp:454] tanhConv1 <- conv1
I1207 01:30:29.154697 2039878400 net.cpp:397] tanhConv1 -> conv1 (in-place)
I1207 01:30:29.154706 2039878400 net.cpp:150] Setting up tanhConv1
I1207 01:30:29.154709 2039878400 net.cpp:157] Top shape: 120 16 115 115 (25392000)
I1207 01:30:29.154716 2039878400 net.cpp:165] Memory required for data: 225637920
I1207 01:30:29.154719 2039878400 layer_factory.hpp:76] Creating layer conv2
I1207 01:30:29.154726 2039878400 net.cpp:106] Creating Layer conv2
I1207 01:30:29.154752 2039878400 net.cpp:454] conv2 <- conv1
I1207 01:30:29.154774 2039878400 net.cpp:411] conv2 -> conv2
I1207 01:30:29.155127 2039878400 net.cpp:150] Setting up conv2
I1207 01:30:29.155133 2039878400 net.cpp:157] Top shape: 120 16 53 53 (5393280)
I1207 01:30:29.155148 2039878400 net.cpp:165] Memory required for data: 247211040
I1207 01:30:29.155158 2039878400 layer_factory.hpp:76] Creating layer reluConv2
I1207 01:30:29.155164 2039878400 net.cpp:106] Creating Layer reluConv2
I1207 01:30:29.155179 2039878400 net.cpp:454] reluConv2 <- conv2
I1207 01:30:29.155184 2039878400 net.cpp:397] reluConv2 -> conv2 (in-place)
I1207 01:30:29.155190 2039878400 net.cpp:150] Setting up reluConv2
I1207 01:30:29.155194 2039878400 net.cpp:157] Top shape: 120 16 53 53 (5393280)
I1207 01:30:29.155200 2039878400 net.cpp:165] Memory required for data: 268784160
I1207 01:30:29.155221 2039878400 layer_factory.hpp:76] Creating layer fc1
I1207 01:30:29.155248 2039878400 net.cpp:106] Creating Layer fc1
I1207 01:30:29.155263 2039878400 net.cpp:454] fc1 <- conv2
I1207 01:30:29.155271 2039878400 net.cpp:411] fc1 -> fc1
I1207 01:30:29.169360 2039878400 net.cpp:150] Setting up fc1
I1207 01:30:29.169373 2039878400 net.cpp:157] Top shape: 120 40 (4800)
I1207 01:30:29.169389 2039878400 net.cpp:165] Memory required for data: 268803360
I1207 01:30:29.169397 2039878400 layer_factory.hpp:76] Creating layer tanh
I1207 01:30:29.169404 2039878400 net.cpp:106] Creating Layer tanh
I1207 01:30:29.169423 2039878400 net.cpp:454] tanh <- fc1
I1207 01:30:29.169432 2039878400 net.cpp:397] tanh -> fc1 (in-place)
I1207 01:30:29.169443 2039878400 net.cpp:150] Setting up tanh
I1207 01:30:29.169451 2039878400 net.cpp:157] Top shape: 120 40 (4800)
I1207 01:30:29.169459 2039878400 net.cpp:165] Memory required for data: 268822560
I1207 01:30:29.169489 2039878400 layer_factory.hpp:76] Creating layer fc2
I1207 01:30:29.169502 2039878400 net.cpp:106] Creating Layer fc2
I1207 01:30:29.169507 2039878400 net.cpp:454] fc2 <- fc1
I1207 01:30:29.169514 2039878400 net.cpp:411] fc2 -> fc2
I1207 01:30:29.169538 2039878400 net.cpp:150] Setting up fc2
I1207 01:30:29.169543 2039878400 net.cpp:157] Top shape: 120 4 (480)
I1207 01:30:29.169548 2039878400 net.cpp:165] Memory required for data: 268824480
I1207 01:30:29.169554 2039878400 layer_factory.hpp:76] Creating layer out
I1207 01:30:29.169560 2039878400 net.cpp:106] Creating Layer out
I1207 01:30:29.169564 2039878400 net.cpp:454] out <- fc2
I1207 01:30:29.169569 2039878400 net.cpp:411] out -> out
I1207 01:30:29.169574 2039878400 net.cpp:150] Setting up out
I1207 01:30:29.169579 2039878400 net.cpp:157] Top shape: 120 4 (480)
I1207 01:30:29.169584 2039878400 net.cpp:165] Memory required for data: 268826400
I1207 01:30:29.169587 2039878400 layer_factory.hpp:76] Creating layer loss
I1207 01:30:29.169595 2039878400 net.cpp:106] Creating Layer loss
I1207 01:30:29.169598 2039878400 net.cpp:454] loss <- out
I1207 01:30:29.169621 2039878400 net.cpp:454] loss <- labels
I1207 01:30:29.169626 2039878400 net.cpp:411] loss -> loss
…
