…
I1204 03:59:18.000283 1969066752 solver.cpp:90] Creating training net from net file: /Users/JonathanLee/Desktop/sandbox/vision/Net/nets/net4/trainer4.prototxt
I1204 03:59:18.000578 1969066752 net.cpp:322] The NetState phase (0) differed from the phase (1) specified by a rule in layer data
I1204 03:59:18.000603 1969066752 net.cpp:49] Initializing net from parameters: 
name: "net"
state {
  phase: TRAIN
}
layer {
  name: "data"
  type: "HDF5Data"
  top: "data"
  top: "labels"
  include {
    phase: TRAIN
  }
  hdf5_data_param {
    source: "/Users/JonathanLee/Desktop/sandbox/vision/Net/hdf/train_hdf.txt"
    batch_size: 450
  }
}
layer {
  name: "conv1"
  type: "Convolution"
  bottom: "data"
  top: "conv1"
  param {
    lr_mult: 1
    decay_mult: 1
  }
  param {
    lr_mult: 2
    decay_mult: 0
  }
  convolution_param {
    num_output: 16
    kernel_size: 11
    stride: 1
    weight_filler {
      type: "xavier"
    }
    bias_filler {
      type: "constant"
      value: 0
    }
  }
}
layer {
  name: "tanhConv1"
  type: "TanH"
  bottom: "conv1"
  top: "conv1"
}
layer {
  name: "conv2"
  type: "Convolution"
  bottom: "conv1"
  top: "conv2"
  param {
    lr_mult: 1
    decay_mult: 1
  }
  param {
    lr_mult: 2
    decay_mult: 0
  }
  convolution_param {
    num_output: 16
    kernel_size: 11
    stride: 2
    weight_filler {
      type: "xavier"
    }
    bias_filler {
      type: "constant"
      value: 0
    }
  }
}
layer {
  name: "reluConv2"
  type: "ReLU"
  bottom: "conv2"
  top: "conv2"
}
layer {
  name: "fc1"
  type: "InnerProduct"
  bottom: "conv2"
  top: "fc1"
  param {
    lr_mult: 1
    decay_mult: 1
  }
  param {
    lr_mult: 2
    decay_mult: 0
  }
  inner_product_param {
    num_output: 40
    weight_filler {
      type: "xavier"
    }
    bias_filler {
      type: "constant"
      value: 0
    }
  }
}
layer {
  name: "tanh"
  type: "TanH"
  bottom: "fc1"
  top: "fc1"
}
layer {
  name: "fc2"
  type: "InnerProduct"
  bottom: "fc1"
  top: "fc2"
  param {
    lr_mult: 1
    decay_mult: 1
  }
  param {
    lr_mult: 2
    decay_mult: 0
  }
  inner_product_param {
    num_output: 4
    weight_filler {
      type: "xavier"
    }
    bias_filler {
      type: "constant"
      value: 0
    }
  }
}
layer {
  name: "out"
  type: "TanH"
  bottom: "fc2"
  top: "out"
}
layer {
  name: "loss"
  type: "EuclideanLoss"
  bottom: "out"
  bottom: "labels"
  top: "loss"
}
I1204 03:59:18.000823 1969066752 layer_factory.hpp:76] Creating layer data
I1204 03:59:18.000862 1969066752 net.cpp:106] Creating Layer data
I1204 03:59:18.000885 1969066752 net.cpp:411] data -> data
I1204 03:59:18.000919 1969066752 net.cpp:411] data -> labels
I1204 03:59:18.000947 1969066752 hdf5_data_layer.cpp:79] Loading list of HDF5 filenames from: /Users/JonathanLee/Desktop/sandbox/vision/Net/hdf/train_hdf.txt
I1204 03:59:18.001037 1969066752 hdf5_data_layer.cpp:93] Number of HDF5 files: 1
I1204 03:59:18.002125 1969066752 hdf5.cpp:32] Datatype class: H5T_FLOAT
I1204 03:59:18.284963 1969066752 net.cpp:150] Setting up data
I1204 03:59:18.284988 1969066752 net.cpp:157] Top shape: 450 3 125 125 (21093750)
I1204 03:59:18.285004 1969066752 net.cpp:157] Top shape: 450 4 (1800)
I1204 03:59:18.285012 1969066752 net.cpp:165] Memory required for data: 84382200
I1204 03:59:18.285024 1969066752 layer_factory.hpp:76] Creating layer conv1
I1204 03:59:18.285044 1969066752 net.cpp:106] Creating Layer conv1
I1204 03:59:18.285056 1969066752 net.cpp:454] conv1 <- data
I1204 03:59:18.285073 1969066752 net.cpp:411] conv1 -> conv1
I1204 03:59:18.290056 1969066752 net.cpp:150] Setting up conv1
I1204 03:59:18.290072 1969066752 net.cpp:157] Top shape: 450 16 115 115 (95220000)
I1204 03:59:18.290079 1969066752 net.cpp:165] Memory required for data: 465262200
I1204 03:59:18.290115 1969066752 layer_factory.hpp:76] Creating layer tanhConv1
I1204 03:59:18.290179 1969066752 net.cpp:106] Creating Layer tanhConv1
I1204 03:59:18.290207 1969066752 net.cpp:454] tanhConv1 <- conv1
I1204 03:59:18.290230 1969066752 net.cpp:397] tanhConv1 -> conv1 (in-place)
I1204 03:59:18.290269 1969066752 net.cpp:150] Setting up tanhConv1
I1204 03:59:18.290300 1969066752 net.cpp:157] Top shape: 450 16 115 115 (95220000)
I1204 03:59:18.290314 1969066752 net.cpp:165] Memory required for data: 846142200
I1204 03:59:18.290333 1969066752 layer_factory.hpp:76] Creating layer conv2
I1204 03:59:18.290377 1969066752 net.cpp:106] Creating Layer conv2
I1204 03:59:18.290391 1969066752 net.cpp:454] conv2 <- conv1
I1204 03:59:18.290427 1969066752 net.cpp:411] conv2 -> conv2
I1204 03:59:18.290750 1969066752 net.cpp:150] Setting up conv2
I1204 03:59:18.290757 1969066752 net.cpp:157] Top shape: 450 16 53 53 (20224800)
I1204 03:59:18.290762 1969066752 net.cpp:165] Memory required for data: 927041400
I1204 03:59:18.290769 1969066752 layer_factory.hpp:76] Creating layer reluConv2
I1204 03:59:18.290778 1969066752 net.cpp:106] Creating Layer reluConv2
I1204 03:59:18.290822 1969066752 net.cpp:454] reluConv2 <- conv2
I1204 03:59:18.290843 1969066752 net.cpp:397] reluConv2 -> conv2 (in-place)
I1204 03:59:18.290868 1969066752 net.cpp:150] Setting up reluConv2
I1204 03:59:18.290885 1969066752 net.cpp:157] Top shape: 450 16 53 53 (20224800)
I1204 03:59:18.290901 1969066752 net.cpp:165] Memory required for data: 1007940600
I1204 03:59:18.290935 1969066752 layer_factory.hpp:76] Creating layer fc1
I1204 03:59:18.291970 1969066752 net.cpp:106] Creating Layer fc1
I1204 03:59:18.291991 1969066752 net.cpp:454] fc1 <- conv2
I1204 03:59:18.292033 1969066752 net.cpp:411] fc1 -> fc1
I1204 03:59:18.311323 1969066752 net.cpp:150] Setting up fc1
I1204 03:59:18.311344 1969066752 net.cpp:157] Top shape: 450 40 (18000)
I1204 03:59:18.311350 1969066752 net.cpp:165] Memory required for data: 1008012600
I1204 03:59:18.311360 1969066752 layer_factory.hpp:76] Creating layer tanh
I1204 03:59:18.311368 1969066752 net.cpp:106] Creating Layer tanh
I1204 03:59:18.311373 1969066752 net.cpp:454] tanh <- fc1
I1204 03:59:18.311403 1969066752 net.cpp:397] tanh -> fc1 (in-place)
I1204 03:59:18.311465 1969066752 net.cpp:150] Setting up tanh
I1204 03:59:18.311485 1969066752 net.cpp:157] Top shape: 450 40 (18000)
I1204 03:59:18.311502 1969066752 net.cpp:165] Memory required for data: 1008084600
I1204 03:59:18.311527 1969066752 layer_factory.hpp:76] Creating layer fc2
I1204 03:59:18.311564 1969066752 net.cpp:106] Creating Layer fc2
I1204 03:59:18.311592 1969066752 net.cpp:454] fc2 <- fc1
I1204 03:59:18.311635 1969066752 net.cpp:411] fc2 -> fc2
I1204 03:59:18.311671 1969066752 net.cpp:150] Setting up fc2
I1204 03:59:18.311700 1969066752 net.cpp:157] Top shape: 450 4 (1800)
I1204 03:59:18.311740 1969066752 net.cpp:165] Memory required for data: 1008091800
I1204 03:59:18.311770 1969066752 layer_factory.hpp:76] Creating layer out
I1204 03:59:18.311795 1969066752 net.cpp:106] Creating Layer out
I1204 03:59:18.311816 1969066752 net.cpp:454] out <- fc2
I1204 03:59:18.311841 1969066752 net.cpp:411] out -> out
I1204 03:59:18.311873 1969066752 net.cpp:150] Setting up out
I1204 03:59:18.311907 1969066752 net.cpp:157] Top shape: 450 4 (1800)
I1204 03:59:18.311934 1969066752 net.cpp:165] Memory required for data: 1008099000
I1204 03:59:18.311962 1969066752 layer_factory.hpp:76] Creating layer loss
I1204 03:59:18.311983 1969066752 net.cpp:106] Creating Layer loss
I1204 03:59:18.312000 1969066752 net.cpp:454] loss <- out
I1204 03:59:18.312021 1969066752 net.cpp:454] loss <- labels
I1204 03:59:18.312031 1969066752 net.cpp:411] loss -> loss
…
I1204 03:59:18.312537 1969066752 solver.cpp:180] Creating test net (#0) specified by net file: /Users/JonathanLee/Desktop/sandbox/vision/Net/nets/net4/trainer4.prototxt
I1204 03:59:18.312566 1969066752 net.cpp:322] The NetState phase (1) differed from the phase (0) specified by a rule in layer data
I1204 03:59:18.312621 1969066752 net.cpp:49] Initializing net from parameters: 
name: "net"
state {
  phase: TEST
}
layer {
  name: "data"
  type: "HDF5Data"
  top: "data"
  top: "labels"
  include {
    phase: TEST
  }
  hdf5_data_param {
    source: "/Users/JonathanLee/Desktop/sandbox/vision/Net/hdf/test_hdf.txt"
    batch_size: 120
  }
}
layer {
  name: "conv1"
  type: "Convolution"
  bottom: "data"
  top: "conv1"
  param {
    lr_mult: 1
    decay_mult: 1
  }
  param {
    lr_mult: 2
    decay_mult: 0
  }
  convolution_param {
    num_output: 16
    kernel_size: 11
    stride: 1
    weight_filler {
      type: "xavier"
    }
    bias_filler {
      type: "constant"
      value: 0
    }
  }
}
layer {
  name: "tanhConv1"
  type: "TanH"
  bottom: "conv1"
  top: "conv1"
}
layer {
  name: "conv2"
  type: "Convolution"
  bottom: "conv1"
  top: "conv2"
  param {
    lr_mult: 1
    decay_mult: 1
  }
  param {
    lr_mult: 2
    decay_mult: 0
  }
  convolution_param {
    num_output: 16
    kernel_size: 11
    stride: 2
    weight_filler {
      type: "xavier"
    }
    bias_filler {
      type: "constant"
      value: 0
    }
  }
}
layer {
  name: "reluConv2"
  type: "ReLU"
  bottom: "conv2"
  top: "conv2"
}
layer {
  name: "fc1"
  type: "InnerProduct"
  bottom: "conv2"
  top: "fc1"
  param {
    lr_mult: 1
    decay_mult: 1
  }
  param {
    lr_mult: 2
    decay_mult: 0
  }
  inner_product_param {
    num_output: 40
    weight_filler {
      type: "xavier"
    }
    bias_filler {
      type: "constant"
      value: 0
    }
  }
}
layer {
  name: "tanh"
  type: "TanH"
  bottom: "fc1"
  top: "fc1"
}
layer {
  name: "fc2"
  type: "InnerProduct"
  bottom: "fc1"
  top: "fc2"
  param {
    lr_mult: 1
    decay_mult: 1
  }
  param {
    lr_mult: 2
    decay_mult: 0
  }
  inner_product_param {
    num_output: 4
    weight_filler {
      type: "xavier"
    }
    bias_filler {
      type: "constant"
      value: 0
    }
  }
}
layer {
  name: "out"
  type: "TanH"
  bottom: "fc2"
  top: "out"
}
layer {
  name: "loss"
  type: "EuclideanLoss"
  bottom: "out"
  bottom: "labels"
  top: "loss"
}
I1204 03:59:18.312782 1969066752 layer_factory.hpp:76] Creating layer data
I1204 03:59:18.312808 1969066752 net.cpp:106] Creating Layer data
I1204 03:59:18.312829 1969066752 net.cpp:411] data -> data
I1204 03:59:18.312850 1969066752 net.cpp:411] data -> labels
I1204 03:59:18.312871 1969066752 hdf5_data_layer.cpp:79] Loading list of HDF5 filenames from: /Users/JonathanLee/Desktop/sandbox/vision/Net/hdf/test_hdf.txt
I1204 03:59:18.312911 1969066752 hdf5_data_layer.cpp:93] Number of HDF5 files: 1
I1204 03:59:18.393980 1969066752 net.cpp:150] Setting up data
I1204 03:59:18.394016 1969066752 net.cpp:157] Top shape: 120 3 125 125 (5625000)
I1204 03:59:18.394026 1969066752 net.cpp:157] Top shape: 120 4 (480)
I1204 03:59:18.394031 1969066752 net.cpp:165] Memory required for data: 22501920
I1204 03:59:18.394141 1969066752 layer_factory.hpp:76] Creating layer conv1
I1204 03:59:18.394173 1969066752 net.cpp:106] Creating Layer conv1
I1204 03:59:18.394193 1969066752 net.cpp:454] conv1 <- data
I1204 03:59:18.394224 1969066752 net.cpp:411] conv1 -> conv1
I1204 03:59:18.394356 1969066752 net.cpp:150] Setting up conv1
I1204 03:59:18.394369 1969066752 net.cpp:157] Top shape: 120 16 115 115 (25392000)
I1204 03:59:18.394387 1969066752 net.cpp:165] Memory required for data: 124069920
I1204 03:59:18.394443 1969066752 layer_factory.hpp:76] Creating layer tanhConv1
I1204 03:59:18.394479 1969066752 net.cpp:106] Creating Layer tanhConv1
I1204 03:59:18.394513 1969066752 net.cpp:454] tanhConv1 <- conv1
I1204 03:59:18.394534 1969066752 net.cpp:397] tanhConv1 -> conv1 (in-place)
I1204 03:59:18.394598 1969066752 net.cpp:150] Setting up tanhConv1
I1204 03:59:18.394630 1969066752 net.cpp:157] Top shape: 120 16 115 115 (25392000)
I1204 03:59:18.394652 1969066752 net.cpp:165] Memory required for data: 225637920
I1204 03:59:18.394683 1969066752 layer_factory.hpp:76] Creating layer conv2
I1204 03:59:18.394717 1969066752 net.cpp:106] Creating Layer conv2
I1204 03:59:18.394733 1969066752 net.cpp:454] conv2 <- conv1
I1204 03:59:18.394752 1969066752 net.cpp:411] conv2 -> conv2
I1204 03:59:18.395131 1969066752 net.cpp:150] Setting up conv2
I1204 03:59:18.395141 1969066752 net.cpp:157] Top shape: 120 16 53 53 (5393280)
I1204 03:59:18.395146 1969066752 net.cpp:165] Memory required for data: 247211040
I1204 03:59:18.395154 1969066752 layer_factory.hpp:76] Creating layer reluConv2
I1204 03:59:18.395162 1969066752 net.cpp:106] Creating Layer reluConv2
I1204 03:59:18.395193 1969066752 net.cpp:454] reluConv2 <- conv2
I1204 03:59:18.395217 1969066752 net.cpp:397] reluConv2 -> conv2 (in-place)
I1204 03:59:18.395239 1969066752 net.cpp:150] Setting up reluConv2
I1204 03:59:18.395252 1969066752 net.cpp:157] Top shape: 120 16 53 53 (5393280)
I1204 03:59:18.395267 1969066752 net.cpp:165] Memory required for data: 268784160
I1204 03:59:18.395279 1969066752 layer_factory.hpp:76] Creating layer fc1
I1204 03:59:18.395292 1969066752 net.cpp:106] Creating Layer fc1
I1204 03:59:18.395299 1969066752 net.cpp:454] fc1 <- conv2
I1204 03:59:18.395329 1969066752 net.cpp:411] fc1 -> fc1
I1204 03:59:18.416102 1969066752 net.cpp:150] Setting up fc1
I1204 03:59:18.416121 1969066752 net.cpp:157] Top shape: 120 40 (4800)
I1204 03:59:18.416127 1969066752 net.cpp:165] Memory required for data: 268803360
I1204 03:59:18.416142 1969066752 layer_factory.hpp:76] Creating layer tanh
I1204 03:59:18.416152 1969066752 net.cpp:106] Creating Layer tanh
I1204 03:59:18.416184 1969066752 net.cpp:454] tanh <- fc1
I1204 03:59:18.416211 1969066752 net.cpp:397] tanh -> fc1 (in-place)
I1204 03:59:18.416245 1969066752 net.cpp:150] Setting up tanh
I1204 03:59:18.416267 1969066752 net.cpp:157] Top shape: 120 40 (4800)
I1204 03:59:18.416285 1969066752 net.cpp:165] Memory required for data: 268822560
I1204 03:59:18.416311 1969066752 layer_factory.hpp:76] Creating layer fc2
I1204 03:59:18.416327 1969066752 net.cpp:106] Creating Layer fc2
I1204 03:59:18.416337 1969066752 net.cpp:454] fc2 <- fc1
I1204 03:59:18.416347 1969066752 net.cpp:411] fc2 -> fc2
I1204 03:59:18.416373 1969066752 net.cpp:150] Setting up fc2
I1204 03:59:18.416380 1969066752 net.cpp:157] Top shape: 120 4 (480)
I1204 03:59:18.416388 1969066752 net.cpp:165] Memory required for data: 268824480
I1204 03:59:18.416409 1969066752 layer_factory.hpp:76] Creating layer out
I1204 03:59:18.416452 1969066752 net.cpp:106] Creating Layer out
I1204 03:59:18.416470 1969066752 net.cpp:454] out <- fc2
I1204 03:59:18.416504 1969066752 net.cpp:411] out -> out
I1204 03:59:18.416543 1969066752 net.cpp:150] Setting up out
I1204 03:59:18.416576 1969066752 net.cpp:157] Top shape: 120 4 (480)
I1204 03:59:18.416599 1969066752 net.cpp:165] Memory required for data: 268826400
I1204 03:59:18.416623 1969066752 layer_factory.hpp:76] Creating layer loss
I1204 03:59:18.416671 1969066752 net.cpp:106] Creating Layer loss
I1204 03:59:18.416697 1969066752 net.cpp:454] loss <- out
I1204 03:59:18.416746 1969066752 net.cpp:454] loss <- labels
I1204 03:59:18.416790 1969066752 net.cpp:411] loss -> loss
…
