…
I1209 18:38:59.552052 2039878400 solver.cpp:90] Creating training net from net file: /Users/JonathanLee/Desktop/sandbox/vision/Net/nets/net4/trainer4.prototxt
I1209 18:38:59.552261 2039878400 net.cpp:322] The NetState phase (0) differed from the phase (1) specified by a rule in layer data
I1209 18:38:59.552281 2039878400 net.cpp:49] Initializing net from parameters: 
name: "net"
state {
  phase: TRAIN
}
layer {
  name: "data"
  type: "HDF5Data"
  top: "data"
  top: "labels"
  include {
    phase: TRAIN
  }
  hdf5_data_param {
    source: "/Users/JonathanLee/Desktop/sandbox/vision/Net/hdf/train_hdf.txt"
    batch_size: 500
  }
}
layer {
  name: "conv1"
  type: "Convolution"
  bottom: "data"
  top: "conv1"
  param {
    lr_mult: 1
    decay_mult: 1
  }
  param {
    lr_mult: 2
    decay_mult: 0
  }
  convolution_param {
    num_output: 16
    kernel_size: 11
    stride: 1
    weight_filler {
      type: "xavier"
    }
    bias_filler {
      type: "constant"
      value: 0
    }
  }
}
layer {
  name: "tanhConv1"
  type: "TanH"
  bottom: "conv1"
  top: "conv1"
}
layer {
  name: "conv2"
  type: "Convolution"
  bottom: "conv1"
  top: "conv2"
  param {
    lr_mult: 1
    decay_mult: 1
  }
  param {
    lr_mult: 2
    decay_mult: 0
  }
  convolution_param {
    num_output: 16
    kernel_size: 11
    stride: 2
    weight_filler {
      type: "xavier"
    }
    bias_filler {
      type: "constant"
      value: 0
    }
  }
}
layer {
  name: "reluConv2"
  type: "ReLU"
  bottom: "conv2"
  top: "conv2"
}
layer {
  name: "fc1"
  type: "InnerProduct"
  bottom: "conv2"
  top: "fc1"
  param {
    lr_mult: 1
    decay_mult: 1
  }
  param {
    lr_mult: 2
    decay_mult: 0
  }
  inner_product_param {
    num_output: 40
    weight_filler {
      type: "xavier"
    }
    bias_filler {
      type: "constant"
      value: 0
    }
  }
}
layer {
  name: "tanh"
  type: "TanH"
  bottom: "fc1"
  top: "fc1"
}
layer {
  name: "fc2"
  type: "InnerProduct"
  bottom: "fc1"
  top: "fc2"
  param {
    lr_mult: 1
    decay_mult: 1
  }
  param {
    lr_mult: 2
    decay_mult: 0
  }
  inner_product_param {
    num_output: 4
    weight_filler {
      type: "xavier"
    }
    bias_filler {
      type: "constant"
      value: 0
    }
  }
}
layer {
  name: "out"
  type: "TanH"
  bottom: "fc2"
  top: "out"
}
layer {
  name: "loss"
  type: "EuclideanLoss"
  bottom: "out"
  bottom: "labels"
  top: "loss"
}
I1209 18:38:59.552414 2039878400 layer_factory.hpp:76] Creating layer data
I1209 18:38:59.552429 2039878400 net.cpp:106] Creating Layer data
I1209 18:38:59.552435 2039878400 net.cpp:411] data -> data
I1209 18:38:59.552453 2039878400 net.cpp:411] data -> labels
I1209 18:38:59.552501 2039878400 hdf5_data_layer.cpp:79] Loading list of HDF5 filenames from: /Users/JonathanLee/Desktop/sandbox/vision/Net/hdf/train_hdf.txt
I1209 18:38:59.552544 2039878400 hdf5_data_layer.cpp:93] Number of HDF5 files: 1
I1209 18:38:59.553504 2039878400 hdf5.cpp:32] Datatype class: H5T_FLOAT
I1209 18:38:59.787030 2039878400 net.cpp:150] Setting up data
I1209 18:38:59.787057 2039878400 net.cpp:157] Top shape: 500 3 125 125 (23437500)
I1209 18:38:59.787067 2039878400 net.cpp:157] Top shape: 500 4 (2000)
I1209 18:38:59.787116 2039878400 net.cpp:165] Memory required for data: 93758000
I1209 18:38:59.787133 2039878400 layer_factory.hpp:76] Creating layer conv1
I1209 18:38:59.787163 2039878400 net.cpp:106] Creating Layer conv1
I1209 18:38:59.787183 2039878400 net.cpp:454] conv1 <- data
I1209 18:38:59.787192 2039878400 net.cpp:411] conv1 -> conv1
I1209 18:38:59.792990 2039878400 net.cpp:150] Setting up conv1
I1209 18:38:59.793007 2039878400 net.cpp:157] Top shape: 500 16 115 115 (105800000)
I1209 18:38:59.793025 2039878400 net.cpp:165] Memory required for data: 516958000
I1209 18:38:59.793068 2039878400 layer_factory.hpp:76] Creating layer tanhConv1
I1209 18:38:59.793078 2039878400 net.cpp:106] Creating Layer tanhConv1
I1209 18:38:59.793082 2039878400 net.cpp:454] tanhConv1 <- conv1
I1209 18:38:59.793088 2039878400 net.cpp:397] tanhConv1 -> conv1 (in-place)
I1209 18:38:59.793097 2039878400 net.cpp:150] Setting up tanhConv1
I1209 18:38:59.793100 2039878400 net.cpp:157] Top shape: 500 16 115 115 (105800000)
I1209 18:38:59.793105 2039878400 net.cpp:165] Memory required for data: 940158000
I1209 18:38:59.793109 2039878400 layer_factory.hpp:76] Creating layer conv2
I1209 18:38:59.793117 2039878400 net.cpp:106] Creating Layer conv2
I1209 18:38:59.793122 2039878400 net.cpp:454] conv2 <- conv1
I1209 18:38:59.793126 2039878400 net.cpp:411] conv2 -> conv2
I1209 18:38:59.793403 2039878400 net.cpp:150] Setting up conv2
I1209 18:38:59.793408 2039878400 net.cpp:157] Top shape: 500 16 53 53 (22472000)
I1209 18:38:59.793414 2039878400 net.cpp:165] Memory required for data: 1030046000
I1209 18:38:59.793421 2039878400 layer_factory.hpp:76] Creating layer reluConv2
I1209 18:38:59.793429 2039878400 net.cpp:106] Creating Layer reluConv2
I1209 18:38:59.793433 2039878400 net.cpp:454] reluConv2 <- conv2
I1209 18:38:59.793438 2039878400 net.cpp:397] reluConv2 -> conv2 (in-place)
I1209 18:38:59.793444 2039878400 net.cpp:150] Setting up reluConv2
I1209 18:38:59.793448 2039878400 net.cpp:157] Top shape: 500 16 53 53 (22472000)
I1209 18:38:59.793453 2039878400 net.cpp:165] Memory required for data: 1119934000
I1209 18:38:59.793457 2039878400 layer_factory.hpp:76] Creating layer fc1
I1209 18:38:59.793463 2039878400 net.cpp:106] Creating Layer fc1
I1209 18:38:59.793467 2039878400 net.cpp:454] fc1 <- conv2
I1209 18:38:59.793473 2039878400 net.cpp:411] fc1 -> fc1
I1209 18:38:59.810788 2039878400 net.cpp:150] Setting up fc1
I1209 18:38:59.810806 2039878400 net.cpp:157] Top shape: 500 40 (20000)
I1209 18:38:59.810822 2039878400 net.cpp:165] Memory required for data: 1120014000
I1209 18:38:59.810890 2039878400 layer_factory.hpp:76] Creating layer tanh
I1209 18:38:59.810909 2039878400 net.cpp:106] Creating Layer tanh
I1209 18:38:59.810914 2039878400 net.cpp:454] tanh <- fc1
I1209 18:38:59.810920 2039878400 net.cpp:397] tanh -> fc1 (in-place)
I1209 18:38:59.810927 2039878400 net.cpp:150] Setting up tanh
I1209 18:38:59.810931 2039878400 net.cpp:157] Top shape: 500 40 (20000)
I1209 18:38:59.810936 2039878400 net.cpp:165] Memory required for data: 1120094000
I1209 18:38:59.810940 2039878400 layer_factory.hpp:76] Creating layer fc2
I1209 18:38:59.810947 2039878400 net.cpp:106] Creating Layer fc2
I1209 18:38:59.810952 2039878400 net.cpp:454] fc2 <- fc1
I1209 18:38:59.810957 2039878400 net.cpp:411] fc2 -> fc2
I1209 18:38:59.810976 2039878400 net.cpp:150] Setting up fc2
I1209 18:38:59.810981 2039878400 net.cpp:157] Top shape: 500 4 (2000)
I1209 18:38:59.810986 2039878400 net.cpp:165] Memory required for data: 1120102000
I1209 18:38:59.810991 2039878400 layer_factory.hpp:76] Creating layer out
I1209 18:38:59.810997 2039878400 net.cpp:106] Creating Layer out
I1209 18:38:59.810999 2039878400 net.cpp:454] out <- fc2
I1209 18:38:59.811004 2039878400 net.cpp:411] out -> out
I1209 18:38:59.811012 2039878400 net.cpp:150] Setting up out
I1209 18:38:59.811015 2039878400 net.cpp:157] Top shape: 500 4 (2000)
I1209 18:38:59.811019 2039878400 net.cpp:165] Memory required for data: 1120110000
I1209 18:38:59.811023 2039878400 layer_factory.hpp:76] Creating layer loss
I1209 18:38:59.811029 2039878400 net.cpp:106] Creating Layer loss
I1209 18:38:59.811033 2039878400 net.cpp:454] loss <- out
I1209 18:38:59.811038 2039878400 net.cpp:454] loss <- labels
I1209 18:38:59.811043 2039878400 net.cpp:411] loss -> loss
…
I1209 18:38:59.811343 2039878400 solver.cpp:180] Creating test net (#0) specified by net file: /Users/JonathanLee/Desktop/sandbox/vision/Net/nets/net4/trainer4.prototxt
I1209 18:38:59.811369 2039878400 net.cpp:322] The NetState phase (1) differed from the phase (0) specified by a rule in layer data
I1209 18:38:59.811380 2039878400 net.cpp:49] Initializing net from parameters: 
name: "net"
state {
  phase: TEST
}
layer {
  name: "data"
  type: "HDF5Data"
  top: "data"
  top: "labels"
  include {
    phase: TEST
  }
  hdf5_data_param {
    source: "/Users/JonathanLee/Desktop/sandbox/vision/Net/hdf/test_hdf.txt"
    batch_size: 120
  }
}
layer {
  name: "conv1"
  type: "Convolution"
  bottom: "data"
  top: "conv1"
  param {
    lr_mult: 1
    decay_mult: 1
  }
  param {
    lr_mult: 2
    decay_mult: 0
  }
  convolution_param {
    num_output: 16
    kernel_size: 11
    stride: 1
    weight_filler {
      type: "xavier"
    }
    bias_filler {
      type: "constant"
      value: 0
    }
  }
}
layer {
  name: "tanhConv1"
  type: "TanH"
  bottom: "conv1"
  top: "conv1"
}
layer {
  name: "conv2"
  type: "Convolution"
  bottom: "conv1"
  top: "conv2"
  param {
    lr_mult: 1
    decay_mult: 1
  }
  param {
    lr_mult: 2
    decay_mult: 0
  }
  convolution_param {
    num_output: 16
    kernel_size: 11
    stride: 2
    weight_filler {
      type: "xavier"
    }
    bias_filler {
      type: "constant"
      value: 0
    }
  }
}
layer {
  name: "reluConv2"
  type: "ReLU"
  bottom: "conv2"
  top: "conv2"
}
layer {
  name: "fc1"
  type: "InnerProduct"
  bottom: "conv2"
  top: "fc1"
  param {
    lr_mult: 1
    decay_mult: 1
  }
  param {
    lr_mult: 2
    decay_mult: 0
  }
  inner_product_param {
    num_output: 40
    weight_filler {
      type: "xavier"
    }
    bias_filler {
      type: "constant"
      value: 0
    }
  }
}
layer {
  name: "tanh"
  type: "TanH"
  bottom: "fc1"
  top: "fc1"
}
layer {
  name: "fc2"
  type: "InnerProduct"
  bottom: "fc1"
  top: "fc2"
  param {
    lr_mult: 1
    decay_mult: 1
  }
  param {
    lr_mult: 2
    decay_mult: 0
  }
  inner_product_param {
    num_output: 4
    weight_filler {
      type: "xavier"
    }
    bias_filler {
      type: "constant"
      value: 0
    }
  }
}
layer {
  name: "out"
  type: "TanH"
  bottom: "fc2"
  top: "out"
}
layer {
  name: "loss"
  type: "EuclideanLoss"
  bottom: "out"
  bottom: "labels"
  top: "loss"
}
I1209 18:38:59.811488 2039878400 layer_factory.hpp:76] Creating layer data
I1209 18:38:59.811496 2039878400 net.cpp:106] Creating Layer data
I1209 18:38:59.811501 2039878400 net.cpp:411] data -> data
I1209 18:38:59.811508 2039878400 net.cpp:411] data -> labels
I1209 18:38:59.811517 2039878400 hdf5_data_layer.cpp:79] Loading list of HDF5 filenames from: /Users/JonathanLee/Desktop/sandbox/vision/Net/hdf/test_hdf.txt
I1209 18:38:59.811539 2039878400 hdf5_data_layer.cpp:93] Number of HDF5 files: 1
I1209 18:38:59.861245 2039878400 net.cpp:150] Setting up data
I1209 18:38:59.861268 2039878400 net.cpp:157] Top shape: 120 3 125 125 (5625000)
I1209 18:38:59.861287 2039878400 net.cpp:157] Top shape: 120 4 (480)
I1209 18:38:59.861292 2039878400 net.cpp:165] Memory required for data: 22501920
I1209 18:38:59.861325 2039878400 layer_factory.hpp:76] Creating layer conv1
I1209 18:38:59.861342 2039878400 net.cpp:106] Creating Layer conv1
I1209 18:38:59.861347 2039878400 net.cpp:454] conv1 <- data
I1209 18:38:59.861354 2039878400 net.cpp:411] conv1 -> conv1
I1209 18:38:59.861454 2039878400 net.cpp:150] Setting up conv1
I1209 18:38:59.861459 2039878400 net.cpp:157] Top shape: 120 16 115 115 (25392000)
I1209 18:38:59.861465 2039878400 net.cpp:165] Memory required for data: 124069920
I1209 18:38:59.861474 2039878400 layer_factory.hpp:76] Creating layer tanhConv1
I1209 18:38:59.861481 2039878400 net.cpp:106] Creating Layer tanhConv1
I1209 18:38:59.861485 2039878400 net.cpp:454] tanhConv1 <- conv1
I1209 18:38:59.861490 2039878400 net.cpp:397] tanhConv1 -> conv1 (in-place)
I1209 18:38:59.861497 2039878400 net.cpp:150] Setting up tanhConv1
I1209 18:38:59.861502 2039878400 net.cpp:157] Top shape: 120 16 115 115 (25392000)
I1209 18:38:59.861507 2039878400 net.cpp:165] Memory required for data: 225637920
I1209 18:38:59.861511 2039878400 layer_factory.hpp:76] Creating layer conv2
I1209 18:38:59.861517 2039878400 net.cpp:106] Creating Layer conv2
I1209 18:38:59.861522 2039878400 net.cpp:454] conv2 <- conv1
I1209 18:38:59.861527 2039878400 net.cpp:411] conv2 -> conv2
I1209 18:38:59.861806 2039878400 net.cpp:150] Setting up conv2
I1209 18:38:59.861812 2039878400 net.cpp:157] Top shape: 120 16 53 53 (5393280)
I1209 18:38:59.861817 2039878400 net.cpp:165] Memory required for data: 247211040
I1209 18:38:59.861824 2039878400 layer_factory.hpp:76] Creating layer reluConv2
I1209 18:38:59.861850 2039878400 net.cpp:106] Creating Layer reluConv2
I1209 18:38:59.861860 2039878400 net.cpp:454] reluConv2 <- conv2
I1209 18:38:59.861866 2039878400 net.cpp:397] reluConv2 -> conv2 (in-place)
I1209 18:38:59.861873 2039878400 net.cpp:150] Setting up reluConv2
I1209 18:38:59.861878 2039878400 net.cpp:157] Top shape: 120 16 53 53 (5393280)
I1209 18:38:59.861883 2039878400 net.cpp:165] Memory required for data: 268784160
I1209 18:38:59.861887 2039878400 layer_factory.hpp:76] Creating layer fc1
I1209 18:38:59.861901 2039878400 net.cpp:106] Creating Layer fc1
I1209 18:38:59.861906 2039878400 net.cpp:454] fc1 <- conv2
I1209 18:38:59.861910 2039878400 net.cpp:411] fc1 -> fc1
I1209 18:38:59.878787 2039878400 net.cpp:150] Setting up fc1
I1209 18:38:59.878806 2039878400 net.cpp:157] Top shape: 120 40 (4800)
I1209 18:38:59.878823 2039878400 net.cpp:165] Memory required for data: 268803360
I1209 18:38:59.878834 2039878400 layer_factory.hpp:76] Creating layer tanh
I1209 18:38:59.878841 2039878400 net.cpp:106] Creating Layer tanh
I1209 18:38:59.878846 2039878400 net.cpp:454] tanh <- fc1
I1209 18:38:59.878854 2039878400 net.cpp:397] tanh -> fc1 (in-place)
I1209 18:38:59.878861 2039878400 net.cpp:150] Setting up tanh
I1209 18:38:59.878865 2039878400 net.cpp:157] Top shape: 120 40 (4800)
I1209 18:38:59.878870 2039878400 net.cpp:165] Memory required for data: 268822560
I1209 18:38:59.878875 2039878400 layer_factory.hpp:76] Creating layer fc2
I1209 18:38:59.878883 2039878400 net.cpp:106] Creating Layer fc2
I1209 18:38:59.878888 2039878400 net.cpp:454] fc2 <- fc1
I1209 18:38:59.878895 2039878400 net.cpp:411] fc2 -> fc2
I1209 18:38:59.878909 2039878400 net.cpp:150] Setting up fc2
I1209 18:38:59.878913 2039878400 net.cpp:157] Top shape: 120 4 (480)
I1209 18:38:59.878918 2039878400 net.cpp:165] Memory required for data: 268824480
I1209 18:38:59.878924 2039878400 layer_factory.hpp:76] Creating layer out
I1209 18:38:59.878929 2039878400 net.cpp:106] Creating Layer out
I1209 18:38:59.878933 2039878400 net.cpp:454] out <- fc2
I1209 18:38:59.878938 2039878400 net.cpp:411] out -> out
I1209 18:38:59.878945 2039878400 net.cpp:150] Setting up out
I1209 18:38:59.878949 2039878400 net.cpp:157] Top shape: 120 4 (480)
I1209 18:38:59.878954 2039878400 net.cpp:165] Memory required for data: 268826400
I1209 18:38:59.878958 2039878400 layer_factory.hpp:76] Creating layer loss
I1209 18:38:59.878964 2039878400 net.cpp:106] Creating Layer loss
I1209 18:38:59.878969 2039878400 net.cpp:454] loss <- out
I1209 18:38:59.878996 2039878400 net.cpp:454] loss <- labels
I1209 18:38:59.879004 2039878400 net.cpp:411] loss -> loss
…
