…
I1203 01:54:03.849221 1969066752 solver.cpp:90] Creating training net from net file: /Users/JonathanLee/Desktop/sandbox/vision/Net/trainer.prototxt
I1203 01:54:03.849423 1969066752 net.cpp:322] The NetState phase (0) differed from the phase (1) specified by a rule in layer data
I1203 01:54:03.849452 1969066752 net.cpp:49] Initializing net from parameters: 
name: "net"
state {
  phase: TRAIN
}
layer {
  name: "data"
  type: "HDF5Data"
  top: "data"
  top: "labels"
  include {
    phase: TRAIN
  }
  hdf5_data_param {
    source: "/Users/JonathanLee/Desktop/sandbox/vision/Net/hdf/train_hdf.txt"
    batch_size: 450
  }
}
layer {
  name: "conv1"
  type: "Convolution"
  bottom: "data"
  top: "conv1"
  param {
    lr_mult: 1
    decay_mult: 1
  }
  param {
    lr_mult: 2
    decay_mult: 0
  }
  convolution_param {
    num_output: 16
    kernel_size: 11
    stride: 1
    weight_filler {
      type: "xavier"
    }
    bias_filler {
      type: "constant"
      value: 0
    }
  }
}
layer {
  name: "reluConv"
  type: "ReLU"
  bottom: "conv1"
  top: "conv1"
}
layer {
  name: "conv2"
  type: "Convolution"
  bottom: "conv1"
  top: "conv2"
  param {
    lr_mult: 1
    decay_mult: 1
  }
  param {
    lr_mult: 2
    decay_mult: 0
  }
  convolution_param {
    num_output: 16
    kernel_size: 11
    stride: 2
    weight_filler {
      type: "xavier"
    }
    bias_filler {
      type: "constant"
      value: 0
    }
  }
}
layer {
  name: "fc1"
  type: "InnerProduct"
  bottom: "conv2"
  top: "fc1"
  param {
    lr_mult: 1
    decay_mult: 1
  }
  param {
    lr_mult: 2
    decay_mult: 0
  }
  inner_product_param {
    num_output: 40
    weight_filler {
      type: "xavier"
    }
    bias_filler {
      type: "constant"
      value: 0
    }
  }
}
layer {
  name: "relu1"
  type: "ReLU"
  bottom: "fc1"
  top: "relu1"
}
layer {
  name: "fc2"
  type: "InnerProduct"
  bottom: "relu1"
  top: "fc2"
  param {
    lr_mult: 1
    decay_mult: 1
  }
  param {
    lr_mult: 2
    decay_mult: 0
  }
  inner_product_param {
    num_output: 4
    weight_filler {
      type: "xavier"
    }
    bias_filler {
      type: "constant"
      value: 0
    }
  }
}
layer {
  name: "tanh"
  type: "TanH"
  bottom: "fc2"
  top: "tanh"
}
layer {
  name: "loss"
  type: "EuclideanLoss"
  bottom: "tanh"
  bottom: "labels"
  top: "loss"
}
I1203 01:54:03.849565 1969066752 layer_factory.hpp:76] Creating layer data
I1203 01:54:03.849578 1969066752 net.cpp:106] Creating Layer data
I1203 01:54:03.849583 1969066752 net.cpp:411] data -> data
I1203 01:54:03.849601 1969066752 net.cpp:411] data -> labels
I1203 01:54:03.849611 1969066752 hdf5_data_layer.cpp:79] Loading list of HDF5 filenames from: /Users/JonathanLee/Desktop/sandbox/vision/Net/hdf/train_hdf.txt
I1203 01:54:03.849639 1969066752 hdf5_data_layer.cpp:93] Number of HDF5 files: 1
I1203 01:54:03.850600 1969066752 hdf5.cpp:32] Datatype class: H5T_FLOAT
I1203 01:54:04.621397 1969066752 net.cpp:150] Setting up data
I1203 01:54:04.621423 1969066752 net.cpp:157] Top shape: 450 3 250 250 (84375000)
I1203 01:54:04.621433 1969066752 net.cpp:157] Top shape: 450 4 (1800)
I1203 01:54:04.621464 1969066752 net.cpp:165] Memory required for data: 337507200
I1203 01:54:04.621486 1969066752 layer_factory.hpp:76] Creating layer conv1
I1203 01:54:04.621500 1969066752 net.cpp:106] Creating Layer conv1
I1203 01:54:04.621508 1969066752 net.cpp:454] conv1 <- data
I1203 01:54:04.621515 1969066752 net.cpp:411] conv1 -> conv1
I1203 01:54:04.628695 1969066752 net.cpp:150] Setting up conv1
I1203 01:54:04.628706 1969066752 net.cpp:157] Top shape: 450 16 240 240 (414720000)
I1203 01:54:04.628715 1969066752 net.cpp:165] Memory required for data: 1996387200
I1203 01:54:04.628725 1969066752 layer_factory.hpp:76] Creating layer reluConv
I1203 01:54:04.628772 1969066752 net.cpp:106] Creating Layer reluConv
I1203 01:54:04.628779 1969066752 net.cpp:454] reluConv <- conv1
I1203 01:54:04.628787 1969066752 net.cpp:397] reluConv -> conv1 (in-place)
I1203 01:54:04.628796 1969066752 net.cpp:150] Setting up reluConv
I1203 01:54:04.628804 1969066752 net.cpp:157] Top shape: 450 16 240 240 (414720000)
I1203 01:54:04.628818 1969066752 net.cpp:165] Memory required for data: 3655267200
I1203 01:54:04.628825 1969066752 layer_factory.hpp:76] Creating layer conv2
I1203 01:54:04.628834 1969066752 net.cpp:106] Creating Layer conv2
I1203 01:54:04.628840 1969066752 net.cpp:454] conv2 <- conv1
I1203 01:54:04.628851 1969066752 net.cpp:411] conv2 -> conv2
I1203 01:54:04.629276 1969066752 net.cpp:150] Setting up conv2
I1203 01:54:04.629284 1969066752 net.cpp:157] Top shape: 450 16 115 115 (95220000)
I1203 01:54:04.629290 1969066752 net.cpp:165] Memory required for data: 4036147200
I1203 01:54:04.629298 1969066752 layer_factory.hpp:76] Creating layer fc1
I1203 01:54:04.629307 1969066752 net.cpp:106] Creating Layer fc1
I1203 01:54:04.629312 1969066752 net.cpp:454] fc1 <- conv2
I1203 01:54:04.629320 1969066752 net.cpp:411] fc1 -> fc1
I1203 01:54:04.696449 1969066752 net.cpp:150] Setting up fc1
I1203 01:54:04.696467 1969066752 net.cpp:157] Top shape: 450 40 (18000)
I1203 01:54:04.696483 1969066752 net.cpp:165] Memory required for data: 4036219200
I1203 01:54:04.696562 1969066752 layer_factory.hpp:76] Creating layer relu1
I1203 01:54:04.696576 1969066752 net.cpp:106] Creating Layer relu1
I1203 01:54:04.696583 1969066752 net.cpp:454] relu1 <- fc1
I1203 01:54:04.696593 1969066752 net.cpp:411] relu1 -> relu1
I1203 01:54:04.696604 1969066752 net.cpp:150] Setting up relu1
I1203 01:54:04.696607 1969066752 net.cpp:157] Top shape: 450 40 (18000)
I1203 01:54:04.696611 1969066752 net.cpp:165] Memory required for data: 4036291200
I1203 01:54:04.696615 1969066752 layer_factory.hpp:76] Creating layer fc2
I1203 01:54:04.696629 1969066752 net.cpp:106] Creating Layer fc2
I1203 01:54:04.696632 1969066752 net.cpp:454] fc2 <- relu1
I1203 01:54:04.696647 1969066752 net.cpp:411] fc2 -> fc2
I1203 01:54:04.696666 1969066752 net.cpp:150] Setting up fc2
I1203 01:54:04.696671 1969066752 net.cpp:157] Top shape: 450 4 (1800)
I1203 01:54:04.696683 1969066752 net.cpp:165] Memory required for data: 4036298400
I1203 01:54:04.696688 1969066752 layer_factory.hpp:76] Creating layer tanh
I1203 01:54:04.696704 1969066752 net.cpp:106] Creating Layer tanh
I1203 01:54:04.696712 1969066752 net.cpp:454] tanh <- fc2
I1203 01:54:04.696717 1969066752 net.cpp:411] tanh -> tanh
I1203 01:54:04.696724 1969066752 net.cpp:150] Setting up tanh
I1203 01:54:04.696728 1969066752 net.cpp:157] Top shape: 450 4 (1800)
I1203 01:54:04.696732 1969066752 net.cpp:165] Memory required for data: 4036305600
I1203 01:54:04.696737 1969066752 layer_factory.hpp:76] Creating layer loss
I1203 01:54:04.696743 1969066752 net.cpp:106] Creating Layer loss
I1203 01:54:04.696745 1969066752 net.cpp:454] loss <- tanh
I1203 01:54:04.696749 1969066752 net.cpp:454] loss <- labels
I1203 01:54:04.696764 1969066752 net.cpp:411] loss -> loss
…
I1203 01:54:04.697131 1969066752 solver.cpp:180] Creating test net (#0) specified by net file: /Users/JonathanLee/Desktop/sandbox/vision/Net/trainer.prototxt
I1203 01:54:04.697166 1969066752 net.cpp:322] The NetState phase (1) differed from the phase (0) specified by a rule in layer data
I1203 01:54:04.697187 1969066752 net.cpp:49] Initializing net from parameters: 
name: "net"
state {
  phase: TEST
}
layer {
  name: "data"
  type: "HDF5Data"
  top: "data"
  top: "labels"
  include {
    phase: TEST
  }
  hdf5_data_param {
    source: "/Users/JonathanLee/Desktop/sandbox/vision/Net/hdf/test_hdf.txt"
    batch_size: 120
  }
}
layer {
  name: "conv1"
  type: "Convolution"
  bottom: "data"
  top: "conv1"
  param {
    lr_mult: 1
    decay_mult: 1
  }
  param {
    lr_mult: 2
    decay_mult: 0
  }
  convolution_param {
    num_output: 16
    kernel_size: 11
    stride: 1
    weight_filler {
      type: "xavier"
    }
    bias_filler {
      type: "constant"
      value: 0
    }
  }
}
layer {
  name: "reluConv"
  type: "ReLU"
  bottom: "conv1"
  top: "conv1"
}
layer {
  name: "conv2"
  type: "Convolution"
  bottom: "conv1"
  top: "conv2"
  param {
    lr_mult: 1
    decay_mult: 1
  }
  param {
    lr_mult: 2
    decay_mult: 0
  }
  convolution_param {
    num_output: 16
    kernel_size: 11
    stride: 2
    weight_filler {
      type: "xavier"
    }
    bias_filler {
      type: "constant"
      value: 0
    }
  }
}
layer {
  name: "fc1"
  type: "InnerProduct"
  bottom: "conv2"
  top: "fc1"
  param {
    lr_mult: 1
    decay_mult: 1
  }
  param {
    lr_mult: 2
    decay_mult: 0
  }
  inner_product_param {
    num_output: 40
    weight_filler {
      type: "xavier"
    }
    bias_filler {
      type: "constant"
      value: 0
    }
  }
}
layer {
  name: "relu1"
  type: "ReLU"
  bottom: "fc1"
  top: "relu1"
}
layer {
  name: "fc2"
  type: "InnerProduct"
  bottom: "relu1"
  top: "fc2"
  param {
    lr_mult: 1
    decay_mult: 1
  }
  param {
    lr_mult: 2
    decay_mult: 0
  }
  inner_product_param {
    num_output: 4
    weight_filler {
      type: "xavier"
    }
    bias_filler {
      type: "constant"
      value: 0
    }
  }
}
layer {
  name: "tanh"
  type: "TanH"
  bottom: "fc2"
  top: "tanh"
}
layer {
  name: "loss"
  type: "EuclideanLoss"
  bottom: "tanh"
  bottom: "labels"
  top: "loss"
}
I1203 01:54:04.697316 1969066752 layer_factory.hpp:76] Creating layer data
I1203 01:54:04.697324 1969066752 net.cpp:106] Creating Layer data
I1203 01:54:04.697329 1969066752 net.cpp:411] data -> data
I1203 01:54:04.697335 1969066752 net.cpp:411] data -> labels
I1203 01:54:04.697341 1969066752 hdf5_data_layer.cpp:79] Loading list of HDF5 filenames from: /Users/JonathanLee/Desktop/sandbox/vision/Net/hdf/test_hdf.txt
I1203 01:54:04.697365 1969066752 hdf5_data_layer.cpp:93] Number of HDF5 files: 1
I1203 01:54:04.928604 1969066752 net.cpp:150] Setting up data
I1203 01:54:04.928652 1969066752 net.cpp:157] Top shape: 120 3 250 250 (22500000)
I1203 01:54:04.928658 1969066752 net.cpp:157] Top shape: 120 4 (480)
I1203 01:54:04.928663 1969066752 net.cpp:165] Memory required for data: 90001920
I1203 01:54:04.928671 1969066752 layer_factory.hpp:76] Creating layer conv1
I1203 01:54:04.928689 1969066752 net.cpp:106] Creating Layer conv1
I1203 01:54:04.928694 1969066752 net.cpp:454] conv1 <- data
I1203 01:54:04.928711 1969066752 net.cpp:411] conv1 -> conv1
I1203 01:54:04.929059 1969066752 net.cpp:150] Setting up conv1
I1203 01:54:04.929067 1969066752 net.cpp:157] Top shape: 120 16 240 240 (110592000)
I1203 01:54:04.929083 1969066752 net.cpp:165] Memory required for data: 532369920
I1203 01:54:04.929092 1969066752 layer_factory.hpp:76] Creating layer reluConv
I1203 01:54:04.929100 1969066752 net.cpp:106] Creating Layer reluConv
I1203 01:54:04.929103 1969066752 net.cpp:454] reluConv <- conv1
I1203 01:54:04.929119 1969066752 net.cpp:397] reluConv -> conv1 (in-place)
I1203 01:54:04.929185 1969066752 net.cpp:150] Setting up reluConv
I1203 01:54:04.929190 1969066752 net.cpp:157] Top shape: 120 16 240 240 (110592000)
I1203 01:54:04.929196 1969066752 net.cpp:165] Memory required for data: 974737920
I1203 01:54:04.929199 1969066752 layer_factory.hpp:76] Creating layer conv2
I1203 01:54:04.929206 1969066752 net.cpp:106] Creating Layer conv2
I1203 01:54:04.929210 1969066752 net.cpp:454] conv2 <- conv1
I1203 01:54:04.929215 1969066752 net.cpp:411] conv2 -> conv2
I1203 01:54:04.929579 1969066752 net.cpp:150] Setting up conv2
I1203 01:54:04.929584 1969066752 net.cpp:157] Top shape: 120 16 115 115 (25392000)
I1203 01:54:04.929600 1969066752 net.cpp:165] Memory required for data: 1076305920
I1203 01:54:04.929607 1969066752 layer_factory.hpp:76] Creating layer fc1
I1203 01:54:04.929615 1969066752 net.cpp:106] Creating Layer fc1
I1203 01:54:04.929620 1969066752 net.cpp:454] fc1 <- conv2
I1203 01:54:04.929638 1969066752 net.cpp:411] fc1 -> fc1
I1203 01:54:05.017209 1969066752 net.cpp:150] Setting up fc1
I1203 01:54:05.017235 1969066752 net.cpp:157] Top shape: 120 40 (4800)
I1203 01:54:05.017241 1969066752 net.cpp:165] Memory required for data: 1076325120
I1203 01:54:05.017251 1969066752 layer_factory.hpp:76] Creating layer relu1
I1203 01:54:05.017261 1969066752 net.cpp:106] Creating Layer relu1
I1203 01:54:05.017266 1969066752 net.cpp:454] relu1 <- fc1
I1203 01:54:05.017271 1969066752 net.cpp:411] relu1 -> relu1
I1203 01:54:05.017280 1969066752 net.cpp:150] Setting up relu1
I1203 01:54:05.017284 1969066752 net.cpp:157] Top shape: 120 40 (4800)
I1203 01:54:05.017288 1969066752 net.cpp:165] Memory required for data: 1076344320
I1203 01:54:05.017292 1969066752 layer_factory.hpp:76] Creating layer fc2
I1203 01:54:05.017299 1969066752 net.cpp:106] Creating Layer fc2
I1203 01:54:05.017304 1969066752 net.cpp:454] fc2 <- relu1
I1203 01:54:05.017309 1969066752 net.cpp:411] fc2 -> fc2
I1203 01:54:05.017325 1969066752 net.cpp:150] Setting up fc2
I1203 01:54:05.017330 1969066752 net.cpp:157] Top shape: 120 4 (480)
I1203 01:54:05.017334 1969066752 net.cpp:165] Memory required for data: 1076346240
I1203 01:54:05.017339 1969066752 layer_factory.hpp:76] Creating layer tanh
I1203 01:54:05.017345 1969066752 net.cpp:106] Creating Layer tanh
I1203 01:54:05.017349 1969066752 net.cpp:454] tanh <- fc2
I1203 01:54:05.017354 1969066752 net.cpp:411] tanh -> tanh
I1203 01:54:05.017360 1969066752 net.cpp:150] Setting up tanh
I1203 01:54:05.017364 1969066752 net.cpp:157] Top shape: 120 4 (480)
I1203 01:54:05.017369 1969066752 net.cpp:165] Memory required for data: 1076348160
I1203 01:54:05.017372 1969066752 layer_factory.hpp:76] Creating layer loss
I1203 01:54:05.017379 1969066752 net.cpp:106] Creating Layer loss
I1203 01:54:05.017382 1969066752 net.cpp:454] loss <- tanh
I1203 01:54:05.017386 1969066752 net.cpp:454] loss <- labels
I1203 01:54:05.017410 1969066752 net.cpp:411] loss -> loss
…
