…
I1204 03:55:50.426687 1969066752 solver.cpp:90] Creating training net from net file: /Users/JonathanLee/Desktop/sandbox/vision/Net/nets/net3/trainer3.prototxt
I1204 03:55:50.426939 1969066752 net.cpp:322] The NetState phase (0) differed from the phase (1) specified by a rule in layer data
I1204 03:55:50.426961 1969066752 net.cpp:49] Initializing net from parameters: 
name: "net"
state {
  phase: TRAIN
}
layer {
  name: "data"
  type: "HDF5Data"
  top: "data"
  top: "labels"
  include {
    phase: TRAIN
  }
  hdf5_data_param {
    source: "/Users/JonathanLee/Desktop/sandbox/vision/Net/hdf/train_hdf.txt"
    batch_size: 450
  }
}
layer {
  name: "conv1"
  type: "Convolution"
  bottom: "data"
  top: "conv1"
  param {
    lr_mult: 1
    decay_mult: 1
  }
  param {
    lr_mult: 2
    decay_mult: 0
  }
  convolution_param {
    num_output: 16
    kernel_size: 11
    stride: 1
    weight_filler {
      type: "xavier"
    }
    bias_filler {
      type: "constant"
      value: 0
    }
  }
}
layer {
  name: "reluConv1"
  type: "ReLU"
  bottom: "conv1"
  top: "conv1"
}
layer {
  name: "fc1"
  type: "InnerProduct"
  bottom: "conv1"
  top: "fc1"
  param {
    lr_mult: 1
    decay_mult: 1
  }
  param {
    lr_mult: 2
    decay_mult: 0
  }
  inner_product_param {
    num_output: 40
    weight_filler {
      type: "xavier"
    }
    bias_filler {
      type: "constant"
      value: 0
    }
  }
}
layer {
  name: "relu1"
  type: "ReLU"
  bottom: "fc1"
  top: "fc1"
}
layer {
  name: "fc2"
  type: "InnerProduct"
  bottom: "fc1"
  top: "fc2"
  param {
    lr_mult: 1
    decay_mult: 1
  }
  param {
    lr_mult: 2
    decay_mult: 0
  }
  inner_product_param {
    num_output: 4
    weight_filler {
      type: "xavier"
    }
    bias_filler {
      type: "constant"
      value: 0
    }
  }
}
layer {
  name: "out"
  type: "TanH"
  bottom: "fc2"
  top: "out"
}
layer {
  name: "loss"
  type: "EuclideanLoss"
  bottom: "out"
  bottom: "labels"
  top: "loss"
}
I1204 03:55:50.427085 1969066752 layer_factory.hpp:76] Creating layer data
I1204 03:55:50.427099 1969066752 net.cpp:106] Creating Layer data
I1204 03:55:50.427104 1969066752 net.cpp:411] data -> data
I1204 03:55:50.427150 1969066752 net.cpp:411] data -> labels
I1204 03:55:50.427172 1969066752 hdf5_data_layer.cpp:79] Loading list of HDF5 filenames from: /Users/JonathanLee/Desktop/sandbox/vision/Net/hdf/train_hdf.txt
I1204 03:55:50.427536 1969066752 hdf5_data_layer.cpp:93] Number of HDF5 files: 1
I1204 03:55:50.428684 1969066752 hdf5.cpp:32] Datatype class: H5T_FLOAT
I1204 03:55:50.632360 1969066752 net.cpp:150] Setting up data
I1204 03:55:50.632391 1969066752 net.cpp:157] Top shape: 450 3 125 125 (21093750)
I1204 03:55:50.632405 1969066752 net.cpp:157] Top shape: 450 4 (1800)
I1204 03:55:50.632421 1969066752 net.cpp:165] Memory required for data: 84382200
I1204 03:55:50.632431 1969066752 layer_factory.hpp:76] Creating layer conv1
I1204 03:55:50.632447 1969066752 net.cpp:106] Creating Layer conv1
I1204 03:55:50.632455 1969066752 net.cpp:454] conv1 <- data
I1204 03:55:50.632469 1969066752 net.cpp:411] conv1 -> conv1
I1204 03:55:50.638154 1969066752 net.cpp:150] Setting up conv1
I1204 03:55:50.638164 1969066752 net.cpp:157] Top shape: 450 16 115 115 (95220000)
I1204 03:55:50.638170 1969066752 net.cpp:165] Memory required for data: 465262200
I1204 03:55:50.638180 1969066752 layer_factory.hpp:76] Creating layer reluConv1
I1204 03:55:50.638190 1969066752 net.cpp:106] Creating Layer reluConv1
I1204 03:55:50.638195 1969066752 net.cpp:454] reluConv1 <- conv1
I1204 03:55:50.638205 1969066752 net.cpp:397] reluConv1 -> conv1 (in-place)
I1204 03:55:50.638213 1969066752 net.cpp:150] Setting up reluConv1
I1204 03:55:50.638217 1969066752 net.cpp:157] Top shape: 450 16 115 115 (95220000)
I1204 03:55:50.638257 1969066752 net.cpp:165] Memory required for data: 846142200
I1204 03:55:50.638263 1969066752 layer_factory.hpp:76] Creating layer fc1
I1204 03:55:50.638273 1969066752 net.cpp:106] Creating Layer fc1
I1204 03:55:50.638278 1969066752 net.cpp:454] fc1 <- conv1
I1204 03:55:50.638284 1969066752 net.cpp:411] fc1 -> fc1
I1204 03:55:50.711933 1969066752 net.cpp:150] Setting up fc1
I1204 03:55:50.711956 1969066752 net.cpp:157] Top shape: 450 40 (18000)
I1204 03:55:50.711963 1969066752 net.cpp:165] Memory required for data: 846214200
I1204 03:55:50.711983 1969066752 layer_factory.hpp:76] Creating layer relu1
I1204 03:55:50.711998 1969066752 net.cpp:106] Creating Layer relu1
I1204 03:55:50.712003 1969066752 net.cpp:454] relu1 <- fc1
I1204 03:55:50.712009 1969066752 net.cpp:397] relu1 -> fc1 (in-place)
I1204 03:55:50.712018 1969066752 net.cpp:150] Setting up relu1
I1204 03:55:50.712021 1969066752 net.cpp:157] Top shape: 450 40 (18000)
I1204 03:55:50.712025 1969066752 net.cpp:165] Memory required for data: 846286200
I1204 03:55:50.712030 1969066752 layer_factory.hpp:76] Creating layer fc2
I1204 03:55:50.712038 1969066752 net.cpp:106] Creating Layer fc2
I1204 03:55:50.712044 1969066752 net.cpp:454] fc2 <- fc1
I1204 03:55:50.712052 1969066752 net.cpp:411] fc2 -> fc2
I1204 03:55:50.712071 1969066752 net.cpp:150] Setting up fc2
I1204 03:55:50.712076 1969066752 net.cpp:157] Top shape: 450 4 (1800)
I1204 03:55:50.712080 1969066752 net.cpp:165] Memory required for data: 846293400
I1204 03:55:50.712087 1969066752 layer_factory.hpp:76] Creating layer out
I1204 03:55:50.712092 1969066752 net.cpp:106] Creating Layer out
I1204 03:55:50.712105 1969066752 net.cpp:454] out <- fc2
I1204 03:55:50.712110 1969066752 net.cpp:411] out -> out
I1204 03:55:50.712117 1969066752 net.cpp:150] Setting up out
I1204 03:55:50.712121 1969066752 net.cpp:157] Top shape: 450 4 (1800)
I1204 03:55:50.712126 1969066752 net.cpp:165] Memory required for data: 846300600
I1204 03:55:50.712131 1969066752 layer_factory.hpp:76] Creating layer loss
I1204 03:55:50.712138 1969066752 net.cpp:106] Creating Layer loss
I1204 03:55:50.712142 1969066752 net.cpp:454] loss <- out
I1204 03:55:50.712146 1969066752 net.cpp:454] loss <- labels
I1204 03:55:50.712152 1969066752 net.cpp:411] loss -> loss
…
I1204 03:55:50.712409 1969066752 solver.cpp:180] Creating test net (#0) specified by net file: /Users/JonathanLee/Desktop/sandbox/vision/Net/nets/net3/trainer3.prototxt
I1204 03:55:50.712435 1969066752 net.cpp:322] The NetState phase (1) differed from the phase (0) specified by a rule in layer data
I1204 03:55:50.712447 1969066752 net.cpp:49] Initializing net from parameters: 
name: "net"
state {
  phase: TEST
}
layer {
  name: "data"
  type: "HDF5Data"
  top: "data"
  top: "labels"
  include {
    phase: TEST
  }
  hdf5_data_param {
    source: "/Users/JonathanLee/Desktop/sandbox/vision/Net/hdf/test_hdf.txt"
    batch_size: 120
  }
}
layer {
  name: "conv1"
  type: "Convolution"
  bottom: "data"
  top: "conv1"
  param {
    lr_mult: 1
    decay_mult: 1
  }
  param {
    lr_mult: 2
    decay_mult: 0
  }
  convolution_param {
    num_output: 16
    kernel_size: 11
    stride: 1
    weight_filler {
      type: "xavier"
    }
    bias_filler {
      type: "constant"
      value: 0
    }
  }
}
layer {
  name: "reluConv1"
  type: "ReLU"
  bottom: "conv1"
  top: "conv1"
}
layer {
  name: "fc1"
  type: "InnerProduct"
  bottom: "conv1"
  top: "fc1"
  param {
    lr_mult: 1
    decay_mult: 1
  }
  param {
    lr_mult: 2
    decay_mult: 0
  }
  inner_product_param {
    num_output: 40
    weight_filler {
      type: "xavier"
    }
    bias_filler {
      type: "constant"
      value: 0
    }
  }
}
layer {
  name: "relu1"
  type: "ReLU"
  bottom: "fc1"
  top: "fc1"
}
layer {
  name: "fc2"
  type: "InnerProduct"
  bottom: "fc1"
  top: "fc2"
  param {
    lr_mult: 1
    decay_mult: 1
  }
  param {
    lr_mult: 2
    decay_mult: 0
  }
  inner_product_param {
    num_output: 4
    weight_filler {
      type: "xavier"
    }
    bias_filler {
      type: "constant"
      value: 0
    }
  }
}
layer {
  name: "out"
  type: "TanH"
  bottom: "fc2"
  top: "out"
}
layer {
  name: "loss"
  type: "EuclideanLoss"
  bottom: "out"
  bottom: "labels"
  top: "loss"
}
I1204 03:55:50.712573 1969066752 layer_factory.hpp:76] Creating layer data
I1204 03:55:50.712590 1969066752 net.cpp:106] Creating Layer data
I1204 03:55:50.712595 1969066752 net.cpp:411] data -> data
I1204 03:55:50.712605 1969066752 net.cpp:411] data -> labels
I1204 03:55:50.712611 1969066752 hdf5_data_layer.cpp:79] Loading list of HDF5 filenames from: /Users/JonathanLee/Desktop/sandbox/vision/Net/hdf/test_hdf.txt
I1204 03:55:50.712996 1969066752 hdf5_data_layer.cpp:93] Number of HDF5 files: 1
I1204 03:55:50.860872 1969066752 net.cpp:150] Setting up data
I1204 03:55:50.860898 1969066752 net.cpp:157] Top shape: 120 3 125 125 (5625000)
I1204 03:55:50.860906 1969066752 net.cpp:157] Top shape: 120 4 (480)
I1204 03:55:50.860911 1969066752 net.cpp:165] Memory required for data: 22501920
I1204 03:55:50.860918 1969066752 layer_factory.hpp:76] Creating layer conv1
I1204 03:55:50.860931 1969066752 net.cpp:106] Creating Layer conv1
I1204 03:55:50.860952 1969066752 net.cpp:454] conv1 <- data
I1204 03:55:50.860975 1969066752 net.cpp:411] conv1 -> conv1
I1204 03:55:50.861090 1969066752 net.cpp:150] Setting up conv1
I1204 03:55:50.861098 1969066752 net.cpp:157] Top shape: 120 16 115 115 (25392000)
I1204 03:55:50.861104 1969066752 net.cpp:165] Memory required for data: 124069920
I1204 03:55:50.861114 1969066752 layer_factory.hpp:76] Creating layer reluConv1
I1204 03:55:50.861124 1969066752 net.cpp:106] Creating Layer reluConv1
I1204 03:55:50.861130 1969066752 net.cpp:454] reluConv1 <- conv1
I1204 03:55:50.861135 1969066752 net.cpp:397] reluConv1 -> conv1 (in-place)
I1204 03:55:50.861148 1969066752 net.cpp:150] Setting up reluConv1
I1204 03:55:50.861153 1969066752 net.cpp:157] Top shape: 120 16 115 115 (25392000)
I1204 03:55:50.861160 1969066752 net.cpp:165] Memory required for data: 225637920
I1204 03:55:50.861163 1969066752 layer_factory.hpp:76] Creating layer fc1
I1204 03:55:50.861172 1969066752 net.cpp:106] Creating Layer fc1
I1204 03:55:50.861177 1969066752 net.cpp:454] fc1 <- conv1
I1204 03:55:50.861183 1969066752 net.cpp:411] fc1 -> fc1
I1204 03:55:50.926800 1969066752 net.cpp:150] Setting up fc1
I1204 03:55:50.926818 1969066752 net.cpp:157] Top shape: 120 40 (4800)
I1204 03:55:50.926834 1969066752 net.cpp:165] Memory required for data: 225657120
I1204 03:55:50.926843 1969066752 layer_factory.hpp:76] Creating layer relu1
I1204 03:55:50.926853 1969066752 net.cpp:106] Creating Layer relu1
I1204 03:55:50.926857 1969066752 net.cpp:454] relu1 <- fc1
I1204 03:55:50.926862 1969066752 net.cpp:397] relu1 -> fc1 (in-place)
I1204 03:55:50.926880 1969066752 net.cpp:150] Setting up relu1
I1204 03:55:50.926884 1969066752 net.cpp:157] Top shape: 120 40 (4800)
I1204 03:55:50.926888 1969066752 net.cpp:165] Memory required for data: 225676320
I1204 03:55:50.926892 1969066752 layer_factory.hpp:76] Creating layer fc2
I1204 03:55:50.926928 1969066752 net.cpp:106] Creating Layer fc2
I1204 03:55:50.926933 1969066752 net.cpp:454] fc2 <- fc1
I1204 03:55:50.926941 1969066752 net.cpp:411] fc2 -> fc2
I1204 03:55:50.926966 1969066752 net.cpp:150] Setting up fc2
I1204 03:55:50.926971 1969066752 net.cpp:157] Top shape: 120 4 (480)
I1204 03:55:50.926975 1969066752 net.cpp:165] Memory required for data: 225678240
I1204 03:55:50.927002 1969066752 layer_factory.hpp:76] Creating layer out
I1204 03:55:50.927014 1969066752 net.cpp:106] Creating Layer out
I1204 03:55:50.927018 1969066752 net.cpp:454] out <- fc2
I1204 03:55:50.927024 1969066752 net.cpp:411] out -> out
I1204 03:55:50.927032 1969066752 net.cpp:150] Setting up out
I1204 03:55:50.927042 1969066752 net.cpp:157] Top shape: 120 4 (480)
I1204 03:55:50.927045 1969066752 net.cpp:165] Memory required for data: 225680160
I1204 03:55:50.927049 1969066752 layer_factory.hpp:76] Creating layer loss
I1204 03:55:50.927057 1969066752 net.cpp:106] Creating Layer loss
I1204 03:55:50.927060 1969066752 net.cpp:454] loss <- out
I1204 03:55:50.927065 1969066752 net.cpp:454] loss <- labels
I1204 03:55:50.927070 1969066752 net.cpp:411] loss -> loss
…
