…
I1211 16:31:47.124372 2039878400 solver.cpp:90] Creating training net from net file: /Users/JonathanLee/Desktop/sandbox/vision/Net/nets/net3/trainer3.prototxt
I1211 16:31:47.126179 2039878400 net.cpp:322] The NetState phase (0) differed from the phase (1) specified by a rule in layer data
I1211 16:31:47.126241 2039878400 net.cpp:49] Initializing net from parameters: 
name: "net"
state {
  phase: TRAIN
}
layer {
  name: "data"
  type: "HDF5Data"
  top: "data"
  top: "labels"
  include {
    phase: TRAIN
  }
  hdf5_data_param {
    source: "/Users/JonathanLee/Desktop/sandbox/vision/Net/hdf/train_hdf.txt"
    batch_size: 500
  }
}
layer {
  name: "conv1"
  type: "Convolution"
  bottom: "data"
  top: "conv1"
  param {
    lr_mult: 1
    decay_mult: 1
  }
  param {
    lr_mult: 2
    decay_mult: 0
  }
  convolution_param {
    num_output: 16
    kernel_size: 11
    stride: 1
    weight_filler {
      type: "xavier"
    }
    bias_filler {
      type: "constant"
      value: 0
    }
  }
}
layer {
  name: "reluConv1"
  type: "ReLU"
  bottom: "conv1"
  top: "conv1"
}
layer {
  name: "fc1"
  type: "InnerProduct"
  bottom: "conv1"
  top: "fc1"
  param {
    lr_mult: 1
    decay_mult: 1
  }
  param {
    lr_mult: 2
    decay_mult: 0
  }
  inner_product_param {
    num_output: 40
    weight_filler {
      type: "xavier"
    }
    bias_filler {
      type: "constant"
      value: 0
    }
  }
}
layer {
  name: "relu1"
  type: "ReLU"
  bottom: "fc1"
  top: "fc1"
}
layer {
  name: "fc2"
  type: "InnerProduct"
  bottom: "fc1"
  top: "fc2"
  param {
    lr_mult: 1
    decay_mult: 1
  }
  param {
    lr_mult: 2
    decay_mult: 0
  }
  inner_product_param {
    num_output: 4
    weight_filler {
      type: "xavier"
    }
    bias_filler {
      type: "constant"
      value: 0
    }
  }
}
layer {
  name: "out"
  type: "TanH"
  bottom: "fc2"
  top: "out"
}
layer {
  name: "loss"
  type: "EuclideanLoss"
  bottom: "out"
  bottom: "labels"
  top: "loss"
}
I1211 16:31:47.126754 2039878400 layer_factory.hpp:76] Creating layer data
I1211 16:31:47.126786 2039878400 net.cpp:106] Creating Layer data
I1211 16:31:47.126795 2039878400 net.cpp:411] data -> data
I1211 16:31:47.126822 2039878400 net.cpp:411] data -> labels
I1211 16:31:47.126842 2039878400 hdf5_data_layer.cpp:79] Loading list of HDF5 filenames from: /Users/JonathanLee/Desktop/sandbox/vision/Net/hdf/train_hdf.txt
I1211 16:31:47.126902 2039878400 hdf5_data_layer.cpp:93] Number of HDF5 files: 1
I1211 16:31:47.149616 2039878400 hdf5.cpp:32] Datatype class: H5T_FLOAT
I1211 16:31:47.545174 2039878400 net.cpp:150] Setting up data
I1211 16:31:47.545199 2039878400 net.cpp:157] Top shape: 500 3 125 125 (23437500)
I1211 16:31:47.545269 2039878400 net.cpp:157] Top shape: 500 4 (2000)
I1211 16:31:47.545281 2039878400 net.cpp:165] Memory required for data: 93758000
I1211 16:31:47.545291 2039878400 layer_factory.hpp:76] Creating layer conv1
I1211 16:31:47.545310 2039878400 net.cpp:106] Creating Layer conv1
I1211 16:31:47.545318 2039878400 net.cpp:454] conv1 <- data
I1211 16:31:47.545328 2039878400 net.cpp:411] conv1 -> conv1
I1211 16:31:47.551106 2039878400 net.cpp:150] Setting up conv1
I1211 16:31:47.551117 2039878400 net.cpp:157] Top shape: 500 16 115 115 (105800000)
I1211 16:31:47.551134 2039878400 net.cpp:165] Memory required for data: 516958000
I1211 16:31:47.551143 2039878400 layer_factory.hpp:76] Creating layer reluConv1
I1211 16:31:47.551153 2039878400 net.cpp:106] Creating Layer reluConv1
I1211 16:31:47.551158 2039878400 net.cpp:454] reluConv1 <- conv1
I1211 16:31:47.551163 2039878400 net.cpp:397] reluConv1 -> conv1 (in-place)
I1211 16:31:47.551170 2039878400 net.cpp:150] Setting up reluConv1
I1211 16:31:47.551174 2039878400 net.cpp:157] Top shape: 500 16 115 115 (105800000)
I1211 16:31:47.551205 2039878400 net.cpp:165] Memory required for data: 940158000
I1211 16:31:47.551213 2039878400 layer_factory.hpp:76] Creating layer fc1
I1211 16:31:47.551221 2039878400 net.cpp:106] Creating Layer fc1
I1211 16:31:47.551224 2039878400 net.cpp:454] fc1 <- conv1
I1211 16:31:47.551233 2039878400 net.cpp:411] fc1 -> fc1
I1211 16:31:47.617763 2039878400 net.cpp:150] Setting up fc1
I1211 16:31:47.617787 2039878400 net.cpp:157] Top shape: 500 40 (20000)
I1211 16:31:47.617804 2039878400 net.cpp:165] Memory required for data: 940238000
I1211 16:31:47.617878 2039878400 layer_factory.hpp:76] Creating layer relu1
I1211 16:31:47.617893 2039878400 net.cpp:106] Creating Layer relu1
I1211 16:31:47.617899 2039878400 net.cpp:454] relu1 <- fc1
I1211 16:31:47.617905 2039878400 net.cpp:397] relu1 -> fc1 (in-place)
I1211 16:31:47.617914 2039878400 net.cpp:150] Setting up relu1
I1211 16:31:47.617918 2039878400 net.cpp:157] Top shape: 500 40 (20000)
I1211 16:31:47.617923 2039878400 net.cpp:165] Memory required for data: 940318000
I1211 16:31:47.617928 2039878400 layer_factory.hpp:76] Creating layer fc2
I1211 16:31:47.617934 2039878400 net.cpp:106] Creating Layer fc2
I1211 16:31:47.617938 2039878400 net.cpp:454] fc2 <- fc1
I1211 16:31:47.617954 2039878400 net.cpp:411] fc2 -> fc2
I1211 16:31:47.617972 2039878400 net.cpp:150] Setting up fc2
I1211 16:31:47.617977 2039878400 net.cpp:157] Top shape: 500 4 (2000)
I1211 16:31:47.617991 2039878400 net.cpp:165] Memory required for data: 940326000
I1211 16:31:47.617997 2039878400 layer_factory.hpp:76] Creating layer out
I1211 16:31:47.618013 2039878400 net.cpp:106] Creating Layer out
I1211 16:31:47.618017 2039878400 net.cpp:454] out <- fc2
I1211 16:31:47.618023 2039878400 net.cpp:411] out -> out
I1211 16:31:47.618031 2039878400 net.cpp:150] Setting up out
I1211 16:31:47.618036 2039878400 net.cpp:157] Top shape: 500 4 (2000)
I1211 16:31:47.618039 2039878400 net.cpp:165] Memory required for data: 940334000
I1211 16:31:47.618044 2039878400 layer_factory.hpp:76] Creating layer loss
I1211 16:31:47.618049 2039878400 net.cpp:106] Creating Layer loss
I1211 16:31:47.618054 2039878400 net.cpp:454] loss <- out
I1211 16:31:47.618058 2039878400 net.cpp:454] loss <- labels
I1211 16:31:47.618063 2039878400 net.cpp:411] loss -> loss
…
I1211 16:31:47.618402 2039878400 solver.cpp:180] Creating test net (#0) specified by net file: /Users/JonathanLee/Desktop/sandbox/vision/Net/nets/net3/trainer3.prototxt
I1211 16:31:47.618438 2039878400 net.cpp:322] The NetState phase (1) differed from the phase (0) specified by a rule in layer data
I1211 16:31:47.618458 2039878400 net.cpp:49] Initializing net from parameters: 
name: "net"
state {
  phase: TEST
}
layer {
  name: "data"
  type: "HDF5Data"
  top: "data"
  top: "labels"
  include {
    phase: TEST
  }
  hdf5_data_param {
    source: "/Users/JonathanLee/Desktop/sandbox/vision/Net/hdf/test_hdf.txt"
    batch_size: 120
  }
}
layer {
  name: "conv1"
  type: "Convolution"
  bottom: "data"
  top: "conv1"
  param {
    lr_mult: 1
    decay_mult: 1
  }
  param {
    lr_mult: 2
    decay_mult: 0
  }
  convolution_param {
    num_output: 16
    kernel_size: 11
    stride: 1
    weight_filler {
      type: "xavier"
    }
    bias_filler {
      type: "constant"
      value: 0
    }
  }
}
layer {
  name: "reluConv1"
  type: "ReLU"
  bottom: "conv1"
  top: "conv1"
}
layer {
  name: "fc1"
  type: "InnerProduct"
  bottom: "conv1"
  top: "fc1"
  param {
    lr_mult: 1
    decay_mult: 1
  }
  param {
    lr_mult: 2
    decay_mult: 0
  }
  inner_product_param {
    num_output: 40
    weight_filler {
      type: "xavier"
    }
    bias_filler {
      type: "constant"
      value: 0
    }
  }
}
layer {
  name: "relu1"
  type: "ReLU"
  bottom: "fc1"
  top: "fc1"
}
layer {
  name: "fc2"
  type: "InnerProduct"
  bottom: "fc1"
  top: "fc2"
  param {
    lr_mult: 1
    decay_mult: 1
  }
  param {
    lr_mult: 2
    decay_mult: 0
  }
  inner_product_param {
    num_output: 4
    weight_filler {
      type: "xavier"
    }
    bias_filler {
      type: "constant"
      value: 0
    }
  }
}
layer {
  name: "out"
  type: "TanH"
  bottom: "fc2"
  top: "out"
}
layer {
  name: "loss"
  type: "EuclideanLoss"
  bottom: "out"
  bottom: "labels"
  top: "loss"
}
I1211 16:31:47.618598 2039878400 layer_factory.hpp:76] Creating layer data
I1211 16:31:47.618608 2039878400 net.cpp:106] Creating Layer data
I1211 16:31:47.618613 2039878400 net.cpp:411] data -> data
I1211 16:31:47.618620 2039878400 net.cpp:411] data -> labels
I1211 16:31:47.618628 2039878400 hdf5_data_layer.cpp:79] Loading list of HDF5 filenames from: /Users/JonathanLee/Desktop/sandbox/vision/Net/hdf/test_hdf.txt
I1211 16:31:47.618651 2039878400 hdf5_data_layer.cpp:93] Number of HDF5 files: 1
I1211 16:31:47.716207 2039878400 net.cpp:150] Setting up data
I1211 16:31:47.716234 2039878400 net.cpp:157] Top shape: 120 3 125 125 (5625000)
I1211 16:31:47.716253 2039878400 net.cpp:157] Top shape: 120 4 (480)
I1211 16:31:47.716258 2039878400 net.cpp:165] Memory required for data: 22501920
I1211 16:31:47.716264 2039878400 layer_factory.hpp:76] Creating layer conv1
I1211 16:31:47.716279 2039878400 net.cpp:106] Creating Layer conv1
I1211 16:31:47.716284 2039878400 net.cpp:454] conv1 <- data
I1211 16:31:47.716301 2039878400 net.cpp:411] conv1 -> conv1
I1211 16:31:47.716450 2039878400 net.cpp:150] Setting up conv1
I1211 16:31:47.716457 2039878400 net.cpp:157] Top shape: 120 16 115 115 (25392000)
I1211 16:31:47.716473 2039878400 net.cpp:165] Memory required for data: 124069920
I1211 16:31:47.716482 2039878400 layer_factory.hpp:76] Creating layer reluConv1
I1211 16:31:47.716490 2039878400 net.cpp:106] Creating Layer reluConv1
I1211 16:31:47.716495 2039878400 net.cpp:454] reluConv1 <- conv1
I1211 16:31:47.716500 2039878400 net.cpp:397] reluConv1 -> conv1 (in-place)
I1211 16:31:47.716506 2039878400 net.cpp:150] Setting up reluConv1
I1211 16:31:47.716509 2039878400 net.cpp:157] Top shape: 120 16 115 115 (25392000)
I1211 16:31:47.716514 2039878400 net.cpp:165] Memory required for data: 225637920
I1211 16:31:47.716518 2039878400 layer_factory.hpp:76] Creating layer fc1
I1211 16:31:47.716528 2039878400 net.cpp:106] Creating Layer fc1
I1211 16:31:47.716532 2039878400 net.cpp:454] fc1 <- conv1
I1211 16:31:47.716537 2039878400 net.cpp:411] fc1 -> fc1
I1211 16:31:47.782946 2039878400 net.cpp:150] Setting up fc1
I1211 16:31:47.782966 2039878400 net.cpp:157] Top shape: 120 40 (4800)
I1211 16:31:47.782982 2039878400 net.cpp:165] Memory required for data: 225657120
I1211 16:31:47.782991 2039878400 layer_factory.hpp:76] Creating layer relu1
I1211 16:31:47.783007 2039878400 net.cpp:106] Creating Layer relu1
I1211 16:31:47.783022 2039878400 net.cpp:454] relu1 <- fc1
I1211 16:31:47.783028 2039878400 net.cpp:397] relu1 -> fc1 (in-place)
I1211 16:31:47.783035 2039878400 net.cpp:150] Setting up relu1
I1211 16:31:47.783040 2039878400 net.cpp:157] Top shape: 120 40 (4800)
I1211 16:31:47.783043 2039878400 net.cpp:165] Memory required for data: 225676320
I1211 16:31:47.783047 2039878400 layer_factory.hpp:76] Creating layer fc2
I1211 16:31:47.783082 2039878400 net.cpp:106] Creating Layer fc2
I1211 16:31:47.783087 2039878400 net.cpp:454] fc2 <- fc1
I1211 16:31:47.783092 2039878400 net.cpp:411] fc2 -> fc2
I1211 16:31:47.783110 2039878400 net.cpp:150] Setting up fc2
I1211 16:31:47.783115 2039878400 net.cpp:157] Top shape: 120 4 (480)
I1211 16:31:47.783119 2039878400 net.cpp:165] Memory required for data: 225678240
I1211 16:31:47.783126 2039878400 layer_factory.hpp:76] Creating layer out
I1211 16:31:47.783131 2039878400 net.cpp:106] Creating Layer out
I1211 16:31:47.783135 2039878400 net.cpp:454] out <- fc2
I1211 16:31:47.783139 2039878400 net.cpp:411] out -> out
I1211 16:31:47.783145 2039878400 net.cpp:150] Setting up out
I1211 16:31:47.783149 2039878400 net.cpp:157] Top shape: 120 4 (480)
I1211 16:31:47.783154 2039878400 net.cpp:165] Memory required for data: 225680160
I1211 16:31:47.783157 2039878400 layer_factory.hpp:76] Creating layer loss
I1211 16:31:47.783162 2039878400 net.cpp:106] Creating Layer loss
I1211 16:31:47.783166 2039878400 net.cpp:454] loss <- out
I1211 16:31:47.783171 2039878400 net.cpp:454] loss <- labels
I1211 16:31:47.783179 2039878400 net.cpp:411] loss -> loss
…
