…
I1204 23:18:01.933368 1922425600 solver.cpp:90] Creating training net from net file: /Users/JonathanLee/Desktop/sandbox/vision/Net/nets/net3/trainer3.prototxt
I1204 23:18:01.933616 1922425600 net.cpp:322] The NetState phase (0) differed from the phase (1) specified by a rule in layer data
I1204 23:18:01.933642 1922425600 net.cpp:49] Initializing net from parameters: 
name: "net"
state {
  phase: TRAIN
}
layer {
  name: "data"
  type: "HDF5Data"
  top: "data"
  top: "labels"
  include {
    phase: TRAIN
  }
  hdf5_data_param {
    source: "/Users/JonathanLee/Desktop/sandbox/vision/Net/hdf/train_hdf.txt"
    batch_size: 500
  }
}
layer {
  name: "conv1"
  type: "Convolution"
  bottom: "data"
  top: "conv1"
  param {
    lr_mult: 1
    decay_mult: 1
  }
  param {
    lr_mult: 2
    decay_mult: 0
  }
  convolution_param {
    num_output: 16
    kernel_size: 11
    stride: 1
    weight_filler {
      type: "xavier"
    }
    bias_filler {
      type: "constant"
      value: 0
    }
  }
}
layer {
  name: "reluConv1"
  type: "ReLU"
  bottom: "conv1"
  top: "conv1"
}
layer {
  name: "fc1"
  type: "InnerProduct"
  bottom: "conv1"
  top: "fc1"
  param {
    lr_mult: 1
    decay_mult: 1
  }
  param {
    lr_mult: 2
    decay_mult: 0
  }
  inner_product_param {
    num_output: 40
    weight_filler {
      type: "xavier"
    }
    bias_filler {
      type: "constant"
      value: 0
    }
  }
}
layer {
  name: "relu1"
  type: "ReLU"
  bottom: "fc1"
  top: "fc1"
}
layer {
  name: "fc2"
  type: "InnerProduct"
  bottom: "fc1"
  top: "fc2"
  param {
    lr_mult: 1
    decay_mult: 1
  }
  param {
    lr_mult: 2
    decay_mult: 0
  }
  inner_product_param {
    num_output: 4
    weight_filler {
      type: "xavier"
    }
    bias_filler {
      type: "constant"
      value: 0
    }
  }
}
layer {
  name: "out"
  type: "TanH"
  bottom: "fc2"
  top: "out"
}
layer {
  name: "loss"
  type: "EuclideanLoss"
  bottom: "out"
  bottom: "labels"
  top: "loss"
}
I1204 23:18:01.933806 1922425600 layer_factory.hpp:76] Creating layer data
I1204 23:18:01.933818 1922425600 net.cpp:106] Creating Layer data
I1204 23:18:01.933823 1922425600 net.cpp:411] data -> data
I1204 23:18:01.933841 1922425600 net.cpp:411] data -> labels
I1204 23:18:01.933853 1922425600 hdf5_data_layer.cpp:79] Loading list of HDF5 filenames from: /Users/JonathanLee/Desktop/sandbox/vision/Net/hdf/train_hdf.txt
I1204 23:18:01.933882 1922425600 hdf5_data_layer.cpp:93] Number of HDF5 files: 1
I1204 23:18:01.934906 1922425600 hdf5.cpp:32] Datatype class: H5T_FLOAT
I1204 23:18:02.139766 1922425600 net.cpp:150] Setting up data
I1204 23:18:02.139803 1922425600 net.cpp:157] Top shape: 500 3 125 125 (23437500)
I1204 23:18:02.139813 1922425600 net.cpp:157] Top shape: 500 4 (2000)
I1204 23:18:02.139817 1922425600 net.cpp:165] Memory required for data: 93758000
I1204 23:18:02.139825 1922425600 layer_factory.hpp:76] Creating layer conv1
I1204 23:18:02.139837 1922425600 net.cpp:106] Creating Layer conv1
I1204 23:18:02.139853 1922425600 net.cpp:454] conv1 <- data
I1204 23:18:02.139861 1922425600 net.cpp:411] conv1 -> conv1
I1204 23:18:02.144009 1922425600 net.cpp:150] Setting up conv1
I1204 23:18:02.144016 1922425600 net.cpp:157] Top shape: 500 16 115 115 (105800000)
I1204 23:18:02.144032 1922425600 net.cpp:165] Memory required for data: 516958000
I1204 23:18:02.144039 1922425600 layer_factory.hpp:76] Creating layer reluConv1
I1204 23:18:02.144047 1922425600 net.cpp:106] Creating Layer reluConv1
I1204 23:18:02.144052 1922425600 net.cpp:454] reluConv1 <- conv1
I1204 23:18:02.144068 1922425600 net.cpp:397] reluConv1 -> conv1 (in-place)
I1204 23:18:02.144073 1922425600 net.cpp:150] Setting up reluConv1
I1204 23:18:02.144078 1922425600 net.cpp:157] Top shape: 500 16 115 115 (105800000)
I1204 23:18:02.144107 1922425600 net.cpp:165] Memory required for data: 940158000
I1204 23:18:02.144111 1922425600 layer_factory.hpp:76] Creating layer fc1
I1204 23:18:02.144119 1922425600 net.cpp:106] Creating Layer fc1
I1204 23:18:02.144124 1922425600 net.cpp:454] fc1 <- conv1
I1204 23:18:02.144132 1922425600 net.cpp:411] fc1 -> fc1
I1204 23:18:02.212201 1922425600 net.cpp:150] Setting up fc1
I1204 23:18:02.212224 1922425600 net.cpp:157] Top shape: 500 40 (20000)
I1204 23:18:02.212239 1922425600 net.cpp:165] Memory required for data: 940238000
I1204 23:18:02.212311 1922425600 layer_factory.hpp:76] Creating layer relu1
I1204 23:18:02.212327 1922425600 net.cpp:106] Creating Layer relu1
I1204 23:18:02.212332 1922425600 net.cpp:454] relu1 <- fc1
I1204 23:18:02.212337 1922425600 net.cpp:397] relu1 -> fc1 (in-place)
I1204 23:18:02.212350 1922425600 net.cpp:150] Setting up relu1
I1204 23:18:02.212355 1922425600 net.cpp:157] Top shape: 500 40 (20000)
I1204 23:18:02.212369 1922425600 net.cpp:165] Memory required for data: 940318000
I1204 23:18:02.212373 1922425600 layer_factory.hpp:76] Creating layer fc2
I1204 23:18:02.212391 1922425600 net.cpp:106] Creating Layer fc2
I1204 23:18:02.212395 1922425600 net.cpp:454] fc2 <- fc1
I1204 23:18:02.212400 1922425600 net.cpp:411] fc2 -> fc2
I1204 23:18:02.212417 1922425600 net.cpp:150] Setting up fc2
I1204 23:18:02.212421 1922425600 net.cpp:157] Top shape: 500 4 (2000)
I1204 23:18:02.212425 1922425600 net.cpp:165] Memory required for data: 940326000
I1204 23:18:02.212432 1922425600 layer_factory.hpp:76] Creating layer out
I1204 23:18:02.212440 1922425600 net.cpp:106] Creating Layer out
I1204 23:18:02.212443 1922425600 net.cpp:454] out <- fc2
I1204 23:18:02.212447 1922425600 net.cpp:411] out -> out
I1204 23:18:02.212453 1922425600 net.cpp:150] Setting up out
I1204 23:18:02.212457 1922425600 net.cpp:157] Top shape: 500 4 (2000)
I1204 23:18:02.212461 1922425600 net.cpp:165] Memory required for data: 940334000
I1204 23:18:02.212466 1922425600 layer_factory.hpp:76] Creating layer loss
I1204 23:18:02.212471 1922425600 net.cpp:106] Creating Layer loss
I1204 23:18:02.212474 1922425600 net.cpp:454] loss <- out
I1204 23:18:02.212478 1922425600 net.cpp:454] loss <- labels
I1204 23:18:02.212483 1922425600 net.cpp:411] loss -> loss
…
I1204 23:18:02.212824 1922425600 solver.cpp:180] Creating test net (#0) specified by net file: /Users/JonathanLee/Desktop/sandbox/vision/Net/nets/net3/trainer3.prototxt
I1204 23:18:02.212855 1922425600 net.cpp:322] The NetState phase (1) differed from the phase (0) specified by a rule in layer data
I1204 23:18:02.212874 1922425600 net.cpp:49] Initializing net from parameters: 
name: "net"
state {
  phase: TEST
}
layer {
  name: "data"
  type: "HDF5Data"
  top: "data"
  top: "labels"
  include {
    phase: TEST
  }
  hdf5_data_param {
    source: "/Users/JonathanLee/Desktop/sandbox/vision/Net/hdf/test_hdf.txt"
    batch_size: 120
  }
}
layer {
  name: "conv1"
  type: "Convolution"
  bottom: "data"
  top: "conv1"
  param {
    lr_mult: 1
    decay_mult: 1
  }
  param {
    lr_mult: 2
    decay_mult: 0
  }
  convolution_param {
    num_output: 16
    kernel_size: 11
    stride: 1
    weight_filler {
      type: "xavier"
    }
    bias_filler {
      type: "constant"
      value: 0
    }
  }
}
layer {
  name: "reluConv1"
  type: "ReLU"
  bottom: "conv1"
  top: "conv1"
}
layer {
  name: "fc1"
  type: "InnerProduct"
  bottom: "conv1"
  top: "fc1"
  param {
    lr_mult: 1
    decay_mult: 1
  }
  param {
    lr_mult: 2
    decay_mult: 0
  }
  inner_product_param {
    num_output: 40
    weight_filler {
      type: "xavier"
    }
    bias_filler {
      type: "constant"
      value: 0
    }
  }
}
layer {
  name: "relu1"
  type: "ReLU"
  bottom: "fc1"
  top: "fc1"
}
layer {
  name: "fc2"
  type: "InnerProduct"
  bottom: "fc1"
  top: "fc2"
  param {
    lr_mult: 1
    decay_mult: 1
  }
  param {
    lr_mult: 2
    decay_mult: 0
  }
  inner_product_param {
    num_output: 4
    weight_filler {
      type: "xavier"
    }
    bias_filler {
      type: "constant"
      value: 0
    }
  }
}
layer {
  name: "out"
  type: "TanH"
  bottom: "fc2"
  top: "out"
}
layer {
  name: "loss"
  type: "EuclideanLoss"
  bottom: "out"
  bottom: "labels"
  top: "loss"
}
I1204 23:18:02.213038 1922425600 layer_factory.hpp:76] Creating layer data
I1204 23:18:02.213047 1922425600 net.cpp:106] Creating Layer data
I1204 23:18:02.213052 1922425600 net.cpp:411] data -> data
I1204 23:18:02.213084 1922425600 net.cpp:411] data -> labels
I1204 23:18:02.213093 1922425600 hdf5_data_layer.cpp:79] Loading list of HDF5 filenames from: /Users/JonathanLee/Desktop/sandbox/vision/Net/hdf/test_hdf.txt
I1204 23:18:02.213124 1922425600 hdf5_data_layer.cpp:93] Number of HDF5 files: 1
I1204 23:18:02.267540 1922425600 net.cpp:150] Setting up data
I1204 23:18:02.267568 1922425600 net.cpp:157] Top shape: 120 3 125 125 (5625000)
I1204 23:18:02.267576 1922425600 net.cpp:157] Top shape: 120 4 (480)
I1204 23:18:02.267580 1922425600 net.cpp:165] Memory required for data: 22501920
I1204 23:18:02.267585 1922425600 layer_factory.hpp:76] Creating layer conv1
I1204 23:18:02.267596 1922425600 net.cpp:106] Creating Layer conv1
I1204 23:18:02.267601 1922425600 net.cpp:454] conv1 <- data
I1204 23:18:02.267608 1922425600 net.cpp:411] conv1 -> conv1
I1204 23:18:02.267704 1922425600 net.cpp:150] Setting up conv1
I1204 23:18:02.267709 1922425600 net.cpp:157] Top shape: 120 16 115 115 (25392000)
I1204 23:18:02.267715 1922425600 net.cpp:165] Memory required for data: 124069920
I1204 23:18:02.267760 1922425600 layer_factory.hpp:76] Creating layer reluConv1
I1204 23:18:02.267793 1922425600 net.cpp:106] Creating Layer reluConv1
I1204 23:18:02.267799 1922425600 net.cpp:454] reluConv1 <- conv1
I1204 23:18:02.267809 1922425600 net.cpp:397] reluConv1 -> conv1 (in-place)
I1204 23:18:02.267817 1922425600 net.cpp:150] Setting up reluConv1
I1204 23:18:02.267822 1922425600 net.cpp:157] Top shape: 120 16 115 115 (25392000)
I1204 23:18:02.267827 1922425600 net.cpp:165] Memory required for data: 225637920
I1204 23:18:02.267830 1922425600 layer_factory.hpp:76] Creating layer fc1
I1204 23:18:02.267838 1922425600 net.cpp:106] Creating Layer fc1
I1204 23:18:02.267841 1922425600 net.cpp:454] fc1 <- conv1
I1204 23:18:02.267849 1922425600 net.cpp:411] fc1 -> fc1
I1204 23:18:02.334625 1922425600 net.cpp:150] Setting up fc1
I1204 23:18:02.334643 1922425600 net.cpp:157] Top shape: 120 40 (4800)
I1204 23:18:02.334660 1922425600 net.cpp:165] Memory required for data: 225657120
I1204 23:18:02.334677 1922425600 layer_factory.hpp:76] Creating layer relu1
I1204 23:18:02.334688 1922425600 net.cpp:106] Creating Layer relu1
I1204 23:18:02.334704 1922425600 net.cpp:454] relu1 <- fc1
I1204 23:18:02.334753 1922425600 net.cpp:397] relu1 -> fc1 (in-place)
I1204 23:18:02.334769 1922425600 net.cpp:150] Setting up relu1
I1204 23:18:02.334774 1922425600 net.cpp:157] Top shape: 120 40 (4800)
I1204 23:18:02.334779 1922425600 net.cpp:165] Memory required for data: 225676320
I1204 23:18:02.334782 1922425600 layer_factory.hpp:76] Creating layer fc2
I1204 23:18:02.334820 1922425600 net.cpp:106] Creating Layer fc2
I1204 23:18:02.334823 1922425600 net.cpp:454] fc2 <- fc1
I1204 23:18:02.334830 1922425600 net.cpp:411] fc2 -> fc2
I1204 23:18:02.334856 1922425600 net.cpp:150] Setting up fc2
I1204 23:18:02.334861 1922425600 net.cpp:157] Top shape: 120 4 (480)
I1204 23:18:02.334866 1922425600 net.cpp:165] Memory required for data: 225678240
I1204 23:18:02.334872 1922425600 layer_factory.hpp:76] Creating layer out
I1204 23:18:02.334879 1922425600 net.cpp:106] Creating Layer out
I1204 23:18:02.334883 1922425600 net.cpp:454] out <- fc2
I1204 23:18:02.334887 1922425600 net.cpp:411] out -> out
I1204 23:18:02.334893 1922425600 net.cpp:150] Setting up out
I1204 23:18:02.334897 1922425600 net.cpp:157] Top shape: 120 4 (480)
I1204 23:18:02.334902 1922425600 net.cpp:165] Memory required for data: 225680160
I1204 23:18:02.334904 1922425600 layer_factory.hpp:76] Creating layer loss
I1204 23:18:02.334913 1922425600 net.cpp:106] Creating Layer loss
I1204 23:18:02.334916 1922425600 net.cpp:454] loss <- out
I1204 23:18:02.334920 1922425600 net.cpp:454] loss <- labels
I1204 23:18:02.334925 1922425600 net.cpp:411] loss -> loss
…
