…
I1203 11:16:20.524158 1969066752 solver.cpp:90] Creating training net from net file: /Users/JonathanLee/Desktop/sandbox/vision/Net/trainer.prototxt
I1203 11:16:20.524411 1969066752 net.cpp:322] The NetState phase (0) differed from the phase (1) specified by a rule in layer data
I1203 11:16:20.524437 1969066752 net.cpp:49] Initializing net from parameters: 
name: "net"
state {
  phase: TRAIN
}
layer {
  name: "data"
  type: "HDF5Data"
  top: "data"
  top: "labels"
  include {
    phase: TRAIN
  }
  hdf5_data_param {
    source: "/Users/JonathanLee/Desktop/sandbox/vision/Net/hdf/train_hdf.txt"
    batch_size: 450
  }
}
layer {
  name: "conv1"
  type: "Convolution"
  bottom: "data"
  top: "conv1"
  param {
    lr_mult: 1
    decay_mult: 1
  }
  param {
    lr_mult: 2
    decay_mult: 0
  }
  convolution_param {
    num_output: 16
    kernel_size: 11
    stride: 1
    weight_filler {
      type: "xavier"
    }
    bias_filler {
      type: "constant"
      value: 0
    }
  }
}
layer {
  name: "reluConv"
  type: "ReLU"
  bottom: "conv1"
  top: "conv1"
}
layer {
  name: "conv2"
  type: "Convolution"
  bottom: "conv1"
  top: "conv2"
  param {
    lr_mult: 1
    decay_mult: 1
  }
  param {
    lr_mult: 2
    decay_mult: 0
  }
  convolution_param {
    num_output: 16
    kernel_size: 11
    stride: 2
    weight_filler {
      type: "xavier"
    }
    bias_filler {
      type: "constant"
      value: 0
    }
  }
}
layer {
  name: "fc1"
  type: "InnerProduct"
  bottom: "conv2"
  top: "fc1"
  param {
    lr_mult: 1
    decay_mult: 1
  }
  param {
    lr_mult: 2
    decay_mult: 0
  }
  inner_product_param {
    num_output: 40
    weight_filler {
      type: "xavier"
    }
    bias_filler {
      type: "constant"
      value: 0
    }
  }
}
layer {
  name: "relu1"
  type: "ReLU"
  bottom: "fc1"
  top: "relu1"
}
layer {
  name: "fc2"
  type: "InnerProduct"
  bottom: "relu1"
  top: "fc2"
  param {
    lr_mult: 1
    decay_mult: 1
  }
  param {
    lr_mult: 2
    decay_mult: 0
  }
  inner_product_param {
    num_output: 4
    weight_filler {
      type: "xavier"
    }
    bias_filler {
      type: "constant"
      value: 0
    }
  }
}
layer {
  name: "tanh"
  type: "TanH"
  bottom: "fc2"
  top: "tanh"
}
layer {
  name: "loss"
  type: "EuclideanLoss"
  bottom: "tanh"
  bottom: "labels"
  top: "loss"
}
I1203 11:16:20.524603 1969066752 layer_factory.hpp:76] Creating layer data
I1203 11:16:20.524616 1969066752 net.cpp:106] Creating Layer data
I1203 11:16:20.524621 1969066752 net.cpp:411] data -> data
I1203 11:16:20.524639 1969066752 net.cpp:411] data -> labels
I1203 11:16:20.524652 1969066752 hdf5_data_layer.cpp:79] Loading list of HDF5 filenames from: /Users/JonathanLee/Desktop/sandbox/vision/Net/hdf/train_hdf.txt
I1203 11:16:20.524690 1969066752 hdf5_data_layer.cpp:93] Number of HDF5 files: 1
I1203 11:16:20.525704 1969066752 hdf5.cpp:32] Datatype class: H5T_FLOAT
I1203 11:16:21.333613 1969066752 net.cpp:150] Setting up data
I1203 11:16:21.333652 1969066752 net.cpp:157] Top shape: 450 3 250 250 (84375000)
I1203 11:16:21.333660 1969066752 net.cpp:157] Top shape: 450 4 (1800)
I1203 11:16:21.333664 1969066752 net.cpp:165] Memory required for data: 337507200
I1203 11:16:21.333673 1969066752 layer_factory.hpp:76] Creating layer conv1
I1203 11:16:21.333683 1969066752 net.cpp:106] Creating Layer conv1
I1203 11:16:21.333701 1969066752 net.cpp:454] conv1 <- data
I1203 11:16:21.333731 1969066752 net.cpp:411] conv1 -> conv1
I1203 11:16:21.338119 1969066752 net.cpp:150] Setting up conv1
I1203 11:16:21.338129 1969066752 net.cpp:157] Top shape: 450 16 240 240 (414720000)
I1203 11:16:21.338145 1969066752 net.cpp:165] Memory required for data: 1996387200
I1203 11:16:21.338152 1969066752 layer_factory.hpp:76] Creating layer reluConv
I1203 11:16:21.338196 1969066752 net.cpp:106] Creating Layer reluConv
I1203 11:16:21.338201 1969066752 net.cpp:454] reluConv <- conv1
I1203 11:16:21.338207 1969066752 net.cpp:397] reluConv -> conv1 (in-place)
I1203 11:16:21.338214 1969066752 net.cpp:150] Setting up reluConv
I1203 11:16:21.338218 1969066752 net.cpp:157] Top shape: 450 16 240 240 (414720000)
I1203 11:16:21.338223 1969066752 net.cpp:165] Memory required for data: 3655267200
I1203 11:16:21.338227 1969066752 layer_factory.hpp:76] Creating layer conv2
I1203 11:16:21.338233 1969066752 net.cpp:106] Creating Layer conv2
I1203 11:16:21.338238 1969066752 net.cpp:454] conv2 <- conv1
I1203 11:16:21.338243 1969066752 net.cpp:411] conv2 -> conv2
I1203 11:16:21.338502 1969066752 net.cpp:150] Setting up conv2
I1203 11:16:21.338507 1969066752 net.cpp:157] Top shape: 450 16 115 115 (95220000)
I1203 11:16:21.338522 1969066752 net.cpp:165] Memory required for data: 4036147200
I1203 11:16:21.338529 1969066752 layer_factory.hpp:76] Creating layer fc1
I1203 11:16:21.338536 1969066752 net.cpp:106] Creating Layer fc1
I1203 11:16:21.338551 1969066752 net.cpp:454] fc1 <- conv2
I1203 11:16:21.338556 1969066752 net.cpp:411] fc1 -> fc1
I1203 11:16:21.412072 1969066752 net.cpp:150] Setting up fc1
I1203 11:16:21.412097 1969066752 net.cpp:157] Top shape: 450 40 (18000)
I1203 11:16:21.412104 1969066752 net.cpp:165] Memory required for data: 4036219200
I1203 11:16:21.412116 1969066752 layer_factory.hpp:76] Creating layer relu1
I1203 11:16:21.412128 1969066752 net.cpp:106] Creating Layer relu1
I1203 11:16:21.412133 1969066752 net.cpp:454] relu1 <- fc1
I1203 11:16:21.412140 1969066752 net.cpp:411] relu1 -> relu1
I1203 11:16:21.412150 1969066752 net.cpp:150] Setting up relu1
I1203 11:16:21.412154 1969066752 net.cpp:157] Top shape: 450 40 (18000)
I1203 11:16:21.412158 1969066752 net.cpp:165] Memory required for data: 4036291200
I1203 11:16:21.412163 1969066752 layer_factory.hpp:76] Creating layer fc2
I1203 11:16:21.412169 1969066752 net.cpp:106] Creating Layer fc2
I1203 11:16:21.412174 1969066752 net.cpp:454] fc2 <- relu1
I1203 11:16:21.412180 1969066752 net.cpp:411] fc2 -> fc2
I1203 11:16:21.412200 1969066752 net.cpp:150] Setting up fc2
I1203 11:16:21.412204 1969066752 net.cpp:157] Top shape: 450 4 (1800)
I1203 11:16:21.412209 1969066752 net.cpp:165] Memory required for data: 4036298400
I1203 11:16:21.412214 1969066752 layer_factory.hpp:76] Creating layer tanh
I1203 11:16:21.412220 1969066752 net.cpp:106] Creating Layer tanh
I1203 11:16:21.412223 1969066752 net.cpp:454] tanh <- fc2
I1203 11:16:21.412228 1969066752 net.cpp:411] tanh -> tanh
I1203 11:16:21.412235 1969066752 net.cpp:150] Setting up tanh
I1203 11:16:21.412238 1969066752 net.cpp:157] Top shape: 450 4 (1800)
I1203 11:16:21.412243 1969066752 net.cpp:165] Memory required for data: 4036305600
I1203 11:16:21.412246 1969066752 layer_factory.hpp:76] Creating layer loss
I1203 11:16:21.412253 1969066752 net.cpp:106] Creating Layer loss
I1203 11:16:21.412258 1969066752 net.cpp:454] loss <- tanh
I1203 11:16:21.412262 1969066752 net.cpp:454] loss <- labels
I1203 11:16:21.412271 1969066752 net.cpp:411] loss -> loss
…
I1203 11:16:21.412600 1969066752 solver.cpp:180] Creating test net (#0) specified by net file: /Users/JonathanLee/Desktop/sandbox/vision/Net/trainer.prototxt
I1203 11:16:21.412629 1969066752 net.cpp:322] The NetState phase (1) differed from the phase (0) specified by a rule in layer data
I1203 11:16:21.412641 1969066752 net.cpp:49] Initializing net from parameters: 
name: "net"
state {
  phase: TEST
}
layer {
  name: "data"
  type: "HDF5Data"
  top: "data"
  top: "labels"
  include {
    phase: TEST
  }
  hdf5_data_param {
    source: "/Users/JonathanLee/Desktop/sandbox/vision/Net/hdf/test_hdf.txt"
    batch_size: 120
  }
}
layer {
  name: "conv1"
  type: "Convolution"
  bottom: "data"
  top: "conv1"
  param {
    lr_mult: 1
    decay_mult: 1
  }
  param {
    lr_mult: 2
    decay_mult: 0
  }
  convolution_param {
    num_output: 16
    kernel_size: 11
    stride: 1
    weight_filler {
      type: "xavier"
    }
    bias_filler {
      type: "constant"
      value: 0
    }
  }
}
layer {
  name: "reluConv"
  type: "ReLU"
  bottom: "conv1"
  top: "conv1"
}
layer {
  name: "conv2"
  type: "Convolution"
  bottom: "conv1"
  top: "conv2"
  param {
    lr_mult: 1
    decay_mult: 1
  }
  param {
    lr_mult: 2
    decay_mult: 0
  }
  convolution_param {
    num_output: 16
    kernel_size: 11
    stride: 2
    weight_filler {
      type: "xavier"
    }
    bias_filler {
      type: "constant"
      value: 0
    }
  }
}
layer {
  name: "fc1"
  type: "InnerProduct"
  bottom: "conv2"
  top: "fc1"
  param {
    lr_mult: 1
    decay_mult: 1
  }
  param {
    lr_mult: 2
    decay_mult: 0
  }
  inner_product_param {
    num_output: 40
    weight_filler {
      type: "xavier"
    }
    bias_filler {
      type: "constant"
      value: 0
    }
  }
}
layer {
  name: "relu1"
  type: "ReLU"
  bottom: "fc1"
  top: "relu1"
}
layer {
  name: "fc2"
  type: "InnerProduct"
  bottom: "relu1"
  top: "fc2"
  param {
    lr_mult: 1
    decay_mult: 1
  }
  param {
    lr_mult: 2
    decay_mult: 0
  }
  inner_product_param {
    num_output: 4
    weight_filler {
      type: "xavier"
    }
    bias_filler {
      type: "constant"
      value: 0
    }
  }
}
layer {
  name: "tanh"
  type: "TanH"
  bottom: "fc2"
  top: "tanh"
}
layer {
  name: "loss"
  type: "EuclideanLoss"
  bottom: "tanh"
  bottom: "labels"
  top: "loss"
}
I1203 11:16:21.412766 1969066752 layer_factory.hpp:76] Creating layer data
I1203 11:16:21.412775 1969066752 net.cpp:106] Creating Layer data
I1203 11:16:21.412782 1969066752 net.cpp:411] data -> data
I1203 11:16:21.412791 1969066752 net.cpp:411] data -> labels
I1203 11:16:21.412797 1969066752 hdf5_data_layer.cpp:79] Loading list of HDF5 filenames from: /Users/JonathanLee/Desktop/sandbox/vision/Net/hdf/test_hdf.txt
I1203 11:16:21.412845 1969066752 hdf5_data_layer.cpp:93] Number of HDF5 files: 1
I1203 11:16:21.634367 1969066752 net.cpp:150] Setting up data
I1203 11:16:21.634389 1969066752 net.cpp:157] Top shape: 120 3 250 250 (22500000)
I1203 11:16:21.634407 1969066752 net.cpp:157] Top shape: 120 4 (480)
I1203 11:16:21.634413 1969066752 net.cpp:165] Memory required for data: 90001920
I1203 11:16:21.634418 1969066752 layer_factory.hpp:76] Creating layer conv1
I1203 11:16:21.634428 1969066752 net.cpp:106] Creating Layer conv1
I1203 11:16:21.634433 1969066752 net.cpp:454] conv1 <- data
I1203 11:16:21.634450 1969066752 net.cpp:411] conv1 -> conv1
I1203 11:16:21.634747 1969066752 net.cpp:150] Setting up conv1
I1203 11:16:21.634758 1969066752 net.cpp:157] Top shape: 120 16 240 240 (110592000)
I1203 11:16:21.634774 1969066752 net.cpp:165] Memory required for data: 532369920
I1203 11:16:21.634793 1969066752 layer_factory.hpp:76] Creating layer reluConv
I1203 11:16:21.634812 1969066752 net.cpp:106] Creating Layer reluConv
I1203 11:16:21.634817 1969066752 net.cpp:454] reluConv <- conv1
I1203 11:16:21.634822 1969066752 net.cpp:397] reluConv -> conv1 (in-place)
I1203 11:16:21.634857 1969066752 net.cpp:150] Setting up reluConv
I1203 11:16:21.634861 1969066752 net.cpp:157] Top shape: 120 16 240 240 (110592000)
I1203 11:16:21.634867 1969066752 net.cpp:165] Memory required for data: 974737920
I1203 11:16:21.634871 1969066752 layer_factory.hpp:76] Creating layer conv2
I1203 11:16:21.634879 1969066752 net.cpp:106] Creating Layer conv2
I1203 11:16:21.634883 1969066752 net.cpp:454] conv2 <- conv1
I1203 11:16:21.634888 1969066752 net.cpp:411] conv2 -> conv2
I1203 11:16:21.635213 1969066752 net.cpp:150] Setting up conv2
I1203 11:16:21.635218 1969066752 net.cpp:157] Top shape: 120 16 115 115 (25392000)
I1203 11:16:21.635234 1969066752 net.cpp:165] Memory required for data: 1076305920
I1203 11:16:21.635241 1969066752 layer_factory.hpp:76] Creating layer fc1
I1203 11:16:21.635247 1969066752 net.cpp:106] Creating Layer fc1
I1203 11:16:21.635262 1969066752 net.cpp:454] fc1 <- conv2
I1203 11:16:21.635267 1969066752 net.cpp:411] fc1 -> fc1
I1203 11:16:21.700271 1969066752 net.cpp:150] Setting up fc1
I1203 11:16:21.700291 1969066752 net.cpp:157] Top shape: 120 40 (4800)
I1203 11:16:21.700307 1969066752 net.cpp:165] Memory required for data: 1076325120
I1203 11:16:21.700381 1969066752 layer_factory.hpp:76] Creating layer relu1
I1203 11:16:21.700394 1969066752 net.cpp:106] Creating Layer relu1
I1203 11:16:21.700400 1969066752 net.cpp:454] relu1 <- fc1
I1203 11:16:21.700405 1969066752 net.cpp:411] relu1 -> relu1
I1203 11:16:21.700415 1969066752 net.cpp:150] Setting up relu1
I1203 11:16:21.700418 1969066752 net.cpp:157] Top shape: 120 40 (4800)
I1203 11:16:21.700423 1969066752 net.cpp:165] Memory required for data: 1076344320
I1203 11:16:21.700426 1969066752 layer_factory.hpp:76] Creating layer fc2
I1203 11:16:21.700438 1969066752 net.cpp:106] Creating Layer fc2
I1203 11:16:21.700443 1969066752 net.cpp:454] fc2 <- relu1
I1203 11:16:21.700448 1969066752 net.cpp:411] fc2 -> fc2
I1203 11:16:21.700464 1969066752 net.cpp:150] Setting up fc2
I1203 11:16:21.700467 1969066752 net.cpp:157] Top shape: 120 4 (480)
I1203 11:16:21.700471 1969066752 net.cpp:165] Memory required for data: 1076346240
I1203 11:16:21.700476 1969066752 layer_factory.hpp:76] Creating layer tanh
I1203 11:16:21.700484 1969066752 net.cpp:106] Creating Layer tanh
I1203 11:16:21.700486 1969066752 net.cpp:454] tanh <- fc2
I1203 11:16:21.700491 1969066752 net.cpp:411] tanh -> tanh
I1203 11:16:21.700496 1969066752 net.cpp:150] Setting up tanh
I1203 11:16:21.700500 1969066752 net.cpp:157] Top shape: 120 4 (480)
I1203 11:16:21.700505 1969066752 net.cpp:165] Memory required for data: 1076348160
I1203 11:16:21.700507 1969066752 layer_factory.hpp:76] Creating layer loss
I1203 11:16:21.700513 1969066752 net.cpp:106] Creating Layer loss
I1203 11:16:21.700516 1969066752 net.cpp:454] loss <- tanh
I1203 11:16:21.700531 1969066752 net.cpp:454] loss <- labels
I1203 11:16:21.700534 1969066752 net.cpp:411] loss -> loss
…
