…
I1201 21:49:41.219820 1969066752 solver.cpp:90] Creating training net from net file: /Users/JonathanLee/Desktop/sandbox/vision/Net/trainer.prototxt
I1201 21:49:41.220074 1969066752 net.cpp:322] The NetState phase (0) differed from the phase (1) specified by a rule in layer data
I1201 21:49:41.220094 1969066752 net.cpp:49] Initializing net from parameters: 
name: "net"
state {
  phase: TRAIN
}
layer {
  name: "data"
  type: "HDF5Data"
  top: "data"
  top: "labels"
  include {
    phase: TRAIN
  }
  hdf5_data_param {
    source: "/Users/JonathanLee/Desktop/sandbox/vision/Net/hdf/train_hdf.txt"
    batch_size: 200
  }
}
layer {
  name: "conv1"
  type: "Convolution"
  bottom: "data"
  top: "conv1"
  param {
    lr_mult: 1
    decay_mult: 1
  }
  param {
    lr_mult: 2
    decay_mult: 0
  }
  convolution_param {
    num_output: 16
    kernel_size: 11
    stride: 1
    weight_filler {
      type: "xavier"
    }
    bias_filler {
      type: "constant"
      value: 0
    }
  }
}
layer {
  name: "reluConv"
  type: "ReLU"
  bottom: "conv1"
  top: "conv1"
}
layer {
  name: "conv2"
  type: "Convolution"
  bottom: "conv1"
  top: "conv2"
  param {
    lr_mult: 1
    decay_mult: 1
  }
  param {
    lr_mult: 2
    decay_mult: 0
  }
  convolution_param {
    num_output: 16
    kernel_size: 11
    stride: 2
    weight_filler {
      type: "xavier"
    }
    bias_filler {
      type: "constant"
      value: 0
    }
  }
}
layer {
  name: "fc1"
  type: "InnerProduct"
  bottom: "conv2"
  top: "fc1"
  param {
    lr_mult: 1
    decay_mult: 1
  }
  param {
    lr_mult: 2
    decay_mult: 0
  }
  inner_product_param {
    num_output: 40
    weight_filler {
      type: "xavier"
    }
    bias_filler {
      type: "constant"
      value: 0
    }
  }
}
layer {
  name: "relu1"
  type: "ReLU"
  bottom: "fc1"
  top: "relu1"
}
layer {
  name: "fc2"
  type: "InnerProduct"
  bottom: "relu1"
  top: "fc2"
  param {
    lr_mult: 1
    decay_mult: 1
  }
  param {
    lr_mult: 2
    decay_mult: 0
  }
  inner_product_param {
    num_output: 4
    weight_filler {
      type: "xavier"
    }
    bias_filler {
      type: "constant"
      value: 0
    }
  }
}
layer {
  name: "tanh"
  type: "TanH"
  bottom: "fc2"
  top: "tanh"
}
layer {
  name: "loss"
  type: "EuclideanLoss"
  bottom: "tanh"
  bottom: "labels"
  top: "loss"
}
I1201 21:49:41.220250 1969066752 layer_factory.hpp:76] Creating layer data
I1201 21:49:41.220264 1969066752 net.cpp:106] Creating Layer data
I1201 21:49:41.220271 1969066752 net.cpp:411] data -> data
I1201 21:49:41.220291 1969066752 net.cpp:411] data -> labels
I1201 21:49:41.220305 1969066752 hdf5_data_layer.cpp:79] Loading list of HDF5 filenames from: /Users/JonathanLee/Desktop/sandbox/vision/Net/hdf/train_hdf.txt
I1201 21:49:41.220353 1969066752 hdf5_data_layer.cpp:93] Number of HDF5 files: 1
I1201 21:49:41.221360 1969066752 hdf5.cpp:32] Datatype class: H5T_FLOAT
I1201 21:49:41.631970 1969066752 net.cpp:150] Setting up data
I1201 21:49:41.632006 1969066752 net.cpp:157] Top shape: 200 3 250 250 (37500000)
I1201 21:49:41.632021 1969066752 net.cpp:157] Top shape: 200 4 (800)
I1201 21:49:41.632025 1969066752 net.cpp:165] Memory required for data: 150003200
I1201 21:49:41.632033 1969066752 layer_factory.hpp:76] Creating layer conv1
I1201 21:49:41.632055 1969066752 net.cpp:106] Creating Layer conv1
I1201 21:49:41.632061 1969066752 net.cpp:454] conv1 <- data
I1201 21:49:41.632069 1969066752 net.cpp:411] conv1 -> conv1
I1201 21:49:41.636576 1969066752 net.cpp:150] Setting up conv1
I1201 21:49:41.636586 1969066752 net.cpp:157] Top shape: 200 16 240 240 (184320000)
I1201 21:49:41.636602 1969066752 net.cpp:165] Memory required for data: 887283200
I1201 21:49:41.636634 1969066752 layer_factory.hpp:76] Creating layer reluConv
I1201 21:49:41.636694 1969066752 net.cpp:106] Creating Layer reluConv
I1201 21:49:41.636700 1969066752 net.cpp:454] reluConv <- conv1
I1201 21:49:41.636705 1969066752 net.cpp:397] reluConv -> conv1 (in-place)
I1201 21:49:41.636719 1969066752 net.cpp:150] Setting up reluConv
I1201 21:49:41.636725 1969066752 net.cpp:157] Top shape: 200 16 240 240 (184320000)
I1201 21:49:41.636731 1969066752 net.cpp:165] Memory required for data: 1624563200
I1201 21:49:41.636735 1969066752 layer_factory.hpp:76] Creating layer conv2
I1201 21:49:41.636742 1969066752 net.cpp:106] Creating Layer conv2
I1201 21:49:41.636747 1969066752 net.cpp:454] conv2 <- conv1
I1201 21:49:41.636756 1969066752 net.cpp:411] conv2 -> conv2
I1201 21:49:41.637132 1969066752 net.cpp:150] Setting up conv2
I1201 21:49:41.637140 1969066752 net.cpp:157] Top shape: 200 16 115 115 (42320000)
I1201 21:49:41.637156 1969066752 net.cpp:165] Memory required for data: 1793843200
I1201 21:49:41.637169 1969066752 layer_factory.hpp:76] Creating layer fc1
I1201 21:49:41.637190 1969066752 net.cpp:106] Creating Layer fc1
I1201 21:49:41.637194 1969066752 net.cpp:454] fc1 <- conv2
I1201 21:49:41.637200 1969066752 net.cpp:411] fc1 -> fc1
I1201 21:49:41.704639 1969066752 net.cpp:150] Setting up fc1
I1201 21:49:41.704663 1969066752 net.cpp:157] Top shape: 200 40 (8000)
I1201 21:49:41.704679 1969066752 net.cpp:165] Memory required for data: 1793875200
I1201 21:49:41.704690 1969066752 layer_factory.hpp:76] Creating layer relu1
I1201 21:49:41.704699 1969066752 net.cpp:106] Creating Layer relu1
I1201 21:49:41.704704 1969066752 net.cpp:454] relu1 <- fc1
I1201 21:49:41.704723 1969066752 net.cpp:411] relu1 -> relu1
I1201 21:49:41.704732 1969066752 net.cpp:150] Setting up relu1
I1201 21:49:41.704735 1969066752 net.cpp:157] Top shape: 200 40 (8000)
I1201 21:49:41.704741 1969066752 net.cpp:165] Memory required for data: 1793907200
I1201 21:49:41.704743 1969066752 layer_factory.hpp:76] Creating layer fc2
I1201 21:49:41.704751 1969066752 net.cpp:106] Creating Layer fc2
I1201 21:49:41.704756 1969066752 net.cpp:454] fc2 <- relu1
I1201 21:49:41.704761 1969066752 net.cpp:411] fc2 -> fc2
I1201 21:49:41.704777 1969066752 net.cpp:150] Setting up fc2
I1201 21:49:41.704780 1969066752 net.cpp:157] Top shape: 200 4 (800)
I1201 21:49:41.704785 1969066752 net.cpp:165] Memory required for data: 1793910400
I1201 21:49:41.704789 1969066752 layer_factory.hpp:76] Creating layer tanh
I1201 21:49:41.704795 1969066752 net.cpp:106] Creating Layer tanh
I1201 21:49:41.704798 1969066752 net.cpp:454] tanh <- fc2
I1201 21:49:41.704803 1969066752 net.cpp:411] tanh -> tanh
I1201 21:49:41.704808 1969066752 net.cpp:150] Setting up tanh
I1201 21:49:41.704813 1969066752 net.cpp:157] Top shape: 200 4 (800)
I1201 21:49:41.704818 1969066752 net.cpp:165] Memory required for data: 1793913600
I1201 21:49:41.704834 1969066752 layer_factory.hpp:76] Creating layer loss
I1201 21:49:41.704843 1969066752 net.cpp:106] Creating Layer loss
I1201 21:49:41.704848 1969066752 net.cpp:454] loss <- tanh
I1201 21:49:41.704851 1969066752 net.cpp:454] loss <- labels
I1201 21:49:41.704859 1969066752 net.cpp:411] loss -> loss
…
I1201 21:49:41.705181 1969066752 solver.cpp:180] Creating test net (#0) specified by net file: /Users/JonathanLee/Desktop/sandbox/vision/Net/trainer.prototxt
I1201 21:49:41.705207 1969066752 net.cpp:322] The NetState phase (1) differed from the phase (0) specified by a rule in layer data
I1201 21:49:41.705219 1969066752 net.cpp:49] Initializing net from parameters: 
name: "net"
state {
  phase: TEST
}
layer {
  name: "data"
  type: "HDF5Data"
  top: "data"
  top: "labels"
  include {
    phase: TEST
  }
  hdf5_data_param {
    source: "/Users/JonathanLee/Desktop/sandbox/vision/Net/hdf/test_hdf.txt"
    batch_size: 50
  }
}
layer {
  name: "conv1"
  type: "Convolution"
  bottom: "data"
  top: "conv1"
  param {
    lr_mult: 1
    decay_mult: 1
  }
  param {
    lr_mult: 2
    decay_mult: 0
  }
  convolution_param {
    num_output: 16
    kernel_size: 11
    stride: 1
    weight_filler {
      type: "xavier"
    }
    bias_filler {
      type: "constant"
      value: 0
    }
  }
}
layer {
  name: "reluConv"
  type: "ReLU"
  bottom: "conv1"
  top: "conv1"
}
layer {
  name: "conv2"
  type: "Convolution"
  bottom: "conv1"
  top: "conv2"
  param {
    lr_mult: 1
    decay_mult: 1
  }
  param {
    lr_mult: 2
    decay_mult: 0
  }
  convolution_param {
    num_output: 16
    kernel_size: 11
    stride: 2
    weight_filler {
      type: "xavier"
    }
    bias_filler {
      type: "constant"
      value: 0
    }
  }
}
layer {
  name: "fc1"
  type: "InnerProduct"
  bottom: "conv2"
  top: "fc1"
  param {
    lr_mult: 1
    decay_mult: 1
  }
  param {
    lr_mult: 2
    decay_mult: 0
  }
  inner_product_param {
    num_output: 40
    weight_filler {
      type: "xavier"
    }
    bias_filler {
      type: "constant"
      value: 0
    }
  }
}
layer {
  name: "relu1"
  type: "ReLU"
  bottom: "fc1"
  top: "relu1"
}
layer {
  name: "fc2"
  type: "InnerProduct"
  bottom: "relu1"
  top: "fc2"
  param {
    lr_mult: 1
    decay_mult: 1
  }
  param {
    lr_mult: 2
    decay_mult: 0
  }
  inner_product_param {
    num_output: 4
    weight_filler {
      type: "xavier"
    }
    bias_filler {
      type: "constant"
      value: 0
    }
  }
}
layer {
  name: "tanh"
  type: "TanH"
  bottom: "fc2"
  top: "tanh"
}
layer {
  name: "loss"
  type: "EuclideanLoss"
  bottom: "tanh"
  bottom: "labels"
  top: "loss"
}
I1201 21:49:41.705338 1969066752 layer_factory.hpp:76] Creating layer data
I1201 21:49:41.705345 1969066752 net.cpp:106] Creating Layer data
I1201 21:49:41.705351 1969066752 net.cpp:411] data -> data
I1201 21:49:41.705359 1969066752 net.cpp:411] data -> labels
I1201 21:49:41.705366 1969066752 hdf5_data_layer.cpp:79] Loading list of HDF5 filenames from: /Users/JonathanLee/Desktop/sandbox/vision/Net/hdf/test_hdf.txt
I1201 21:49:41.705396 1969066752 hdf5_data_layer.cpp:93] Number of HDF5 files: 1
I1201 21:49:41.784278 1969066752 net.cpp:150] Setting up data
I1201 21:49:41.784301 1969066752 net.cpp:157] Top shape: 50 3 250 250 (9375000)
I1201 21:49:41.784318 1969066752 net.cpp:157] Top shape: 50 4 (200)
I1201 21:49:41.784322 1969066752 net.cpp:165] Memory required for data: 37500800
I1201 21:49:41.784328 1969066752 layer_factory.hpp:76] Creating layer conv1
I1201 21:49:41.784339 1969066752 net.cpp:106] Creating Layer conv1
I1201 21:49:41.784343 1969066752 net.cpp:454] conv1 <- data
I1201 21:49:41.784380 1969066752 net.cpp:411] conv1 -> conv1
I1201 21:49:41.784626 1969066752 net.cpp:150] Setting up conv1
I1201 21:49:41.784633 1969066752 net.cpp:157] Top shape: 50 16 240 240 (46080000)
I1201 21:49:41.784646 1969066752 net.cpp:165] Memory required for data: 221820800
I1201 21:49:41.784657 1969066752 layer_factory.hpp:76] Creating layer reluConv
I1201 21:49:41.784667 1969066752 net.cpp:106] Creating Layer reluConv
I1201 21:49:41.784672 1969066752 net.cpp:454] reluConv <- conv1
I1201 21:49:41.784675 1969066752 net.cpp:397] reluConv -> conv1 (in-place)
I1201 21:49:41.784705 1969066752 net.cpp:150] Setting up reluConv
I1201 21:49:41.784710 1969066752 net.cpp:157] Top shape: 50 16 240 240 (46080000)
I1201 21:49:41.784715 1969066752 net.cpp:165] Memory required for data: 406140800
I1201 21:49:41.784719 1969066752 layer_factory.hpp:76] Creating layer conv2
I1201 21:49:41.784726 1969066752 net.cpp:106] Creating Layer conv2
I1201 21:49:41.784730 1969066752 net.cpp:454] conv2 <- conv1
I1201 21:49:41.784735 1969066752 net.cpp:411] conv2 -> conv2
I1201 21:49:41.785061 1969066752 net.cpp:150] Setting up conv2
I1201 21:49:41.785066 1969066752 net.cpp:157] Top shape: 50 16 115 115 (10580000)
I1201 21:49:41.785081 1969066752 net.cpp:165] Memory required for data: 448460800
I1201 21:49:41.785087 1969066752 layer_factory.hpp:76] Creating layer fc1
I1201 21:49:41.785094 1969066752 net.cpp:106] Creating Layer fc1
I1201 21:49:41.785109 1969066752 net.cpp:454] fc1 <- conv2
I1201 21:49:41.785115 1969066752 net.cpp:411] fc1 -> fc1
I1201 21:49:41.850800 1969066752 net.cpp:150] Setting up fc1
I1201 21:49:41.850817 1969066752 net.cpp:157] Top shape: 50 40 (2000)
I1201 21:49:41.850833 1969066752 net.cpp:165] Memory required for data: 448468800
I1201 21:49:41.850841 1969066752 layer_factory.hpp:76] Creating layer relu1
I1201 21:49:41.850849 1969066752 net.cpp:106] Creating Layer relu1
I1201 21:49:41.850854 1969066752 net.cpp:454] relu1 <- fc1
I1201 21:49:41.850859 1969066752 net.cpp:411] relu1 -> relu1
I1201 21:49:41.850878 1969066752 net.cpp:150] Setting up relu1
I1201 21:49:41.850882 1969066752 net.cpp:157] Top shape: 50 40 (2000)
I1201 21:49:41.850885 1969066752 net.cpp:165] Memory required for data: 448476800
I1201 21:49:41.850889 1969066752 layer_factory.hpp:76] Creating layer fc2
I1201 21:49:41.850896 1969066752 net.cpp:106] Creating Layer fc2
I1201 21:49:41.850899 1969066752 net.cpp:454] fc2 <- relu1
I1201 21:49:41.850906 1969066752 net.cpp:411] fc2 -> fc2
I1201 21:49:41.850921 1969066752 net.cpp:150] Setting up fc2
I1201 21:49:41.850925 1969066752 net.cpp:157] Top shape: 50 4 (200)
I1201 21:49:41.850929 1969066752 net.cpp:165] Memory required for data: 448477600
I1201 21:49:41.850934 1969066752 layer_factory.hpp:76] Creating layer tanh
I1201 21:49:41.850939 1969066752 net.cpp:106] Creating Layer tanh
I1201 21:49:41.850942 1969066752 net.cpp:454] tanh <- fc2
I1201 21:49:41.850946 1969066752 net.cpp:411] tanh -> tanh
I1201 21:49:41.850951 1969066752 net.cpp:150] Setting up tanh
I1201 21:49:41.850955 1969066752 net.cpp:157] Top shape: 50 4 (200)
I1201 21:49:41.850960 1969066752 net.cpp:165] Memory required for data: 448478400
I1201 21:49:41.850963 1969066752 layer_factory.hpp:76] Creating layer loss
I1201 21:49:41.850971 1969066752 net.cpp:106] Creating Layer loss
I1201 21:49:41.850975 1969066752 net.cpp:454] loss <- tanh
I1201 21:49:41.850980 1969066752 net.cpp:454] loss <- labels
I1201 21:49:41.850985 1969066752 net.cpp:411] loss -> loss
…
