…
I1204 02:51:40.529292 1969066752 solver.cpp:90] Creating training net from net file: /Users/JonathanLee/Desktop/sandbox/vision/Net/nets/net1/trainer1.prototxt
I1204 02:51:40.529525 1969066752 net.cpp:322] The NetState phase (0) differed from the phase (1) specified by a rule in layer data
I1204 02:51:40.529541 1969066752 net.cpp:49] Initializing net from parameters: 
name: "net"
state {
  phase: TRAIN
}
layer {
  name: "data"
  type: "HDF5Data"
  top: "data"
  top: "labels"
  include {
    phase: TRAIN
  }
  hdf5_data_param {
    source: "/Users/JonathanLee/Desktop/sandbox/vision/Net/hdf/train_hdf.txt"
    batch_size: 450
  }
}
layer {
  name: "conv1"
  type: "Convolution"
  bottom: "data"
  top: "conv1"
  param {
    lr_mult: 1
    decay_mult: 1
  }
  param {
    lr_mult: 2
    decay_mult: 0
  }
  convolution_param {
    num_output: 16
    kernel_size: 11
    stride: 1
    weight_filler {
      type: "xavier"
    }
    bias_filler {
      type: "constant"
      value: 0
    }
  }
}
layer {
  name: "reluConv"
  type: "ReLU"
  bottom: "conv1"
  top: "conv1"
}
layer {
  name: "conv2"
  type: "Convolution"
  bottom: "conv1"
  top: "conv2"
  param {
    lr_mult: 1
    decay_mult: 1
  }
  param {
    lr_mult: 2
    decay_mult: 0
  }
  convolution_param {
    num_output: 16
    kernel_size: 11
    stride: 2
    weight_filler {
      type: "xavier"
    }
    bias_filler {
      type: "constant"
      value: 0
    }
  }
}
layer {
  name: "fc1"
  type: "InnerProduct"
  bottom: "conv2"
  top: "fc1"
  param {
    lr_mult: 1
    decay_mult: 1
  }
  param {
    lr_mult: 2
    decay_mult: 0
  }
  inner_product_param {
    num_output: 40
    weight_filler {
      type: "xavier"
    }
    bias_filler {
      type: "constant"
      value: 0
    }
  }
}
layer {
  name: "relu1"
  type: "ReLU"
  bottom: "fc1"
  top: "fc1"
}
layer {
  name: "fc2"
  type: "InnerProduct"
  bottom: "fc1"
  top: "fc2"
  param {
    lr_mult: 1
    decay_mult: 1
  }
  param {
    lr_mult: 2
    decay_mult: 0
  }
  inner_product_param {
    num_output: 4
    weight_filler {
      type: "xavier"
    }
    bias_filler {
      type: "constant"
      value: 0
    }
  }
}
layer {
  name: "out"
  type: "TanH"
  bottom: "fc2"
  top: "out"
}
layer {
  name: "loss"
  type: "EuclideanLoss"
  bottom: "out"
  bottom: "labels"
  top: "loss"
}
I1204 02:51:40.529716 1969066752 layer_factory.hpp:76] Creating layer data
I1204 02:51:40.529733 1969066752 net.cpp:106] Creating Layer data
I1204 02:51:40.529739 1969066752 net.cpp:411] data -> data
I1204 02:51:40.529757 1969066752 net.cpp:411] data -> labels
I1204 02:51:40.529790 1969066752 hdf5_data_layer.cpp:79] Loading list of HDF5 filenames from: /Users/JonathanLee/Desktop/sandbox/vision/Net/hdf/train_hdf.txt
I1204 02:51:40.529836 1969066752 hdf5_data_layer.cpp:93] Number of HDF5 files: 1
I1204 02:51:40.530834 1969066752 hdf5.cpp:32] Datatype class: H5T_FLOAT
I1204 02:51:40.732040 1969066752 net.cpp:150] Setting up data
I1204 02:51:40.732075 1969066752 net.cpp:157] Top shape: 450 3 125 125 (21093750)
I1204 02:51:40.732147 1969066752 net.cpp:157] Top shape: 450 4 (1800)
I1204 02:51:40.732159 1969066752 net.cpp:165] Memory required for data: 84382200
I1204 02:51:40.732169 1969066752 layer_factory.hpp:76] Creating layer conv1
I1204 02:51:40.732183 1969066752 net.cpp:106] Creating Layer conv1
I1204 02:51:40.732200 1969066752 net.cpp:454] conv1 <- data
I1204 02:51:40.732208 1969066752 net.cpp:411] conv1 -> conv1
I1204 02:51:40.736378 1969066752 net.cpp:150] Setting up conv1
I1204 02:51:40.736385 1969066752 net.cpp:157] Top shape: 450 16 115 115 (95220000)
I1204 02:51:40.736402 1969066752 net.cpp:165] Memory required for data: 465262200
I1204 02:51:40.736410 1969066752 layer_factory.hpp:76] Creating layer reluConv
I1204 02:51:40.736457 1969066752 net.cpp:106] Creating Layer reluConv
I1204 02:51:40.736462 1969066752 net.cpp:454] reluConv <- conv1
I1204 02:51:40.736469 1969066752 net.cpp:397] reluConv -> conv1 (in-place)
I1204 02:51:40.736474 1969066752 net.cpp:150] Setting up reluConv
I1204 02:51:40.736479 1969066752 net.cpp:157] Top shape: 450 16 115 115 (95220000)
I1204 02:51:40.736484 1969066752 net.cpp:165] Memory required for data: 846142200
I1204 02:51:40.736487 1969066752 layer_factory.hpp:76] Creating layer conv2
I1204 02:51:40.736495 1969066752 net.cpp:106] Creating Layer conv2
I1204 02:51:40.736498 1969066752 net.cpp:454] conv2 <- conv1
I1204 02:51:40.736503 1969066752 net.cpp:411] conv2 -> conv2
I1204 02:51:40.736824 1969066752 net.cpp:150] Setting up conv2
I1204 02:51:40.736829 1969066752 net.cpp:157] Top shape: 450 16 53 53 (20224800)
I1204 02:51:40.736845 1969066752 net.cpp:165] Memory required for data: 927041400
I1204 02:51:40.736850 1969066752 layer_factory.hpp:76] Creating layer fc1
I1204 02:51:40.736857 1969066752 net.cpp:106] Creating Layer fc1
I1204 02:51:40.736861 1969066752 net.cpp:454] fc1 <- conv2
I1204 02:51:40.736877 1969066752 net.cpp:411] fc1 -> fc1
I1204 02:51:40.751382 1969066752 net.cpp:150] Setting up fc1
I1204 02:51:40.751400 1969066752 net.cpp:157] Top shape: 450 40 (18000)
I1204 02:51:40.751416 1969066752 net.cpp:165] Memory required for data: 927113400
I1204 02:51:40.751425 1969066752 layer_factory.hpp:76] Creating layer relu1
I1204 02:51:40.751435 1969066752 net.cpp:106] Creating Layer relu1
I1204 02:51:40.751438 1969066752 net.cpp:454] relu1 <- fc1
I1204 02:51:40.751443 1969066752 net.cpp:397] relu1 -> fc1 (in-place)
I1204 02:51:40.751461 1969066752 net.cpp:150] Setting up relu1
I1204 02:51:40.751466 1969066752 net.cpp:157] Top shape: 450 40 (18000)
I1204 02:51:40.751469 1969066752 net.cpp:165] Memory required for data: 927185400
I1204 02:51:40.751472 1969066752 layer_factory.hpp:76] Creating layer fc2
I1204 02:51:40.751479 1969066752 net.cpp:106] Creating Layer fc2
I1204 02:51:40.751483 1969066752 net.cpp:454] fc2 <- fc1
I1204 02:51:40.751495 1969066752 net.cpp:411] fc2 -> fc2
I1204 02:51:40.751512 1969066752 net.cpp:150] Setting up fc2
I1204 02:51:40.751515 1969066752 net.cpp:157] Top shape: 450 4 (1800)
I1204 02:51:40.751519 1969066752 net.cpp:165] Memory required for data: 927192600
I1204 02:51:40.751524 1969066752 layer_factory.hpp:76] Creating layer out
I1204 02:51:40.751529 1969066752 net.cpp:106] Creating Layer out
I1204 02:51:40.751551 1969066752 net.cpp:454] out <- fc2
I1204 02:51:40.751572 1969066752 net.cpp:411] out -> out
I1204 02:51:40.751584 1969066752 net.cpp:150] Setting up out
I1204 02:51:40.751587 1969066752 net.cpp:157] Top shape: 450 4 (1800)
I1204 02:51:40.751592 1969066752 net.cpp:165] Memory required for data: 927199800
I1204 02:51:40.751596 1969066752 layer_factory.hpp:76] Creating layer loss
I1204 02:51:40.751605 1969066752 net.cpp:106] Creating Layer loss
I1204 02:51:40.751608 1969066752 net.cpp:454] loss <- out
I1204 02:51:40.751611 1969066752 net.cpp:454] loss <- labels
I1204 02:51:40.751617 1969066752 net.cpp:411] loss -> loss
…
I1204 02:51:40.751998 1969066752 solver.cpp:180] Creating test net (#0) specified by net file: /Users/JonathanLee/Desktop/sandbox/vision/Net/nets/net1/trainer1.prototxt
I1204 02:51:40.752032 1969066752 net.cpp:322] The NetState phase (1) differed from the phase (0) specified by a rule in layer data
I1204 02:51:40.752054 1969066752 net.cpp:49] Initializing net from parameters: 
name: "net"
state {
  phase: TEST
}
layer {
  name: "data"
  type: "HDF5Data"
  top: "data"
  top: "labels"
  include {
    phase: TEST
  }
  hdf5_data_param {
    source: "/Users/JonathanLee/Desktop/sandbox/vision/Net/hdf/test_hdf.txt"
    batch_size: 120
  }
}
layer {
  name: "conv1"
  type: "Convolution"
  bottom: "data"
  top: "conv1"
  param {
    lr_mult: 1
    decay_mult: 1
  }
  param {
    lr_mult: 2
    decay_mult: 0
  }
  convolution_param {
    num_output: 16
    kernel_size: 11
    stride: 1
    weight_filler {
      type: "xavier"
    }
    bias_filler {
      type: "constant"
      value: 0
    }
  }
}
layer {
  name: "reluConv"
  type: "ReLU"
  bottom: "conv1"
  top: "conv1"
}
layer {
  name: "conv2"
  type: "Convolution"
  bottom: "conv1"
  top: "conv2"
  param {
    lr_mult: 1
    decay_mult: 1
  }
  param {
    lr_mult: 2
    decay_mult: 0
  }
  convolution_param {
    num_output: 16
    kernel_size: 11
    stride: 2
    weight_filler {
      type: "xavier"
    }
    bias_filler {
      type: "constant"
      value: 0
    }
  }
}
layer {
  name: "fc1"
  type: "InnerProduct"
  bottom: "conv2"
  top: "fc1"
  param {
    lr_mult: 1
    decay_mult: 1
  }
  param {
    lr_mult: 2
    decay_mult: 0
  }
  inner_product_param {
    num_output: 40
    weight_filler {
      type: "xavier"
    }
    bias_filler {
      type: "constant"
      value: 0
    }
  }
}
layer {
  name: "relu1"
  type: "ReLU"
  bottom: "fc1"
  top: "fc1"
}
layer {
  name: "fc2"
  type: "InnerProduct"
  bottom: "fc1"
  top: "fc2"
  param {
    lr_mult: 1
    decay_mult: 1
  }
  param {
    lr_mult: 2
    decay_mult: 0
  }
  inner_product_param {
    num_output: 4
    weight_filler {
      type: "xavier"
    }
    bias_filler {
      type: "constant"
      value: 0
    }
  }
}
layer {
  name: "out"
  type: "TanH"
  bottom: "fc2"
  top: "out"
}
layer {
  name: "loss"
  type: "EuclideanLoss"
  bottom: "out"
  bottom: "labels"
  top: "loss"
}
I1204 02:51:40.752183 1969066752 layer_factory.hpp:76] Creating layer data
I1204 02:51:40.752192 1969066752 net.cpp:106] Creating Layer data
I1204 02:51:40.752208 1969066752 net.cpp:411] data -> data
I1204 02:51:40.752234 1969066752 net.cpp:411] data -> labels
I1204 02:51:40.752243 1969066752 hdf5_data_layer.cpp:79] Loading list of HDF5 filenames from: /Users/JonathanLee/Desktop/sandbox/vision/Net/hdf/test_hdf.txt
I1204 02:51:40.752271 1969066752 hdf5_data_layer.cpp:93] Number of HDF5 files: 1
I1204 02:51:40.808976 1969066752 net.cpp:150] Setting up data
I1204 02:51:40.809005 1969066752 net.cpp:157] Top shape: 120 3 125 125 (5625000)
I1204 02:51:40.809077 1969066752 net.cpp:157] Top shape: 120 4 (480)
I1204 02:51:40.809090 1969066752 net.cpp:165] Memory required for data: 22501920
I1204 02:51:40.809098 1969066752 layer_factory.hpp:76] Creating layer conv1
I1204 02:51:40.809110 1969066752 net.cpp:106] Creating Layer conv1
I1204 02:51:40.809115 1969066752 net.cpp:454] conv1 <- data
I1204 02:51:40.809123 1969066752 net.cpp:411] conv1 -> conv1
I1204 02:51:40.809227 1969066752 net.cpp:150] Setting up conv1
I1204 02:51:40.809234 1969066752 net.cpp:157] Top shape: 120 16 115 115 (25392000)
I1204 02:51:40.809239 1969066752 net.cpp:165] Memory required for data: 124069920
I1204 02:51:40.809247 1969066752 layer_factory.hpp:76] Creating layer reluConv
I1204 02:51:40.809253 1969066752 net.cpp:106] Creating Layer reluConv
I1204 02:51:40.809257 1969066752 net.cpp:454] reluConv <- conv1
I1204 02:51:40.809262 1969066752 net.cpp:397] reluConv -> conv1 (in-place)
I1204 02:51:40.809294 1969066752 net.cpp:150] Setting up reluConv
I1204 02:51:40.809301 1969066752 net.cpp:157] Top shape: 120 16 115 115 (25392000)
I1204 02:51:40.809306 1969066752 net.cpp:165] Memory required for data: 225637920
I1204 02:51:40.809327 1969066752 layer_factory.hpp:76] Creating layer conv2
I1204 02:51:40.809341 1969066752 net.cpp:106] Creating Layer conv2
I1204 02:51:40.809346 1969066752 net.cpp:454] conv2 <- conv1
I1204 02:51:40.809353 1969066752 net.cpp:411] conv2 -> conv2
I1204 02:51:40.809648 1969066752 net.cpp:150] Setting up conv2
I1204 02:51:40.809653 1969066752 net.cpp:157] Top shape: 120 16 53 53 (5393280)
I1204 02:51:40.809669 1969066752 net.cpp:165] Memory required for data: 247211040
I1204 02:51:40.809676 1969066752 layer_factory.hpp:76] Creating layer fc1
I1204 02:51:40.809684 1969066752 net.cpp:106] Creating Layer fc1
I1204 02:51:40.809687 1969066752 net.cpp:454] fc1 <- conv2
I1204 02:51:40.809703 1969066752 net.cpp:411] fc1 -> fc1
I1204 02:51:40.824712 1969066752 net.cpp:150] Setting up fc1
I1204 02:51:40.824730 1969066752 net.cpp:157] Top shape: 120 40 (4800)
I1204 02:51:40.824746 1969066752 net.cpp:165] Memory required for data: 247230240
I1204 02:51:40.824760 1969066752 layer_factory.hpp:76] Creating layer relu1
I1204 02:51:40.824767 1969066752 net.cpp:106] Creating Layer relu1
I1204 02:51:40.824774 1969066752 net.cpp:454] relu1 <- fc1
I1204 02:51:40.824779 1969066752 net.cpp:397] relu1 -> fc1 (in-place)
I1204 02:51:40.824785 1969066752 net.cpp:150] Setting up relu1
I1204 02:51:40.824790 1969066752 net.cpp:157] Top shape: 120 40 (4800)
I1204 02:51:40.824793 1969066752 net.cpp:165] Memory required for data: 247249440
I1204 02:51:40.824797 1969066752 layer_factory.hpp:76] Creating layer fc2
I1204 02:51:40.824810 1969066752 net.cpp:106] Creating Layer fc2
I1204 02:51:40.824812 1969066752 net.cpp:454] fc2 <- fc1
I1204 02:51:40.824818 1969066752 net.cpp:411] fc2 -> fc2
I1204 02:51:40.824832 1969066752 net.cpp:150] Setting up fc2
I1204 02:51:40.824836 1969066752 net.cpp:157] Top shape: 120 4 (480)
I1204 02:51:40.824841 1969066752 net.cpp:165] Memory required for data: 247251360
I1204 02:51:40.824846 1969066752 layer_factory.hpp:76] Creating layer out
I1204 02:51:40.824853 1969066752 net.cpp:106] Creating Layer out
I1204 02:51:40.824857 1969066752 net.cpp:454] out <- fc2
I1204 02:51:40.824862 1969066752 net.cpp:411] out -> out
I1204 02:51:40.824867 1969066752 net.cpp:150] Setting up out
I1204 02:51:40.824872 1969066752 net.cpp:157] Top shape: 120 4 (480)
I1204 02:51:40.824875 1969066752 net.cpp:165] Memory required for data: 247253280
I1204 02:51:40.824879 1969066752 layer_factory.hpp:76] Creating layer loss
I1204 02:51:40.824885 1969066752 net.cpp:106] Creating Layer loss
I1204 02:51:40.824889 1969066752 net.cpp:454] loss <- out
I1204 02:51:40.824893 1969066752 net.cpp:454] loss <- labels
I1204 02:51:40.824898 1969066752 net.cpp:411] loss -> loss
…
