…
I1204 04:08:12.952746 1969066752 solver.cpp:90] Creating training net from net file: /Users/JonathanLee/Desktop/sandbox/vision/Net/nets/net8/trainer8.prototxt
I1204 04:08:12.953238 1969066752 net.cpp:322] The NetState phase (0) differed from the phase (1) specified by a rule in layer data
I1204 04:08:12.953268 1969066752 net.cpp:49] Initializing net from parameters: 
name: "net"
state {
  phase: TRAIN
}
layer {
  name: "data"
  type: "HDF5Data"
  top: "data"
  top: "labels"
  include {
    phase: TRAIN
  }
  hdf5_data_param {
    source: "/Users/JonathanLee/Desktop/sandbox/vision/Net/hdf/train_hdf.txt"
    batch_size: 450
  }
}
layer {
  name: "conv1"
  type: "Convolution"
  bottom: "data"
  top: "conv1"
  param {
    lr_mult: 1
    decay_mult: 1
  }
  param {
    lr_mult: 2
    decay_mult: 0
  }
  convolution_param {
    num_output: 16
    kernel_size: 11
    stride: 1
    weight_filler {
      type: "xavier"
    }
    bias_filler {
      type: "constant"
      value: 0
    }
  }
}
layer {
  name: "tanhConv1"
  type: "TanH"
  bottom: "conv1"
  top: "conv1"
}
layer {
  name: "conv2"
  type: "Convolution"
  bottom: "conv1"
  top: "conv2"
  param {
    lr_mult: 1
    decay_mult: 1
  }
  param {
    lr_mult: 2
    decay_mult: 0
  }
  convolution_param {
    num_output: 16
    kernel_size: 11
    stride: 2
    weight_filler {
      type: "xavier"
    }
    bias_filler {
      type: "constant"
      value: 0
    }
  }
}
layer {
  name: "tanhConv2"
  type: "TanH"
  bottom: "conv2"
  top: "conv2"
}
layer {
  name: "fc1"
  type: "InnerProduct"
  bottom: "conv2"
  top: "fc1"
  param {
    lr_mult: 1
    decay_mult: 1
  }
  param {
    lr_mult: 2
    decay_mult: 0
  }
  inner_product_param {
    num_output: 4
    weight_filler {
      type: "xavier"
    }
    bias_filler {
      type: "constant"
      value: 0
    }
  }
}
layer {
  name: "out"
  type: "TanH"
  bottom: "fc1"
  top: "out"
}
layer {
  name: "loss"
  type: "EuclideanLoss"
  bottom: "out"
  bottom: "labels"
  top: "loss"
}
I1204 04:08:12.953506 1969066752 layer_factory.hpp:76] Creating layer data
I1204 04:08:12.953554 1969066752 net.cpp:106] Creating Layer data
I1204 04:08:12.953572 1969066752 net.cpp:411] data -> data
I1204 04:08:12.953603 1969066752 net.cpp:411] data -> labels
I1204 04:08:12.953636 1969066752 hdf5_data_layer.cpp:79] Loading list of HDF5 filenames from: /Users/JonathanLee/Desktop/sandbox/vision/Net/hdf/train_hdf.txt
I1204 04:08:12.953706 1969066752 hdf5_data_layer.cpp:93] Number of HDF5 files: 1
I1204 04:08:12.954818 1969066752 hdf5.cpp:32] Datatype class: H5T_FLOAT
I1204 04:08:13.223311 1969066752 net.cpp:150] Setting up data
I1204 04:08:13.223336 1969066752 net.cpp:157] Top shape: 450 3 125 125 (21093750)
I1204 04:08:13.223346 1969066752 net.cpp:157] Top shape: 450 4 (1800)
I1204 04:08:13.223351 1969066752 net.cpp:165] Memory required for data: 84382200
I1204 04:08:13.223359 1969066752 layer_factory.hpp:76] Creating layer conv1
I1204 04:08:13.223387 1969066752 net.cpp:106] Creating Layer conv1
I1204 04:08:13.223407 1969066752 net.cpp:454] conv1 <- data
I1204 04:08:13.223423 1969066752 net.cpp:411] conv1 -> conv1
I1204 04:08:13.229605 1969066752 net.cpp:150] Setting up conv1
I1204 04:08:13.229622 1969066752 net.cpp:157] Top shape: 450 16 115 115 (95220000)
I1204 04:08:13.229629 1969066752 net.cpp:165] Memory required for data: 465262200
I1204 04:08:13.229640 1969066752 layer_factory.hpp:76] Creating layer tanhConv1
I1204 04:08:13.229648 1969066752 net.cpp:106] Creating Layer tanhConv1
I1204 04:08:13.229652 1969066752 net.cpp:454] tanhConv1 <- conv1
I1204 04:08:13.229657 1969066752 net.cpp:397] tanhConv1 -> conv1 (in-place)
I1204 04:08:13.229694 1969066752 net.cpp:150] Setting up tanhConv1
I1204 04:08:13.229739 1969066752 net.cpp:157] Top shape: 450 16 115 115 (95220000)
I1204 04:08:13.229763 1969066752 net.cpp:165] Memory required for data: 846142200
I1204 04:08:13.229770 1969066752 layer_factory.hpp:76] Creating layer conv2
I1204 04:08:13.229791 1969066752 net.cpp:106] Creating Layer conv2
I1204 04:08:13.229796 1969066752 net.cpp:454] conv2 <- conv1
I1204 04:08:13.229820 1969066752 net.cpp:411] conv2 -> conv2
I1204 04:08:13.230156 1969066752 net.cpp:150] Setting up conv2
I1204 04:08:13.230170 1969066752 net.cpp:157] Top shape: 450 16 53 53 (20224800)
I1204 04:08:13.230176 1969066752 net.cpp:165] Memory required for data: 927041400
I1204 04:08:13.230185 1969066752 layer_factory.hpp:76] Creating layer tanhConv2
I1204 04:08:13.230195 1969066752 net.cpp:106] Creating Layer tanhConv2
I1204 04:08:13.230212 1969066752 net.cpp:454] tanhConv2 <- conv2
I1204 04:08:13.230254 1969066752 net.cpp:397] tanhConv2 -> conv2 (in-place)
I1204 04:08:13.230298 1969066752 net.cpp:150] Setting up tanhConv2
I1204 04:08:13.230315 1969066752 net.cpp:157] Top shape: 450 16 53 53 (20224800)
I1204 04:08:13.230336 1969066752 net.cpp:165] Memory required for data: 1007940600
I1204 04:08:13.230345 1969066752 layer_factory.hpp:76] Creating layer fc1
I1204 04:08:13.230408 1969066752 net.cpp:106] Creating Layer fc1
I1204 04:08:13.231541 1969066752 net.cpp:454] fc1 <- conv2
I1204 04:08:13.231570 1969066752 net.cpp:411] fc1 -> fc1
I1204 04:08:13.232936 1969066752 net.cpp:150] Setting up fc1
I1204 04:08:13.232949 1969066752 net.cpp:157] Top shape: 450 4 (1800)
I1204 04:08:13.232954 1969066752 net.cpp:165] Memory required for data: 1007947800
I1204 04:08:13.232962 1969066752 layer_factory.hpp:76] Creating layer out
I1204 04:08:13.232970 1969066752 net.cpp:106] Creating Layer out
I1204 04:08:13.232975 1969066752 net.cpp:454] out <- fc1
I1204 04:08:13.232980 1969066752 net.cpp:411] out -> out
I1204 04:08:13.232987 1969066752 net.cpp:150] Setting up out
I1204 04:08:13.233007 1969066752 net.cpp:157] Top shape: 450 4 (1800)
I1204 04:08:13.233032 1969066752 net.cpp:165] Memory required for data: 1007955000
I1204 04:08:13.233043 1969066752 layer_factory.hpp:76] Creating layer loss
I1204 04:08:13.233055 1969066752 net.cpp:106] Creating Layer loss
I1204 04:08:13.233062 1969066752 net.cpp:454] loss <- out
I1204 04:08:13.233069 1969066752 net.cpp:454] loss <- labels
I1204 04:08:13.233086 1969066752 net.cpp:411] loss -> loss
…
I1204 04:08:13.233481 1969066752 solver.cpp:180] Creating test net (#0) specified by net file: /Users/JonathanLee/Desktop/sandbox/vision/Net/nets/net8/trainer8.prototxt
I1204 04:08:13.233507 1969066752 net.cpp:322] The NetState phase (1) differed from the phase (0) specified by a rule in layer data
I1204 04:08:13.233516 1969066752 net.cpp:49] Initializing net from parameters: 
name: "net"
state {
  phase: TEST
}
layer {
  name: "data"
  type: "HDF5Data"
  top: "data"
  top: "labels"
  include {
    phase: TEST
  }
  hdf5_data_param {
    source: "/Users/JonathanLee/Desktop/sandbox/vision/Net/hdf/test_hdf.txt"
    batch_size: 120
  }
}
layer {
  name: "conv1"
  type: "Convolution"
  bottom: "data"
  top: "conv1"
  param {
    lr_mult: 1
    decay_mult: 1
  }
  param {
    lr_mult: 2
    decay_mult: 0
  }
  convolution_param {
    num_output: 16
    kernel_size: 11
    stride: 1
    weight_filler {
      type: "xavier"
    }
    bias_filler {
      type: "constant"
      value: 0
    }
  }
}
layer {
  name: "tanhConv1"
  type: "TanH"
  bottom: "conv1"
  top: "conv1"
}
layer {
  name: "conv2"
  type: "Convolution"
  bottom: "conv1"
  top: "conv2"
  param {
    lr_mult: 1
    decay_mult: 1
  }
  param {
    lr_mult: 2
    decay_mult: 0
  }
  convolution_param {
    num_output: 16
    kernel_size: 11
    stride: 2
    weight_filler {
      type: "xavier"
    }
    bias_filler {
      type: "constant"
      value: 0
    }
  }
}
layer {
  name: "tanhConv2"
  type: "TanH"
  bottom: "conv2"
  top: "conv2"
}
layer {
  name: "fc1"
  type: "InnerProduct"
  bottom: "conv2"
  top: "fc1"
  param {
    lr_mult: 1
    decay_mult: 1
  }
  param {
    lr_mult: 2
    decay_mult: 0
  }
  inner_product_param {
    num_output: 4
    weight_filler {
      type: "xavier"
    }
    bias_filler {
      type: "constant"
      value: 0
    }
  }
}
layer {
  name: "out"
  type: "TanH"
  bottom: "fc1"
  top: "out"
}
layer {
  name: "loss"
  type: "EuclideanLoss"
  bottom: "out"
  bottom: "labels"
  top: "loss"
}
I1204 04:08:13.233664 1969066752 layer_factory.hpp:76] Creating layer data
I1204 04:08:13.233676 1969066752 net.cpp:106] Creating Layer data
I1204 04:08:13.233683 1969066752 net.cpp:411] data -> data
I1204 04:08:13.233691 1969066752 net.cpp:411] data -> labels
I1204 04:08:13.233716 1969066752 hdf5_data_layer.cpp:79] Loading list of HDF5 filenames from: /Users/JonathanLee/Desktop/sandbox/vision/Net/hdf/test_hdf.txt
I1204 04:08:13.233757 1969066752 hdf5_data_layer.cpp:93] Number of HDF5 files: 1
I1204 04:08:13.309675 1969066752 net.cpp:150] Setting up data
I1204 04:08:13.309700 1969066752 net.cpp:157] Top shape: 120 3 125 125 (5625000)
I1204 04:08:13.309708 1969066752 net.cpp:157] Top shape: 120 4 (480)
I1204 04:08:13.309712 1969066752 net.cpp:165] Memory required for data: 22501920
I1204 04:08:13.309720 1969066752 layer_factory.hpp:76] Creating layer conv1
I1204 04:08:13.309731 1969066752 net.cpp:106] Creating Layer conv1
I1204 04:08:13.309749 1969066752 net.cpp:454] conv1 <- data
I1204 04:08:13.309772 1969066752 net.cpp:411] conv1 -> conv1
I1204 04:08:13.309970 1969066752 net.cpp:150] Setting up conv1
I1204 04:08:13.309983 1969066752 net.cpp:157] Top shape: 120 16 115 115 (25392000)
I1204 04:08:13.309989 1969066752 net.cpp:165] Memory required for data: 124069920
I1204 04:08:13.310001 1969066752 layer_factory.hpp:76] Creating layer tanhConv1
I1204 04:08:13.310039 1969066752 net.cpp:106] Creating Layer tanhConv1
I1204 04:08:13.310078 1969066752 net.cpp:454] tanhConv1 <- conv1
I1204 04:08:13.310133 1969066752 net.cpp:397] tanhConv1 -> conv1 (in-place)
I1204 04:08:13.310173 1969066752 net.cpp:150] Setting up tanhConv1
I1204 04:08:13.310199 1969066752 net.cpp:157] Top shape: 120 16 115 115 (25392000)
I1204 04:08:13.310237 1969066752 net.cpp:165] Memory required for data: 225637920
I1204 04:08:13.310255 1969066752 layer_factory.hpp:76] Creating layer conv2
I1204 04:08:13.310294 1969066752 net.cpp:106] Creating Layer conv2
I1204 04:08:13.310312 1969066752 net.cpp:454] conv2 <- conv1
I1204 04:08:13.310338 1969066752 net.cpp:411] conv2 -> conv2
I1204 04:08:13.310713 1969066752 net.cpp:150] Setting up conv2
I1204 04:08:13.310720 1969066752 net.cpp:157] Top shape: 120 16 53 53 (5393280)
I1204 04:08:13.310725 1969066752 net.cpp:165] Memory required for data: 247211040
I1204 04:08:13.310734 1969066752 layer_factory.hpp:76] Creating layer tanhConv2
I1204 04:08:13.310739 1969066752 net.cpp:106] Creating Layer tanhConv2
I1204 04:08:13.310762 1969066752 net.cpp:454] tanhConv2 <- conv2
I1204 04:08:13.310781 1969066752 net.cpp:397] tanhConv2 -> conv2 (in-place)
I1204 04:08:13.310812 1969066752 net.cpp:150] Setting up tanhConv2
I1204 04:08:13.310828 1969066752 net.cpp:157] Top shape: 120 16 53 53 (5393280)
I1204 04:08:13.310865 1969066752 net.cpp:165] Memory required for data: 268784160
I1204 04:08:13.310874 1969066752 layer_factory.hpp:76] Creating layer fc1
I1204 04:08:13.310894 1969066752 net.cpp:106] Creating Layer fc1
I1204 04:08:13.310905 1969066752 net.cpp:454] fc1 <- conv2
I1204 04:08:13.310917 1969066752 net.cpp:411] fc1 -> fc1
I1204 04:08:13.313419 1969066752 net.cpp:150] Setting up fc1
I1204 04:08:13.313436 1969066752 net.cpp:157] Top shape: 120 4 (480)
I1204 04:08:13.313441 1969066752 net.cpp:165] Memory required for data: 268786080
I1204 04:08:13.313451 1969066752 layer_factory.hpp:76] Creating layer out
I1204 04:08:13.313458 1969066752 net.cpp:106] Creating Layer out
I1204 04:08:13.313462 1969066752 net.cpp:454] out <- fc1
I1204 04:08:13.313467 1969066752 net.cpp:411] out -> out
I1204 04:08:13.313477 1969066752 net.cpp:150] Setting up out
I1204 04:08:13.313494 1969066752 net.cpp:157] Top shape: 120 4 (480)
I1204 04:08:13.313516 1969066752 net.cpp:165] Memory required for data: 268788000
I1204 04:08:13.313529 1969066752 layer_factory.hpp:76] Creating layer loss
I1204 04:08:13.313539 1969066752 net.cpp:106] Creating Layer loss
I1204 04:08:13.313545 1969066752 net.cpp:454] loss <- out
I1204 04:08:13.313552 1969066752 net.cpp:454] loss <- labels
I1204 04:08:13.313576 1969066752 net.cpp:411] loss -> loss
…
