…
I1207 00:58:10.694284 2039878400 solver.cpp:90] Creating training net from net file: /Users/JonathanLee/Desktop/sandbox/vision/Net/nets/net11/trainer11.prototxt
I1207 00:58:10.695549 2039878400 net.cpp:322] The NetState phase (0) differed from the phase (1) specified by a rule in layer data
I1207 00:58:10.695579 2039878400 net.cpp:49] Initializing net from parameters: 
name: "net"
state {
  phase: TRAIN
}
layer {
  name: "data"
  type: "HDF5Data"
  top: "data"
  top: "labels"
  include {
    phase: TRAIN
  }
  hdf5_data_param {
    source: "/Users/JonathanLee/Desktop/sandbox/vision/Net/hdf/train_hdf.txt"
    batch_size: 500
  }
}
layer {
  name: "conv1"
  type: "Convolution"
  bottom: "data"
  top: "conv1"
  param {
    lr_mult: 1
    decay_mult: 1
  }
  param {
    lr_mult: 2
    decay_mult: 0
  }
  convolution_param {
    num_output: 16
    kernel_size: 11
    stride: 1
    weight_filler {
      type: "xavier"
    }
    bias_filler {
      type: "constant"
      value: 0
    }
  }
}
layer {
  name: "conv2"
  type: "Convolution"
  bottom: "conv1"
  top: "conv2"
  param {
    lr_mult: 1
    decay_mult: 1
  }
  param {
    lr_mult: 2
    decay_mult: 0
  }
  convolution_param {
    num_output: 16
    kernel_size: 11
    stride: 2
    weight_filler {
      type: "xavier"
    }
    bias_filler {
      type: "constant"
      value: 0
    }
  }
}
layer {
  name: "fc1"
  type: "InnerProduct"
  bottom: "conv2"
  top: "fc1"
  param {
    lr_mult: 1
    decay_mult: 1
  }
  param {
    lr_mult: 2
    decay_mult: 0
  }
  inner_product_param {
    num_output: 40
    weight_filler {
      type: "xavier"
    }
    bias_filler {
      type: "constant"
      value: 0
    }
  }
}
layer {
  name: "fc2"
  type: "InnerProduct"
  bottom: "fc1"
  top: "fc2"
  param {
    lr_mult: 1
    decay_mult: 1
  }
  param {
    lr_mult: 2
    decay_mult: 0
  }
  inner_product_param {
    num_output: 4
    weight_filler {
      type: "xavier"
    }
    bias_filler {
      type: "constant"
      value: 0
    }
  }
}
layer {
  name: "out"
  type: "TanH"
  bottom: "fc2"
  top: "out"
}
layer {
  name: "loss"
  type: "EuclideanLoss"
  bottom: "out"
  bottom: "labels"
  top: "loss"
}
I1207 00:58:10.696086 2039878400 layer_factory.hpp:76] Creating layer data
I1207 00:58:10.696113 2039878400 net.cpp:106] Creating Layer data
I1207 00:58:10.696121 2039878400 net.cpp:411] data -> data
I1207 00:58:10.696146 2039878400 net.cpp:411] data -> labels
I1207 00:58:10.696161 2039878400 hdf5_data_layer.cpp:79] Loading list of HDF5 filenames from: /Users/JonathanLee/Desktop/sandbox/vision/Net/hdf/train_hdf.txt
I1207 00:58:10.696207 2039878400 hdf5_data_layer.cpp:93] Number of HDF5 files: 1
I1207 00:58:10.725713 2039878400 hdf5.cpp:32] Datatype class: H5T_FLOAT
I1207 00:58:10.916378 2039878400 net.cpp:150] Setting up data
I1207 00:58:10.916405 2039878400 net.cpp:157] Top shape: 500 3 125 125 (23437500)
I1207 00:58:10.916416 2039878400 net.cpp:157] Top shape: 500 4 (2000)
I1207 00:58:10.916421 2039878400 net.cpp:165] Memory required for data: 93758000
I1207 00:58:10.916429 2039878400 layer_factory.hpp:76] Creating layer conv1
I1207 00:58:10.916441 2039878400 net.cpp:106] Creating Layer conv1
I1207 00:58:10.916450 2039878400 net.cpp:454] conv1 <- data
I1207 00:58:10.916460 2039878400 net.cpp:411] conv1 -> conv1
I1207 00:58:10.922111 2039878400 net.cpp:150] Setting up conv1
I1207 00:58:10.922132 2039878400 net.cpp:157] Top shape: 500 16 115 115 (105800000)
I1207 00:58:10.922150 2039878400 net.cpp:165] Memory required for data: 516958000
I1207 00:58:10.922160 2039878400 layer_factory.hpp:76] Creating layer conv2
I1207 00:58:10.922170 2039878400 net.cpp:106] Creating Layer conv2
I1207 00:58:10.922186 2039878400 net.cpp:454] conv2 <- conv1
I1207 00:58:10.922219 2039878400 net.cpp:411] conv2 -> conv2
I1207 00:58:10.922549 2039878400 net.cpp:150] Setting up conv2
I1207 00:58:10.922555 2039878400 net.cpp:157] Top shape: 500 16 53 53 (22472000)
I1207 00:58:10.922571 2039878400 net.cpp:165] Memory required for data: 606846000
I1207 00:58:10.922579 2039878400 layer_factory.hpp:76] Creating layer fc1
I1207 00:58:10.922585 2039878400 net.cpp:106] Creating Layer fc1
I1207 00:58:10.922600 2039878400 net.cpp:454] fc1 <- conv2
I1207 00:58:10.922608 2039878400 net.cpp:411] fc1 -> fc1
I1207 00:58:10.940492 2039878400 net.cpp:150] Setting up fc1
I1207 00:58:10.940518 2039878400 net.cpp:157] Top shape: 500 40 (20000)
I1207 00:58:10.940526 2039878400 net.cpp:165] Memory required for data: 606926000
I1207 00:58:10.940537 2039878400 layer_factory.hpp:76] Creating layer fc2
I1207 00:58:10.940552 2039878400 net.cpp:106] Creating Layer fc2
I1207 00:58:10.940558 2039878400 net.cpp:454] fc2 <- fc1
I1207 00:58:10.940567 2039878400 net.cpp:411] fc2 -> fc2
I1207 00:58:10.940589 2039878400 net.cpp:150] Setting up fc2
I1207 00:58:10.940594 2039878400 net.cpp:157] Top shape: 500 4 (2000)
I1207 00:58:10.940599 2039878400 net.cpp:165] Memory required for data: 606934000
I1207 00:58:10.940605 2039878400 layer_factory.hpp:76] Creating layer out
I1207 00:58:10.940611 2039878400 net.cpp:106] Creating Layer out
I1207 00:58:10.940616 2039878400 net.cpp:454] out <- fc2
I1207 00:58:10.940621 2039878400 net.cpp:411] out -> out
I1207 00:58:10.940629 2039878400 net.cpp:150] Setting up out
I1207 00:58:10.940634 2039878400 net.cpp:157] Top shape: 500 4 (2000)
I1207 00:58:10.940639 2039878400 net.cpp:165] Memory required for data: 606942000
I1207 00:58:10.940652 2039878400 layer_factory.hpp:76] Creating layer loss
I1207 00:58:10.940659 2039878400 net.cpp:106] Creating Layer loss
I1207 00:58:10.940664 2039878400 net.cpp:454] loss <- out
I1207 00:58:10.940667 2039878400 net.cpp:454] loss <- labels
I1207 00:58:10.940673 2039878400 net.cpp:411] loss -> loss
…
I1207 00:58:10.940958 2039878400 solver.cpp:180] Creating test net (#0) specified by net file: /Users/JonathanLee/Desktop/sandbox/vision/Net/nets/net11/trainer11.prototxt
I1207 00:58:10.940985 2039878400 net.cpp:322] The NetState phase (1) differed from the phase (0) specified by a rule in layer data
I1207 00:58:10.940995 2039878400 net.cpp:49] Initializing net from parameters: 
name: "net"
state {
  phase: TEST
}
layer {
  name: "data"
  type: "HDF5Data"
  top: "data"
  top: "labels"
  include {
    phase: TEST
  }
  hdf5_data_param {
    source: "/Users/JonathanLee/Desktop/sandbox/vision/Net/hdf/test_hdf.txt"
    batch_size: 120
  }
}
layer {
  name: "conv1"
  type: "Convolution"
  bottom: "data"
  top: "conv1"
  param {
    lr_mult: 1
    decay_mult: 1
  }
  param {
    lr_mult: 2
    decay_mult: 0
  }
  convolution_param {
    num_output: 16
    kernel_size: 11
    stride: 1
    weight_filler {
      type: "xavier"
    }
    bias_filler {
      type: "constant"
      value: 0
    }
  }
}
layer {
  name: "conv2"
  type: "Convolution"
  bottom: "conv1"
  top: "conv2"
  param {
    lr_mult: 1
    decay_mult: 1
  }
  param {
    lr_mult: 2
    decay_mult: 0
  }
  convolution_param {
    num_output: 16
    kernel_size: 11
    stride: 2
    weight_filler {
      type: "xavier"
    }
    bias_filler {
      type: "constant"
      value: 0
    }
  }
}
layer {
  name: "fc1"
  type: "InnerProduct"
  bottom: "conv2"
  top: "fc1"
  param {
    lr_mult: 1
    decay_mult: 1
  }
  param {
    lr_mult: 2
    decay_mult: 0
  }
  inner_product_param {
    num_output: 40
    weight_filler {
      type: "xavier"
    }
    bias_filler {
      type: "constant"
      value: 0
    }
  }
}
layer {
  name: "fc2"
  type: "InnerProduct"
  bottom: "fc1"
  top: "fc2"
  param {
    lr_mult: 1
    decay_mult: 1
  }
  param {
    lr_mult: 2
    decay_mult: 0
  }
  inner_product_param {
    num_output: 4
    weight_filler {
      type: "xavier"
    }
    bias_filler {
      type: "constant"
      value: 0
    }
  }
}
layer {
  name: "out"
  type: "TanH"
  bottom: "fc2"
  top: "out"
}
layer {
  name: "loss"
  type: "EuclideanLoss"
  bottom: "out"
  bottom: "labels"
  top: "loss"
}
I1207 00:58:10.941160 2039878400 layer_factory.hpp:76] Creating layer data
I1207 00:58:10.941170 2039878400 net.cpp:106] Creating Layer data
I1207 00:58:10.941175 2039878400 net.cpp:411] data -> data
I1207 00:58:10.941184 2039878400 net.cpp:411] data -> labels
I1207 00:58:10.941190 2039878400 hdf5_data_layer.cpp:79] Loading list of HDF5 filenames from: /Users/JonathanLee/Desktop/sandbox/vision/Net/hdf/test_hdf.txt
I1207 00:58:10.941218 2039878400 hdf5_data_layer.cpp:93] Number of HDF5 files: 1
I1207 00:58:10.992142 2039878400 net.cpp:150] Setting up data
I1207 00:58:10.992163 2039878400 net.cpp:157] Top shape: 120 3 125 125 (5625000)
I1207 00:58:10.992182 2039878400 net.cpp:157] Top shape: 120 4 (480)
I1207 00:58:10.992187 2039878400 net.cpp:165] Memory required for data: 22501920
I1207 00:58:10.992192 2039878400 layer_factory.hpp:76] Creating layer conv1
I1207 00:58:10.992202 2039878400 net.cpp:106] Creating Layer conv1
I1207 00:58:10.992218 2039878400 net.cpp:454] conv1 <- data
I1207 00:58:10.992231 2039878400 net.cpp:411] conv1 -> conv1
I1207 00:58:10.992352 2039878400 net.cpp:150] Setting up conv1
I1207 00:58:10.992357 2039878400 net.cpp:157] Top shape: 120 16 115 115 (25392000)
I1207 00:58:10.992373 2039878400 net.cpp:165] Memory required for data: 124069920
I1207 00:58:10.992404 2039878400 layer_factory.hpp:76] Creating layer conv2
I1207 00:58:10.992419 2039878400 net.cpp:106] Creating Layer conv2
I1207 00:58:10.992425 2039878400 net.cpp:454] conv2 <- conv1
I1207 00:58:10.992441 2039878400 net.cpp:411] conv2 -> conv2
I1207 00:58:10.992758 2039878400 net.cpp:150] Setting up conv2
I1207 00:58:10.992764 2039878400 net.cpp:157] Top shape: 120 16 53 53 (5393280)
I1207 00:58:10.992779 2039878400 net.cpp:165] Memory required for data: 145643040
I1207 00:58:10.992791 2039878400 layer_factory.hpp:76] Creating layer fc1
I1207 00:58:10.992810 2039878400 net.cpp:106] Creating Layer fc1
I1207 00:58:10.992815 2039878400 net.cpp:454] fc1 <- conv2
I1207 00:58:10.992820 2039878400 net.cpp:411] fc1 -> fc1
I1207 00:58:11.006724 2039878400 net.cpp:150] Setting up fc1
I1207 00:58:11.006762 2039878400 net.cpp:157] Top shape: 120 40 (4800)
I1207 00:58:11.006767 2039878400 net.cpp:165] Memory required for data: 145662240
I1207 00:58:11.006778 2039878400 layer_factory.hpp:76] Creating layer fc2
I1207 00:58:11.006789 2039878400 net.cpp:106] Creating Layer fc2
I1207 00:58:11.006805 2039878400 net.cpp:454] fc2 <- fc1
I1207 00:58:11.006820 2039878400 net.cpp:411] fc2 -> fc2
I1207 00:58:11.006860 2039878400 net.cpp:150] Setting up fc2
I1207 00:58:11.006863 2039878400 net.cpp:157] Top shape: 120 4 (480)
I1207 00:58:11.006867 2039878400 net.cpp:165] Memory required for data: 145664160
I1207 00:58:11.006872 2039878400 layer_factory.hpp:76] Creating layer out
I1207 00:58:11.006880 2039878400 net.cpp:106] Creating Layer out
I1207 00:58:11.006886 2039878400 net.cpp:454] out <- fc2
I1207 00:58:11.006922 2039878400 net.cpp:411] out -> out
I1207 00:58:11.006947 2039878400 net.cpp:150] Setting up out
I1207 00:58:11.006989 2039878400 net.cpp:157] Top shape: 120 4 (480)
I1207 00:58:11.006996 2039878400 net.cpp:165] Memory required for data: 145666080
I1207 00:58:11.007001 2039878400 layer_factory.hpp:76] Creating layer loss
I1207 00:58:11.007009 2039878400 net.cpp:106] Creating Layer loss
I1207 00:58:11.007014 2039878400 net.cpp:454] loss <- out
I1207 00:58:11.007017 2039878400 net.cpp:454] loss <- labels
I1207 00:58:11.007022 2039878400 net.cpp:411] loss -> loss
…
