…
I1204 18:20:07.496883 1969066752 solver.cpp:90] Creating training net from net file: /Users/JonathanLee/Desktop/sandbox/vision/Net/nets/net11/trainer11.prototxt
I1204 18:20:07.497102 1969066752 net.cpp:322] The NetState phase (0) differed from the phase (1) specified by a rule in layer data
I1204 18:20:07.497123 1969066752 net.cpp:49] Initializing net from parameters: 
name: "net"
state {
  phase: TRAIN
}
layer {
  name: "data"
  type: "HDF5Data"
  top: "data"
  top: "labels"
  include {
    phase: TRAIN
  }
  hdf5_data_param {
    source: "/Users/JonathanLee/Desktop/sandbox/vision/Net/hdf/train_hdf.txt"
    batch_size: 20
  }
}
layer {
  name: "conv1"
  type: "Convolution"
  bottom: "data"
  top: "conv1"
  param {
    lr_mult: 1
    decay_mult: 1
  }
  param {
    lr_mult: 2
    decay_mult: 0
  }
  convolution_param {
    num_output: 16
    kernel_size: 11
    stride: 1
    weight_filler {
      type: "xavier"
    }
    bias_filler {
      type: "constant"
      value: 0
    }
  }
}
layer {
  name: "conv2"
  type: "Convolution"
  bottom: "conv1"
  top: "conv2"
  param {
    lr_mult: 1
    decay_mult: 1
  }
  param {
    lr_mult: 2
    decay_mult: 0
  }
  convolution_param {
    num_output: 16
    kernel_size: 11
    stride: 2
    weight_filler {
      type: "xavier"
    }
    bias_filler {
      type: "constant"
      value: 0
    }
  }
}
layer {
  name: "fc1"
  type: "InnerProduct"
  bottom: "conv2"
  top: "fc1"
  param {
    lr_mult: 1
    decay_mult: 1
  }
  param {
    lr_mult: 2
    decay_mult: 0
  }
  inner_product_param {
    num_output: 40
    weight_filler {
      type: "xavier"
    }
    bias_filler {
      type: "constant"
      value: 0
    }
  }
}
layer {
  name: "fc2"
  type: "InnerProduct"
  bottom: "fc1"
  top: "fc2"
  param {
    lr_mult: 1
    decay_mult: 1
  }
  param {
    lr_mult: 2
    decay_mult: 0
  }
  inner_product_param {
    num_output: 4
    weight_filler {
      type: "xavier"
    }
    bias_filler {
      type: "constant"
      value: 0
    }
  }
}
layer {
  name: "out"
  type: "TanH"
  bottom: "fc2"
  top: "out"
}
layer {
  name: "loss"
  type: "EuclideanLoss"
  bottom: "out"
  bottom: "labels"
  top: "loss"
}
I1204 18:20:07.497246 1969066752 layer_factory.hpp:76] Creating layer data
I1204 18:20:07.497262 1969066752 net.cpp:106] Creating Layer data
I1204 18:20:07.497267 1969066752 net.cpp:411] data -> data
I1204 18:20:07.497287 1969066752 net.cpp:411] data -> labels
I1204 18:20:07.497301 1969066752 hdf5_data_layer.cpp:79] Loading list of HDF5 filenames from: /Users/JonathanLee/Desktop/sandbox/vision/Net/hdf/train_hdf.txt
I1204 18:20:07.497335 1969066752 hdf5_data_layer.cpp:93] Number of HDF5 files: 1
I1204 18:20:07.498388 1969066752 hdf5.cpp:32] Datatype class: H5T_FLOAT
I1204 18:20:07.503020 1969066752 net.cpp:150] Setting up data
I1204 18:20:07.503052 1969066752 net.cpp:157] Top shape: 20 3 125 125 (937500)
I1204 18:20:07.503062 1969066752 net.cpp:157] Top shape: 20 4 (80)
I1204 18:20:07.503065 1969066752 net.cpp:165] Memory required for data: 3750320
I1204 18:20:07.503072 1969066752 layer_factory.hpp:76] Creating layer conv1
I1204 18:20:07.503082 1969066752 net.cpp:106] Creating Layer conv1
I1204 18:20:07.503099 1969066752 net.cpp:454] conv1 <- data
I1204 18:20:07.503106 1969066752 net.cpp:411] conv1 -> conv1
I1204 18:20:07.507256 1969066752 net.cpp:150] Setting up conv1
I1204 18:20:07.507262 1969066752 net.cpp:157] Top shape: 20 16 115 115 (4232000)
I1204 18:20:07.507278 1969066752 net.cpp:165] Memory required for data: 20678320
I1204 18:20:07.507287 1969066752 layer_factory.hpp:76] Creating layer conv2
I1204 18:20:07.507293 1969066752 net.cpp:106] Creating Layer conv2
I1204 18:20:07.507308 1969066752 net.cpp:454] conv2 <- conv1
I1204 18:20:07.507339 1969066752 net.cpp:411] conv2 -> conv2
I1204 18:20:07.507724 1969066752 net.cpp:150] Setting up conv2
I1204 18:20:07.507735 1969066752 net.cpp:157] Top shape: 20 16 53 53 (898880)
I1204 18:20:07.507750 1969066752 net.cpp:165] Memory required for data: 24273840
I1204 18:20:07.507757 1969066752 layer_factory.hpp:76] Creating layer fc1
I1204 18:20:07.507766 1969066752 net.cpp:106] Creating Layer fc1
I1204 18:20:07.507781 1969066752 net.cpp:454] fc1 <- conv2
I1204 18:20:07.507792 1969066752 net.cpp:411] fc1 -> fc1
I1204 18:20:07.521821 1969066752 net.cpp:150] Setting up fc1
I1204 18:20:07.521839 1969066752 net.cpp:157] Top shape: 20 40 (800)
I1204 18:20:07.521855 1969066752 net.cpp:165] Memory required for data: 24277040
I1204 18:20:07.521874 1969066752 layer_factory.hpp:76] Creating layer fc2
I1204 18:20:07.521885 1969066752 net.cpp:106] Creating Layer fc2
I1204 18:20:07.521889 1969066752 net.cpp:454] fc2 <- fc1
I1204 18:20:07.521905 1969066752 net.cpp:411] fc2 -> fc2
I1204 18:20:07.521931 1969066752 net.cpp:150] Setting up fc2
I1204 18:20:07.521935 1969066752 net.cpp:157] Top shape: 20 4 (80)
I1204 18:20:07.521939 1969066752 net.cpp:165] Memory required for data: 24277360
I1204 18:20:07.521944 1969066752 layer_factory.hpp:76] Creating layer out
I1204 18:20:07.521950 1969066752 net.cpp:106] Creating Layer out
I1204 18:20:07.521955 1969066752 net.cpp:454] out <- fc2
I1204 18:20:07.521965 1969066752 net.cpp:411] out -> out
I1204 18:20:07.521972 1969066752 net.cpp:150] Setting up out
I1204 18:20:07.521976 1969066752 net.cpp:157] Top shape: 20 4 (80)
I1204 18:20:07.521981 1969066752 net.cpp:165] Memory required for data: 24277680
I1204 18:20:07.521984 1969066752 layer_factory.hpp:76] Creating layer loss
I1204 18:20:07.521989 1969066752 net.cpp:106] Creating Layer loss
I1204 18:20:07.521993 1969066752 net.cpp:454] loss <- out
I1204 18:20:07.521997 1969066752 net.cpp:454] loss <- labels
I1204 18:20:07.522001 1969066752 net.cpp:411] loss -> loss
…
I1204 18:20:07.522326 1969066752 solver.cpp:180] Creating test net (#0) specified by net file: /Users/JonathanLee/Desktop/sandbox/vision/Net/nets/net11/trainer11.prototxt
I1204 18:20:07.522367 1969066752 net.cpp:322] The NetState phase (1) differed from the phase (0) specified by a rule in layer data
I1204 18:20:07.522378 1969066752 net.cpp:49] Initializing net from parameters: 
name: "net"
state {
  phase: TEST
}
layer {
  name: "data"
  type: "HDF5Data"
  top: "data"
  top: "labels"
  include {
    phase: TEST
  }
  hdf5_data_param {
    source: "/Users/JonathanLee/Desktop/sandbox/vision/Net/hdf/test_hdf.txt"
    batch_size: 10
  }
}
layer {
  name: "conv1"
  type: "Convolution"
  bottom: "data"
  top: "conv1"
  param {
    lr_mult: 1
    decay_mult: 1
  }
  param {
    lr_mult: 2
    decay_mult: 0
  }
  convolution_param {
    num_output: 16
    kernel_size: 11
    stride: 1
    weight_filler {
      type: "xavier"
    }
    bias_filler {
      type: "constant"
      value: 0
    }
  }
}
layer {
  name: "conv2"
  type: "Convolution"
  bottom: "conv1"
  top: "conv2"
  param {
    lr_mult: 1
    decay_mult: 1
  }
  param {
    lr_mult: 2
    decay_mult: 0
  }
  convolution_param {
    num_output: 16
    kernel_size: 11
    stride: 2
    weight_filler {
      type: "xavier"
    }
    bias_filler {
      type: "constant"
      value: 0
    }
  }
}
layer {
  name: "fc1"
  type: "InnerProduct"
  bottom: "conv2"
  top: "fc1"
  param {
    lr_mult: 1
    decay_mult: 1
  }
  param {
    lr_mult: 2
    decay_mult: 0
  }
  inner_product_param {
    num_output: 40
    weight_filler {
      type: "xavier"
    }
    bias_filler {
      type: "constant"
      value: 0
    }
  }
}
layer {
  name: "fc2"
  type: "InnerProduct"
  bottom: "fc1"
  top: "fc2"
  param {
    lr_mult: 1
    decay_mult: 1
  }
  param {
    lr_mult: 2
    decay_mult: 0
  }
  inner_product_param {
    num_output: 4
    weight_filler {
      type: "xavier"
    }
    bias_filler {
      type: "constant"
      value: 0
    }
  }
}
layer {
  name: "out"
  type: "TanH"
  bottom: "fc2"
  top: "out"
}
layer {
  name: "loss"
  type: "EuclideanLoss"
  bottom: "out"
  bottom: "labels"
  top: "loss"
}
I1204 18:20:07.522516 1969066752 layer_factory.hpp:76] Creating layer data
I1204 18:20:07.522524 1969066752 net.cpp:106] Creating Layer data
I1204 18:20:07.522529 1969066752 net.cpp:411] data -> data
I1204 18:20:07.522536 1969066752 net.cpp:411] data -> labels
I1204 18:20:07.522543 1969066752 hdf5_data_layer.cpp:79] Loading list of HDF5 filenames from: /Users/JonathanLee/Desktop/sandbox/vision/Net/hdf/test_hdf.txt
I1204 18:20:07.522591 1969066752 hdf5_data_layer.cpp:93] Number of HDF5 files: 1
I1204 18:20:07.525208 1969066752 net.cpp:150] Setting up data
I1204 18:20:07.525231 1969066752 net.cpp:157] Top shape: 10 3 125 125 (468750)
I1204 18:20:07.525249 1969066752 net.cpp:157] Top shape: 10 4 (40)
I1204 18:20:07.525252 1969066752 net.cpp:165] Memory required for data: 1875160
I1204 18:20:07.525259 1969066752 layer_factory.hpp:76] Creating layer conv1
I1204 18:20:07.525269 1969066752 net.cpp:106] Creating Layer conv1
I1204 18:20:07.525272 1969066752 net.cpp:454] conv1 <- data
I1204 18:20:07.525296 1969066752 net.cpp:411] conv1 -> conv1
I1204 18:20:07.525419 1969066752 net.cpp:150] Setting up conv1
I1204 18:20:07.525424 1969066752 net.cpp:157] Top shape: 10 16 115 115 (2116000)
I1204 18:20:07.525440 1969066752 net.cpp:165] Memory required for data: 10339160
I1204 18:20:07.525449 1969066752 layer_factory.hpp:76] Creating layer conv2
I1204 18:20:07.525454 1969066752 net.cpp:106] Creating Layer conv2
I1204 18:20:07.525460 1969066752 net.cpp:454] conv2 <- conv1
I1204 18:20:07.525466 1969066752 net.cpp:411] conv2 -> conv2
I1204 18:20:07.525745 1969066752 net.cpp:150] Setting up conv2
I1204 18:20:07.525749 1969066752 net.cpp:157] Top shape: 10 16 53 53 (449440)
I1204 18:20:07.525764 1969066752 net.cpp:165] Memory required for data: 12136920
I1204 18:20:07.525770 1969066752 layer_factory.hpp:76] Creating layer fc1
I1204 18:20:07.525776 1969066752 net.cpp:106] Creating Layer fc1
I1204 18:20:07.525780 1969066752 net.cpp:454] fc1 <- conv2
I1204 18:20:07.525799 1969066752 net.cpp:411] fc1 -> fc1
I1204 18:20:07.540228 1969066752 net.cpp:150] Setting up fc1
I1204 18:20:07.540246 1969066752 net.cpp:157] Top shape: 10 40 (400)
I1204 18:20:07.540261 1969066752 net.cpp:165] Memory required for data: 12138520
I1204 18:20:07.540331 1969066752 layer_factory.hpp:76] Creating layer fc2
I1204 18:20:07.540346 1969066752 net.cpp:106] Creating Layer fc2
I1204 18:20:07.540351 1969066752 net.cpp:454] fc2 <- fc1
I1204 18:20:07.540357 1969066752 net.cpp:411] fc2 -> fc2
I1204 18:20:07.540377 1969066752 net.cpp:150] Setting up fc2
I1204 18:20:07.540391 1969066752 net.cpp:157] Top shape: 10 4 (40)
I1204 18:20:07.540395 1969066752 net.cpp:165] Memory required for data: 12138680
I1204 18:20:07.540411 1969066752 layer_factory.hpp:76] Creating layer out
I1204 18:20:07.540417 1969066752 net.cpp:106] Creating Layer out
I1204 18:20:07.540421 1969066752 net.cpp:454] out <- fc2
I1204 18:20:07.540424 1969066752 net.cpp:411] out -> out
I1204 18:20:07.540431 1969066752 net.cpp:150] Setting up out
I1204 18:20:07.540436 1969066752 net.cpp:157] Top shape: 10 4 (40)
I1204 18:20:07.540465 1969066752 net.cpp:165] Memory required for data: 12138840
I1204 18:20:07.540479 1969066752 layer_factory.hpp:76] Creating layer loss
I1204 18:20:07.540485 1969066752 net.cpp:106] Creating Layer loss
I1204 18:20:07.540499 1969066752 net.cpp:454] loss <- out
I1204 18:20:07.540509 1969066752 net.cpp:454] loss <- labels
I1204 18:20:07.540518 1969066752 net.cpp:411] loss -> loss
…
