…
I1204 04:17:17.551312 1969066752 solver.cpp:90] Creating training net from net file: /Users/JonathanLee/Desktop/sandbox/vision/Net/nets/net10/trainer.prototxt
I1204 04:17:17.551600 1969066752 net.cpp:322] The NetState phase (0) differed from the phase (1) specified by a rule in layer data
I1204 04:17:17.551620 1969066752 net.cpp:49] Initializing net from parameters: 
name: "net"
state {
  phase: TRAIN
}
layer {
  name: "data"
  type: "HDF5Data"
  top: "data"
  top: "labels"
  include {
    phase: TRAIN
  }
  hdf5_data_param {
    source: "/Users/JonathanLee/Desktop/sandbox/vision/Net/hdf/train_hdf.txt"
    batch_size: 450
  }
}
layer {
  name: "conv1"
  type: "Convolution"
  bottom: "data"
  top: "conv1"
  param {
    lr_mult: 1
    decay_mult: 1
  }
  param {
    lr_mult: 2
    decay_mult: 0
  }
  convolution_param {
    num_output: 16
    kernel_size: 11
    stride: 1
    weight_filler {
      type: "xavier"
    }
    bias_filler {
      type: "constant"
      value: 0
    }
  }
}
layer {
  name: "reluConv"
  type: "ReLU"
  bottom: "conv1"
  top: "conv1"
}
layer {
  name: "conv2"
  type: "Convolution"
  bottom: "conv1"
  top: "conv2"
  param {
    lr_mult: 1
    decay_mult: 1
  }
  param {
    lr_mult: 2
    decay_mult: 0
  }
  convolution_param {
    num_output: 16
    kernel_size: 11
    stride: 2
    weight_filler {
      type: "xavier"
    }
    bias_filler {
      type: "constant"
      value: 0
    }
  }
}
layer {
  name: "fc1"
  type: "InnerProduct"
  bottom: "conv2"
  top: "fc1"
  param {
    lr_mult: 1
    decay_mult: 1
  }
  param {
    lr_mult: 2
    decay_mult: 0
  }
  inner_product_param {
    num_output: 40
    weight_filler {
      type: "xavier"
    }
    bias_filler {
      type: "constant"
      value: 0
    }
  }
}
layer {
  name: "relu1"
  type: "ReLU"
  bottom: "fc1"
  top: "relu1"
}
layer {
  name: "fc2"
  type: "InnerProduct"
  bottom: "relu1"
  top: "fc2"
  param {
    lr_mult: 1
    decay_mult: 1
  }
  param {
    lr_mult: 2
    decay_mult: 0
  }
  inner_product_param {
    num_output: 4
    weight_filler {
      type: "xavier"
    }
    bias_filler {
      type: "constant"
      value: 0
    }
  }
}
layer {
  name: "tanh"
  type: "TanH"
  bottom: "fc2"
  top: "tanh"
}
layer {
  name: "loss"
  type: "EuclideanLoss"
  bottom: "tanh"
  bottom: "labels"
  top: "loss"
}
I1204 04:17:17.552817 1969066752 layer_factory.hpp:76] Creating layer data
I1204 04:17:17.552866 1969066752 net.cpp:106] Creating Layer data
I1204 04:17:17.552883 1969066752 net.cpp:411] data -> data
I1204 04:17:17.552916 1969066752 net.cpp:411] data -> labels
I1204 04:17:17.552937 1969066752 hdf5_data_layer.cpp:79] Loading list of HDF5 filenames from: /Users/JonathanLee/Desktop/sandbox/vision/Net/hdf/train_hdf.txt
I1204 04:17:17.553005 1969066752 hdf5_data_layer.cpp:93] Number of HDF5 files: 1
I1204 04:17:17.554015 1969066752 hdf5.cpp:32] Datatype class: H5T_FLOAT
I1204 04:17:17.807966 1969066752 net.cpp:150] Setting up data
I1204 04:17:17.807989 1969066752 net.cpp:157] Top shape: 450 3 125 125 (21093750)
I1204 04:17:17.807999 1969066752 net.cpp:157] Top shape: 450 4 (1800)
I1204 04:17:17.808004 1969066752 net.cpp:165] Memory required for data: 84382200
I1204 04:17:17.808012 1969066752 layer_factory.hpp:76] Creating layer conv1
I1204 04:17:17.808023 1969066752 net.cpp:106] Creating Layer conv1
I1204 04:17:17.808045 1969066752 net.cpp:454] conv1 <- data
I1204 04:17:17.808065 1969066752 net.cpp:411] conv1 -> conv1
I1204 04:17:17.813724 1969066752 net.cpp:150] Setting up conv1
I1204 04:17:17.813763 1969066752 net.cpp:157] Top shape: 450 16 115 115 (95220000)
I1204 04:17:17.813783 1969066752 net.cpp:165] Memory required for data: 465262200
I1204 04:17:17.813825 1969066752 layer_factory.hpp:76] Creating layer reluConv
I1204 04:17:17.813926 1969066752 net.cpp:106] Creating Layer reluConv
I1204 04:17:17.813948 1969066752 net.cpp:454] reluConv <- conv1
I1204 04:17:17.813961 1969066752 net.cpp:397] reluConv -> conv1 (in-place)
I1204 04:17:17.813998 1969066752 net.cpp:150] Setting up reluConv
I1204 04:17:17.814013 1969066752 net.cpp:157] Top shape: 450 16 115 115 (95220000)
I1204 04:17:17.814074 1969066752 net.cpp:165] Memory required for data: 846142200
I1204 04:17:17.814086 1969066752 layer_factory.hpp:76] Creating layer conv2
I1204 04:17:17.814096 1969066752 net.cpp:106] Creating Layer conv2
I1204 04:17:17.814101 1969066752 net.cpp:454] conv2 <- conv1
I1204 04:17:17.814136 1969066752 net.cpp:411] conv2 -> conv2
I1204 04:17:17.814476 1969066752 net.cpp:150] Setting up conv2
I1204 04:17:17.814483 1969066752 net.cpp:157] Top shape: 450 16 53 53 (20224800)
I1204 04:17:17.814491 1969066752 net.cpp:165] Memory required for data: 927041400
I1204 04:17:17.814498 1969066752 layer_factory.hpp:76] Creating layer fc1
I1204 04:17:17.814507 1969066752 net.cpp:106] Creating Layer fc1
I1204 04:17:17.814541 1969066752 net.cpp:454] fc1 <- conv2
I1204 04:17:17.814564 1969066752 net.cpp:411] fc1 -> fc1
I1204 04:17:17.833838 1969066752 net.cpp:150] Setting up fc1
I1204 04:17:17.833858 1969066752 net.cpp:157] Top shape: 450 40 (18000)
I1204 04:17:17.833863 1969066752 net.cpp:165] Memory required for data: 927113400
I1204 04:17:17.833871 1969066752 layer_factory.hpp:76] Creating layer relu1
I1204 04:17:17.833885 1969066752 net.cpp:106] Creating Layer relu1
I1204 04:17:17.833890 1969066752 net.cpp:454] relu1 <- fc1
I1204 04:17:17.833896 1969066752 net.cpp:411] relu1 -> relu1
I1204 04:17:17.833936 1969066752 net.cpp:150] Setting up relu1
I1204 04:17:17.833958 1969066752 net.cpp:157] Top shape: 450 40 (18000)
I1204 04:17:17.833983 1969066752 net.cpp:165] Memory required for data: 927185400
I1204 04:17:17.833999 1969066752 layer_factory.hpp:76] Creating layer fc2
I1204 04:17:17.834012 1969066752 net.cpp:106] Creating Layer fc2
I1204 04:17:17.834018 1969066752 net.cpp:454] fc2 <- relu1
I1204 04:17:17.834050 1969066752 net.cpp:411] fc2 -> fc2
I1204 04:17:17.834108 1969066752 net.cpp:150] Setting up fc2
I1204 04:17:17.834139 1969066752 net.cpp:157] Top shape: 450 4 (1800)
I1204 04:17:17.834151 1969066752 net.cpp:165] Memory required for data: 927192600
I1204 04:17:17.834161 1969066752 layer_factory.hpp:76] Creating layer tanh
I1204 04:17:17.834170 1969066752 net.cpp:106] Creating Layer tanh
I1204 04:17:17.834177 1969066752 net.cpp:454] tanh <- fc2
I1204 04:17:17.834185 1969066752 net.cpp:411] tanh -> tanh
I1204 04:17:17.834194 1969066752 net.cpp:150] Setting up tanh
I1204 04:17:17.834219 1969066752 net.cpp:157] Top shape: 450 4 (1800)
I1204 04:17:17.834228 1969066752 net.cpp:165] Memory required for data: 927199800
I1204 04:17:17.834236 1969066752 layer_factory.hpp:76] Creating layer loss
I1204 04:17:17.834246 1969066752 net.cpp:106] Creating Layer loss
I1204 04:17:17.834254 1969066752 net.cpp:454] loss <- tanh
I1204 04:17:17.834261 1969066752 net.cpp:454] loss <- labels
I1204 04:17:17.834270 1969066752 net.cpp:411] loss -> loss
…
I1204 04:17:17.834754 1969066752 solver.cpp:180] Creating test net (#0) specified by net file: /Users/JonathanLee/Desktop/sandbox/vision/Net/nets/net10/trainer.prototxt
I1204 04:17:17.834810 1969066752 net.cpp:322] The NetState phase (1) differed from the phase (0) specified by a rule in layer data
I1204 04:17:17.834837 1969066752 net.cpp:49] Initializing net from parameters: 
name: "net"
state {
  phase: TEST
}
layer {
  name: "data"
  type: "HDF5Data"
  top: "data"
  top: "labels"
  include {
    phase: TEST
  }
  hdf5_data_param {
    source: "/Users/JonathanLee/Desktop/sandbox/vision/Net/hdf/test_hdf.txt"
    batch_size: 120
  }
}
layer {
  name: "conv1"
  type: "Convolution"
  bottom: "data"
  top: "conv1"
  param {
    lr_mult: 1
    decay_mult: 1
  }
  param {
    lr_mult: 2
    decay_mult: 0
  }
  convolution_param {
    num_output: 16
    kernel_size: 11
    stride: 1
    weight_filler {
      type: "xavier"
    }
    bias_filler {
      type: "constant"
      value: 0
    }
  }
}
layer {
  name: "reluConv"
  type: "ReLU"
  bottom: "conv1"
  top: "conv1"
}
layer {
  name: "conv2"
  type: "Convolution"
  bottom: "conv1"
  top: "conv2"
  param {
    lr_mult: 1
    decay_mult: 1
  }
  param {
    lr_mult: 2
    decay_mult: 0
  }
  convolution_param {
    num_output: 16
    kernel_size: 11
    stride: 2
    weight_filler {
      type: "xavier"
    }
    bias_filler {
      type: "constant"
      value: 0
    }
  }
}
layer {
  name: "fc1"
  type: "InnerProduct"
  bottom: "conv2"
  top: "fc1"
  param {
    lr_mult: 1
    decay_mult: 1
  }
  param {
    lr_mult: 2
    decay_mult: 0
  }
  inner_product_param {
    num_output: 40
    weight_filler {
      type: "xavier"
    }
    bias_filler {
      type: "constant"
      value: 0
    }
  }
}
layer {
  name: "relu1"
  type: "ReLU"
  bottom: "fc1"
  top: "relu1"
}
layer {
  name: "fc2"
  type: "InnerProduct"
  bottom: "relu1"
  top: "fc2"
  param {
    lr_mult: 1
    decay_mult: 1
  }
  param {
    lr_mult: 2
    decay_mult: 0
  }
  inner_product_param {
    num_output: 4
    weight_filler {
      type: "xavier"
    }
    bias_filler {
      type: "constant"
      value: 0
    }
  }
}
layer {
  name: "tanh"
  type: "TanH"
  bottom: "fc2"
  top: "tanh"
}
layer {
  name: "loss"
  type: "EuclideanLoss"
  bottom: "tanh"
  bottom: "labels"
  top: "loss"
}
I1204 04:17:17.834987 1969066752 layer_factory.hpp:76] Creating layer data
I1204 04:17:17.835001 1969066752 net.cpp:106] Creating Layer data
I1204 04:17:17.835031 1969066752 net.cpp:411] data -> data
I1204 04:17:17.835047 1969066752 net.cpp:411] data -> labels
I1204 04:17:17.835057 1969066752 hdf5_data_layer.cpp:79] Loading list of HDF5 filenames from: /Users/JonathanLee/Desktop/sandbox/vision/Net/hdf/test_hdf.txt
I1204 04:17:17.835106 1969066752 hdf5_data_layer.cpp:93] Number of HDF5 files: 1
I1204 04:17:17.915272 1969066752 net.cpp:150] Setting up data
I1204 04:17:17.915328 1969066752 net.cpp:157] Top shape: 120 3 125 125 (5625000)
I1204 04:17:17.915336 1969066752 net.cpp:157] Top shape: 120 4 (480)
I1204 04:17:17.915340 1969066752 net.cpp:165] Memory required for data: 22501920
I1204 04:17:17.915348 1969066752 layer_factory.hpp:76] Creating layer conv1
I1204 04:17:17.915364 1969066752 net.cpp:106] Creating Layer conv1
I1204 04:17:17.915380 1969066752 net.cpp:454] conv1 <- data
I1204 04:17:17.915446 1969066752 net.cpp:411] conv1 -> conv1
I1204 04:17:17.915593 1969066752 net.cpp:150] Setting up conv1
I1204 04:17:17.915604 1969066752 net.cpp:157] Top shape: 120 16 115 115 (25392000)
I1204 04:17:17.915616 1969066752 net.cpp:165] Memory required for data: 124069920
I1204 04:17:17.915663 1969066752 layer_factory.hpp:76] Creating layer reluConv
I1204 04:17:17.915698 1969066752 net.cpp:106] Creating Layer reluConv
I1204 04:17:17.915705 1969066752 net.cpp:454] reluConv <- conv1
I1204 04:17:17.915721 1969066752 net.cpp:397] reluConv -> conv1 (in-place)
I1204 04:17:17.915784 1969066752 net.cpp:150] Setting up reluConv
I1204 04:17:17.915803 1969066752 net.cpp:157] Top shape: 120 16 115 115 (25392000)
I1204 04:17:17.915825 1969066752 net.cpp:165] Memory required for data: 225637920
I1204 04:17:17.915833 1969066752 layer_factory.hpp:76] Creating layer conv2
I1204 04:17:17.915848 1969066752 net.cpp:106] Creating Layer conv2
I1204 04:17:17.915853 1969066752 net.cpp:454] conv2 <- conv1
I1204 04:17:17.915865 1969066752 net.cpp:411] conv2 -> conv2
I1204 04:17:17.916151 1969066752 net.cpp:150] Setting up conv2
I1204 04:17:17.916159 1969066752 net.cpp:157] Top shape: 120 16 53 53 (5393280)
I1204 04:17:17.916165 1969066752 net.cpp:165] Memory required for data: 247211040
I1204 04:17:17.916173 1969066752 layer_factory.hpp:76] Creating layer fc1
I1204 04:17:17.916182 1969066752 net.cpp:106] Creating Layer fc1
I1204 04:17:17.916188 1969066752 net.cpp:454] fc1 <- conv2
I1204 04:17:17.916198 1969066752 net.cpp:411] fc1 -> fc1
I1204 04:17:17.935525 1969066752 net.cpp:150] Setting up fc1
I1204 04:17:17.935544 1969066752 net.cpp:157] Top shape: 120 40 (4800)
I1204 04:17:17.935549 1969066752 net.cpp:165] Memory required for data: 247230240
I1204 04:17:17.935557 1969066752 layer_factory.hpp:76] Creating layer relu1
I1204 04:17:17.935565 1969066752 net.cpp:106] Creating Layer relu1
I1204 04:17:17.935570 1969066752 net.cpp:454] relu1 <- fc1
I1204 04:17:17.935575 1969066752 net.cpp:411] relu1 -> relu1
I1204 04:17:17.935623 1969066752 net.cpp:150] Setting up relu1
I1204 04:17:17.935641 1969066752 net.cpp:157] Top shape: 120 40 (4800)
I1204 04:17:17.935662 1969066752 net.cpp:165] Memory required for data: 247249440
I1204 04:17:17.935672 1969066752 layer_factory.hpp:76] Creating layer fc2
I1204 04:17:17.935690 1969066752 net.cpp:106] Creating Layer fc2
I1204 04:17:17.935703 1969066752 net.cpp:454] fc2 <- relu1
I1204 04:17:17.935725 1969066752 net.cpp:411] fc2 -> fc2
I1204 04:17:17.935763 1969066752 net.cpp:150] Setting up fc2
I1204 04:17:17.935771 1969066752 net.cpp:157] Top shape: 120 4 (480)
I1204 04:17:17.935780 1969066752 net.cpp:165] Memory required for data: 247251360
I1204 04:17:17.935788 1969066752 layer_factory.hpp:76] Creating layer tanh
I1204 04:17:17.935799 1969066752 net.cpp:106] Creating Layer tanh
I1204 04:17:17.935807 1969066752 net.cpp:454] tanh <- fc2
I1204 04:17:17.935817 1969066752 net.cpp:411] tanh -> tanh
I1204 04:17:17.935837 1969066752 net.cpp:150] Setting up tanh
I1204 04:17:17.935855 1969066752 net.cpp:157] Top shape: 120 4 (480)
I1204 04:17:17.935878 1969066752 net.cpp:165] Memory required for data: 247253280
I1204 04:17:17.935892 1969066752 layer_factory.hpp:76] Creating layer loss
I1204 04:17:17.935924 1969066752 net.cpp:106] Creating Layer loss
I1204 04:17:17.935940 1969066752 net.cpp:454] loss <- tanh
I1204 04:17:17.935955 1969066752 net.cpp:454] loss <- labels
I1204 04:17:17.935966 1969066752 net.cpp:411] loss -> loss
…
