…
I1203 17:27:48.647797 1969066752 solver.cpp:90] Creating training net from net file: /Users/JonathanLee/Desktop/sandbox/vision/Net/trainer.prototxt
I1203 17:27:48.648037 1969066752 net.cpp:322] The NetState phase (0) differed from the phase (1) specified by a rule in layer data
I1203 17:27:48.648064 1969066752 net.cpp:49] Initializing net from parameters: 
name: "net"
state {
  phase: TRAIN
}
layer {
  name: "data"
  type: "HDF5Data"
  top: "data"
  top: "labels"
  include {
    phase: TRAIN
  }
  hdf5_data_param {
    source: "/Users/JonathanLee/Desktop/sandbox/vision/Net/hdf/train_hdf.txt"
    batch_size: 450
  }
}
layer {
  name: "conv1"
  type: "Convolution"
  bottom: "data"
  top: "conv1"
  param {
    lr_mult: 1
    decay_mult: 1
  }
  param {
    lr_mult: 2
    decay_mult: 0
  }
  convolution_param {
    num_output: 16
    kernel_size: 11
    stride: 1
    weight_filler {
      type: "xavier"
    }
    bias_filler {
      type: "constant"
      value: 0
    }
  }
}
layer {
  name: "reluConv"
  type: "ReLU"
  bottom: "conv1"
  top: "conv1"
}
layer {
  name: "conv2"
  type: "Convolution"
  bottom: "conv1"
  top: "conv2"
  param {
    lr_mult: 1
    decay_mult: 1
  }
  param {
    lr_mult: 2
    decay_mult: 0
  }
  convolution_param {
    num_output: 16
    kernel_size: 11
    stride: 2
    weight_filler {
      type: "xavier"
    }
    bias_filler {
      type: "constant"
      value: 0
    }
  }
}
layer {
  name: "fc1"
  type: "InnerProduct"
  bottom: "conv2"
  top: "fc1"
  param {
    lr_mult: 1
    decay_mult: 1
  }
  param {
    lr_mult: 2
    decay_mult: 0
  }
  inner_product_param {
    num_output: 40
    weight_filler {
      type: "xavier"
    }
    bias_filler {
      type: "constant"
      value: 0
    }
  }
}
layer {
  name: "tanh1"
  type: "TanH"
  bottom: "fc1"
  top: "tanh1"
}
layer {
  name: "fc2"
  type: "InnerProduct"
  bottom: "tanh1"
  top: "fc2"
  param {
    lr_mult: 1
    decay_mult: 1
  }
  param {
    lr_mult: 2
    decay_mult: 0
  }
  inner_product_param {
    num_output: 4
    weight_filler {
      type: "xavier"
    }
    bias_filler {
      type: "constant"
      value: 0
    }
  }
}
layer {
  name: "tanh"
  type: "TanH"
  bottom: "fc2"
  top: "tanh"
}
layer {
  name: "loss"
  type: "EuclideanLoss"
  bottom: "tanh"
  bottom: "labels"
  top: "loss"
}
I1203 17:27:48.648229 1969066752 layer_factory.hpp:76] Creating layer data
I1203 17:27:48.648242 1969066752 net.cpp:106] Creating Layer data
I1203 17:27:48.648247 1969066752 net.cpp:411] data -> data
I1203 17:27:48.648264 1969066752 net.cpp:411] data -> labels
I1203 17:27:48.648279 1969066752 hdf5_data_layer.cpp:79] Loading list of HDF5 filenames from: /Users/JonathanLee/Desktop/sandbox/vision/Net/hdf/train_hdf.txt
I1203 17:27:48.648314 1969066752 hdf5_data_layer.cpp:93] Number of HDF5 files: 1
I1203 17:27:48.670055 1969066752 hdf5.cpp:32] Datatype class: H5T_FLOAT
I1203 17:27:49.457767 1969066752 net.cpp:150] Setting up data
I1203 17:27:49.457793 1969066752 net.cpp:157] Top shape: 450 3 250 250 (84375000)
I1203 17:27:49.457803 1969066752 net.cpp:157] Top shape: 450 4 (1800)
I1203 17:27:49.457808 1969066752 net.cpp:165] Memory required for data: 337507200
I1203 17:27:49.457815 1969066752 layer_factory.hpp:76] Creating layer conv1
I1203 17:27:49.457825 1969066752 net.cpp:106] Creating Layer conv1
I1203 17:27:49.457831 1969066752 net.cpp:454] conv1 <- data
I1203 17:27:49.457839 1969066752 net.cpp:411] conv1 -> conv1
I1203 17:27:49.462069 1969066752 net.cpp:150] Setting up conv1
I1203 17:27:49.462077 1969066752 net.cpp:157] Top shape: 450 16 240 240 (414720000)
I1203 17:27:49.462093 1969066752 net.cpp:165] Memory required for data: 1996387200
I1203 17:27:49.462142 1969066752 layer_factory.hpp:76] Creating layer reluConv
I1203 17:27:49.462194 1969066752 net.cpp:106] Creating Layer reluConv
I1203 17:27:49.462201 1969066752 net.cpp:454] reluConv <- conv1
I1203 17:27:49.462239 1969066752 net.cpp:397] reluConv -> conv1 (in-place)
I1203 17:27:49.462254 1969066752 net.cpp:150] Setting up reluConv
I1203 17:27:49.462267 1969066752 net.cpp:157] Top shape: 450 16 240 240 (414720000)
I1203 17:27:49.462272 1969066752 net.cpp:165] Memory required for data: 3655267200
I1203 17:27:49.462287 1969066752 layer_factory.hpp:76] Creating layer conv2
I1203 17:27:49.462296 1969066752 net.cpp:106] Creating Layer conv2
I1203 17:27:49.462298 1969066752 net.cpp:454] conv2 <- conv1
I1203 17:27:49.462304 1969066752 net.cpp:411] conv2 -> conv2
I1203 17:27:49.462687 1969066752 net.cpp:150] Setting up conv2
I1203 17:27:49.462697 1969066752 net.cpp:157] Top shape: 450 16 115 115 (95220000)
I1203 17:27:49.462714 1969066752 net.cpp:165] Memory required for data: 4036147200
I1203 17:27:49.462721 1969066752 layer_factory.hpp:76] Creating layer fc1
I1203 17:27:49.462741 1969066752 net.cpp:106] Creating Layer fc1
I1203 17:27:49.462745 1969066752 net.cpp:454] fc1 <- conv2
I1203 17:27:49.462751 1969066752 net.cpp:411] fc1 -> fc1
I1203 17:27:49.530269 1969066752 net.cpp:150] Setting up fc1
I1203 17:27:49.530293 1969066752 net.cpp:157] Top shape: 450 40 (18000)
I1203 17:27:49.530309 1969066752 net.cpp:165] Memory required for data: 4036219200
I1203 17:27:49.530319 1969066752 layer_factory.hpp:76] Creating layer tanh1
I1203 17:27:49.530329 1969066752 net.cpp:106] Creating Layer tanh1
I1203 17:27:49.530333 1969066752 net.cpp:454] tanh1 <- fc1
I1203 17:27:49.530339 1969066752 net.cpp:411] tanh1 -> tanh1
I1203 17:27:49.530359 1969066752 net.cpp:150] Setting up tanh1
I1203 17:27:49.530362 1969066752 net.cpp:157] Top shape: 450 40 (18000)
I1203 17:27:49.530366 1969066752 net.cpp:165] Memory required for data: 4036291200
I1203 17:27:49.530369 1969066752 layer_factory.hpp:76] Creating layer fc2
I1203 17:27:49.530385 1969066752 net.cpp:106] Creating Layer fc2
I1203 17:27:49.530400 1969066752 net.cpp:454] fc2 <- tanh1
I1203 17:27:49.530405 1969066752 net.cpp:411] fc2 -> fc2
I1203 17:27:49.530431 1969066752 net.cpp:150] Setting up fc2
I1203 17:27:49.530434 1969066752 net.cpp:157] Top shape: 450 4 (1800)
I1203 17:27:49.530441 1969066752 net.cpp:165] Memory required for data: 4036298400
I1203 17:27:49.530450 1969066752 layer_factory.hpp:76] Creating layer tanh
I1203 17:27:49.530455 1969066752 net.cpp:106] Creating Layer tanh
I1203 17:27:49.530459 1969066752 net.cpp:454] tanh <- fc2
I1203 17:27:49.530467 1969066752 net.cpp:411] tanh -> tanh
I1203 17:27:49.530472 1969066752 net.cpp:150] Setting up tanh
I1203 17:27:49.530477 1969066752 net.cpp:157] Top shape: 450 4 (1800)
I1203 17:27:49.530480 1969066752 net.cpp:165] Memory required for data: 4036305600
I1203 17:27:49.530483 1969066752 layer_factory.hpp:76] Creating layer loss
I1203 17:27:49.530490 1969066752 net.cpp:106] Creating Layer loss
I1203 17:27:49.530494 1969066752 net.cpp:454] loss <- tanh
I1203 17:27:49.530498 1969066752 net.cpp:454] loss <- labels
I1203 17:27:49.530503 1969066752 net.cpp:411] loss -> loss
…
I1203 17:27:49.530899 1969066752 solver.cpp:180] Creating test net (#0) specified by net file: /Users/JonathanLee/Desktop/sandbox/vision/Net/trainer.prototxt
I1203 17:27:49.530930 1969066752 net.cpp:322] The NetState phase (1) differed from the phase (0) specified by a rule in layer data
I1203 17:27:49.530949 1969066752 net.cpp:49] Initializing net from parameters: 
name: "net"
state {
  phase: TEST
}
layer {
  name: "data"
  type: "HDF5Data"
  top: "data"
  top: "labels"
  include {
    phase: TEST
  }
  hdf5_data_param {
    source: "/Users/JonathanLee/Desktop/sandbox/vision/Net/hdf/test_hdf.txt"
    batch_size: 120
  }
}
layer {
  name: "conv1"
  type: "Convolution"
  bottom: "data"
  top: "conv1"
  param {
    lr_mult: 1
    decay_mult: 1
  }
  param {
    lr_mult: 2
    decay_mult: 0
  }
  convolution_param {
    num_output: 16
    kernel_size: 11
    stride: 1
    weight_filler {
      type: "xavier"
    }
    bias_filler {
      type: "constant"
      value: 0
    }
  }
}
layer {
  name: "reluConv"
  type: "ReLU"
  bottom: "conv1"
  top: "conv1"
}
layer {
  name: "conv2"
  type: "Convolution"
  bottom: "conv1"
  top: "conv2"
  param {
    lr_mult: 1
    decay_mult: 1
  }
  param {
    lr_mult: 2
    decay_mult: 0
  }
  convolution_param {
    num_output: 16
    kernel_size: 11
    stride: 2
    weight_filler {
      type: "xavier"
    }
    bias_filler {
      type: "constant"
      value: 0
    }
  }
}
layer {
  name: "fc1"
  type: "InnerProduct"
  bottom: "conv2"
  top: "fc1"
  param {
    lr_mult: 1
    decay_mult: 1
  }
  param {
    lr_mult: 2
    decay_mult: 0
  }
  inner_product_param {
    num_output: 40
    weight_filler {
      type: "xavier"
    }
    bias_filler {
      type: "constant"
      value: 0
    }
  }
}
layer {
  name: "tanh1"
  type: "TanH"
  bottom: "fc1"
  top: "tanh1"
}
layer {
  name: "fc2"
  type: "InnerProduct"
  bottom: "tanh1"
  top: "fc2"
  param {
    lr_mult: 1
    decay_mult: 1
  }
  param {
    lr_mult: 2
    decay_mult: 0
  }
  inner_product_param {
    num_output: 4
    weight_filler {
      type: "xavier"
    }
    bias_filler {
      type: "constant"
      value: 0
    }
  }
}
layer {
  name: "tanh"
  type: "TanH"
  bottom: "fc2"
  top: "tanh"
}
layer {
  name: "loss"
  type: "EuclideanLoss"
  bottom: "tanh"
  bottom: "labels"
  top: "loss"
}
I1203 17:27:49.531095 1969066752 layer_factory.hpp:76] Creating layer data
I1203 17:27:49.531101 1969066752 net.cpp:106] Creating Layer data
I1203 17:27:49.531106 1969066752 net.cpp:411] data -> data
I1203 17:27:49.531114 1969066752 net.cpp:411] data -> labels
I1203 17:27:49.531121 1969066752 hdf5_data_layer.cpp:79] Loading list of HDF5 filenames from: /Users/JonathanLee/Desktop/sandbox/vision/Net/hdf/test_hdf.txt
I1203 17:27:49.531152 1969066752 hdf5_data_layer.cpp:93] Number of HDF5 files: 1
I1203 17:27:49.753582 1969066752 net.cpp:150] Setting up data
I1203 17:27:49.753604 1969066752 net.cpp:157] Top shape: 120 3 250 250 (22500000)
I1203 17:27:49.753612 1969066752 net.cpp:157] Top shape: 120 4 (480)
I1203 17:27:49.753615 1969066752 net.cpp:165] Memory required for data: 90001920
I1203 17:27:49.753621 1969066752 layer_factory.hpp:76] Creating layer conv1
I1203 17:27:49.753633 1969066752 net.cpp:106] Creating Layer conv1
I1203 17:27:49.753638 1969066752 net.cpp:454] conv1 <- data
I1203 17:27:49.753644 1969066752 net.cpp:411] conv1 -> conv1
I1203 17:27:49.753867 1969066752 net.cpp:150] Setting up conv1
I1203 17:27:49.753878 1969066752 net.cpp:157] Top shape: 120 16 240 240 (110592000)
I1203 17:27:49.753885 1969066752 net.cpp:165] Memory required for data: 532369920
I1203 17:27:49.753891 1969066752 layer_factory.hpp:76] Creating layer reluConv
I1203 17:27:49.753898 1969066752 net.cpp:106] Creating Layer reluConv
I1203 17:27:49.753902 1969066752 net.cpp:454] reluConv <- conv1
I1203 17:27:49.753907 1969066752 net.cpp:397] reluConv -> conv1 (in-place)
I1203 17:27:49.753938 1969066752 net.cpp:150] Setting up reluConv
I1203 17:27:49.753942 1969066752 net.cpp:157] Top shape: 120 16 240 240 (110592000)
I1203 17:27:49.753947 1969066752 net.cpp:165] Memory required for data: 974737920
I1203 17:27:49.753952 1969066752 layer_factory.hpp:76] Creating layer conv2
I1203 17:27:49.753957 1969066752 net.cpp:106] Creating Layer conv2
I1203 17:27:49.753962 1969066752 net.cpp:454] conv2 <- conv1
I1203 17:27:49.753967 1969066752 net.cpp:411] conv2 -> conv2
I1203 17:27:49.754309 1969066752 net.cpp:150] Setting up conv2
I1203 17:27:49.754314 1969066752 net.cpp:157] Top shape: 120 16 115 115 (25392000)
I1203 17:27:49.754330 1969066752 net.cpp:165] Memory required for data: 1076305920
I1203 17:27:49.754336 1969066752 layer_factory.hpp:76] Creating layer fc1
I1203 17:27:49.754343 1969066752 net.cpp:106] Creating Layer fc1
I1203 17:27:49.754346 1969066752 net.cpp:454] fc1 <- conv2
I1203 17:27:49.754364 1969066752 net.cpp:411] fc1 -> fc1
I1203 17:27:49.821388 1969066752 net.cpp:150] Setting up fc1
I1203 17:27:49.821405 1969066752 net.cpp:157] Top shape: 120 40 (4800)
I1203 17:27:49.821421 1969066752 net.cpp:165] Memory required for data: 1076325120
I1203 17:27:49.821497 1969066752 layer_factory.hpp:76] Creating layer tanh1
I1203 17:27:49.821512 1969066752 net.cpp:106] Creating Layer tanh1
I1203 17:27:49.821517 1969066752 net.cpp:454] tanh1 <- fc1
I1203 17:27:49.821524 1969066752 net.cpp:411] tanh1 -> tanh1
I1203 17:27:49.821533 1969066752 net.cpp:150] Setting up tanh1
I1203 17:27:49.821537 1969066752 net.cpp:157] Top shape: 120 40 (4800)
I1203 17:27:49.821542 1969066752 net.cpp:165] Memory required for data: 1076344320
I1203 17:27:49.821545 1969066752 layer_factory.hpp:76] Creating layer fc2
I1203 17:27:49.821552 1969066752 net.cpp:106] Creating Layer fc2
I1203 17:27:49.821560 1969066752 net.cpp:454] fc2 <- tanh1
I1203 17:27:49.821566 1969066752 net.cpp:411] fc2 -> fc2
I1203 17:27:49.821584 1969066752 net.cpp:150] Setting up fc2
I1203 17:27:49.821588 1969066752 net.cpp:157] Top shape: 120 4 (480)
I1203 17:27:49.821601 1969066752 net.cpp:165] Memory required for data: 1076346240
I1203 17:27:49.821606 1969066752 layer_factory.hpp:76] Creating layer tanh
I1203 17:27:49.821621 1969066752 net.cpp:106] Creating Layer tanh
I1203 17:27:49.821624 1969066752 net.cpp:454] tanh <- fc2
I1203 17:27:49.821630 1969066752 net.cpp:411] tanh -> tanh
I1203 17:27:49.821635 1969066752 net.cpp:150] Setting up tanh
I1203 17:27:49.821638 1969066752 net.cpp:157] Top shape: 120 4 (480)
I1203 17:27:49.821642 1969066752 net.cpp:165] Memory required for data: 1076348160
I1203 17:27:49.821646 1969066752 layer_factory.hpp:76] Creating layer loss
I1203 17:27:49.821652 1969066752 net.cpp:106] Creating Layer loss
I1203 17:27:49.821657 1969066752 net.cpp:454] loss <- tanh
I1203 17:27:49.821661 1969066752 net.cpp:454] loss <- labels
I1203 17:27:49.821666 1969066752 net.cpp:411] loss -> loss
…
