…
I1207 03:15:54.961875 2039878400 solver.cpp:90] Creating training net from net file: /Users/JonathanLee/Desktop/sandbox/vision/Net/nets/net9/trainer9.prototxt
I1207 03:15:54.962085 2039878400 net.cpp:322] The NetState phase (0) differed from the phase (1) specified by a rule in layer data
I1207 03:15:54.962113 2039878400 net.cpp:49] Initializing net from parameters: 
name: "net"
state {
  phase: TRAIN
}
layer {
  name: "data"
  type: "HDF5Data"
  top: "data"
  top: "labels"
  include {
    phase: TRAIN
  }
  hdf5_data_param {
    source: "/Users/JonathanLee/Desktop/sandbox/vision/Net/hdf/train_hdf.txt"
    batch_size: 500
  }
}
layer {
  name: "conv1"
  type: "Convolution"
  bottom: "data"
  top: "conv1"
  param {
    lr_mult: 1
    decay_mult: 1
  }
  param {
    lr_mult: 2
    decay_mult: 0
  }
  convolution_param {
    num_output: 16
    kernel_size: 11
    stride: 1
    weight_filler {
      type: "xavier"
    }
    bias_filler {
      type: "constant"
      value: 0
    }
  }
}
layer {
  name: "reluConv1"
  type: "ReLU"
  bottom: "conv1"
  top: "conv1"
}
layer {
  name: "conv2"
  type: "Convolution"
  bottom: "conv1"
  top: "conv2"
  param {
    lr_mult: 1
    decay_mult: 1
  }
  param {
    lr_mult: 2
    decay_mult: 0
  }
  convolution_param {
    num_output: 16
    kernel_size: 11
    stride: 2
    weight_filler {
      type: "xavier"
    }
    bias_filler {
      type: "constant"
      value: 0
    }
  }
}
layer {
  name: "reluConv2"
  type: "ReLU"
  bottom: "conv2"
  top: "conv2"
}
layer {
  name: "fc1"
  type: "InnerProduct"
  bottom: "conv2"
  top: "fc1"
  param {
    lr_mult: 1
    decay_mult: 1
  }
  param {
    lr_mult: 2
    decay_mult: 0
  }
  inner_product_param {
    num_output: 40
    weight_filler {
      type: "xavier"
    }
    bias_filler {
      type: "constant"
      value: 0
    }
  }
}
layer {
  name: "relu1"
  type: "ReLU"
  bottom: "fc1"
  top: "fc1"
}
layer {
  name: "fc2"
  type: "InnerProduct"
  bottom: "fc1"
  top: "fc2"
  param {
    lr_mult: 1
    decay_mult: 1
  }
  param {
    lr_mult: 2
    decay_mult: 0
  }
  inner_product_param {
    num_output: 4
    weight_filler {
      type: "xavier"
    }
    bias_filler {
      type: "constant"
      value: 0
    }
  }
}
layer {
  name: "out"
  type: "ReLU"
  bottom: "fc2"
  top: "out"
}
layer {
  name: "loss"
  type: "EuclideanLoss"
  bottom: "out"
  bottom: "labels"
  top: "loss"
}
I1207 03:15:54.962230 2039878400 layer_factory.hpp:76] Creating layer data
I1207 03:15:54.962244 2039878400 net.cpp:106] Creating Layer data
I1207 03:15:54.962249 2039878400 net.cpp:411] data -> data
I1207 03:15:54.962266 2039878400 net.cpp:411] data -> labels
I1207 03:15:54.962278 2039878400 hdf5_data_layer.cpp:79] Loading list of HDF5 filenames from: /Users/JonathanLee/Desktop/sandbox/vision/Net/hdf/train_hdf.txt
I1207 03:15:54.962311 2039878400 hdf5_data_layer.cpp:93] Number of HDF5 files: 1
I1207 03:15:54.963250 2039878400 hdf5.cpp:32] Datatype class: H5T_FLOAT
I1207 03:15:55.159099 2039878400 net.cpp:150] Setting up data
I1207 03:15:55.159137 2039878400 net.cpp:157] Top shape: 500 3 125 125 (23437500)
I1207 03:15:55.159147 2039878400 net.cpp:157] Top shape: 500 4 (2000)
I1207 03:15:55.159152 2039878400 net.cpp:165] Memory required for data: 93758000
I1207 03:15:55.159159 2039878400 layer_factory.hpp:76] Creating layer conv1
I1207 03:15:55.159181 2039878400 net.cpp:106] Creating Layer conv1
I1207 03:15:55.159188 2039878400 net.cpp:454] conv1 <- data
I1207 03:15:55.159195 2039878400 net.cpp:411] conv1 -> conv1
I1207 03:15:55.163697 2039878400 net.cpp:150] Setting up conv1
I1207 03:15:55.163707 2039878400 net.cpp:157] Top shape: 500 16 115 115 (105800000)
I1207 03:15:55.163723 2039878400 net.cpp:165] Memory required for data: 516958000
I1207 03:15:55.163772 2039878400 layer_factory.hpp:76] Creating layer reluConv1
I1207 03:15:55.163781 2039878400 net.cpp:106] Creating Layer reluConv1
I1207 03:15:55.163786 2039878400 net.cpp:454] reluConv1 <- conv1
I1207 03:15:55.163791 2039878400 net.cpp:397] reluConv1 -> conv1 (in-place)
I1207 03:15:55.163797 2039878400 net.cpp:150] Setting up reluConv1
I1207 03:15:55.163801 2039878400 net.cpp:157] Top shape: 500 16 115 115 (105800000)
I1207 03:15:55.163806 2039878400 net.cpp:165] Memory required for data: 940158000
I1207 03:15:55.163810 2039878400 layer_factory.hpp:76] Creating layer conv2
I1207 03:15:55.163817 2039878400 net.cpp:106] Creating Layer conv2
I1207 03:15:55.163821 2039878400 net.cpp:454] conv2 <- conv1
I1207 03:15:55.163830 2039878400 net.cpp:411] conv2 -> conv2
I1207 03:15:55.164149 2039878400 net.cpp:150] Setting up conv2
I1207 03:15:55.164155 2039878400 net.cpp:157] Top shape: 500 16 53 53 (22472000)
I1207 03:15:55.164171 2039878400 net.cpp:165] Memory required for data: 1030046000
I1207 03:15:55.164218 2039878400 layer_factory.hpp:76] Creating layer reluConv2
I1207 03:15:55.164232 2039878400 net.cpp:106] Creating Layer reluConv2
I1207 03:15:55.164237 2039878400 net.cpp:454] reluConv2 <- conv2
I1207 03:15:55.164242 2039878400 net.cpp:397] reluConv2 -> conv2 (in-place)
I1207 03:15:55.164249 2039878400 net.cpp:150] Setting up reluConv2
I1207 03:15:55.164253 2039878400 net.cpp:157] Top shape: 500 16 53 53 (22472000)
I1207 03:15:55.164259 2039878400 net.cpp:165] Memory required for data: 1119934000
I1207 03:15:55.164263 2039878400 layer_factory.hpp:76] Creating layer fc1
I1207 03:15:55.164271 2039878400 net.cpp:106] Creating Layer fc1
I1207 03:15:55.164275 2039878400 net.cpp:454] fc1 <- conv2
I1207 03:15:55.164280 2039878400 net.cpp:411] fc1 -> fc1
I1207 03:15:55.178673 2039878400 net.cpp:150] Setting up fc1
I1207 03:15:55.178700 2039878400 net.cpp:157] Top shape: 500 40 (20000)
I1207 03:15:55.178707 2039878400 net.cpp:165] Memory required for data: 1120014000
I1207 03:15:55.178719 2039878400 layer_factory.hpp:76] Creating layer relu1
I1207 03:15:55.178756 2039878400 net.cpp:106] Creating Layer relu1
I1207 03:15:55.178766 2039878400 net.cpp:454] relu1 <- fc1
I1207 03:15:55.178781 2039878400 net.cpp:397] relu1 -> fc1 (in-place)
I1207 03:15:55.178796 2039878400 net.cpp:150] Setting up relu1
I1207 03:15:55.178802 2039878400 net.cpp:157] Top shape: 500 40 (20000)
I1207 03:15:55.178812 2039878400 net.cpp:165] Memory required for data: 1120094000
I1207 03:15:55.178819 2039878400 layer_factory.hpp:76] Creating layer fc2
I1207 03:15:55.178833 2039878400 net.cpp:106] Creating Layer fc2
I1207 03:15:55.178843 2039878400 net.cpp:454] fc2 <- fc1
I1207 03:15:55.178853 2039878400 net.cpp:411] fc2 -> fc2
I1207 03:15:55.178890 2039878400 net.cpp:150] Setting up fc2
I1207 03:15:55.178899 2039878400 net.cpp:157] Top shape: 500 4 (2000)
I1207 03:15:55.178907 2039878400 net.cpp:165] Memory required for data: 1120102000
I1207 03:15:55.178918 2039878400 layer_factory.hpp:76] Creating layer out
I1207 03:15:55.178930 2039878400 net.cpp:106] Creating Layer out
I1207 03:15:55.178938 2039878400 net.cpp:454] out <- fc2
I1207 03:15:55.178947 2039878400 net.cpp:411] out -> out
I1207 03:15:55.178961 2039878400 net.cpp:150] Setting up out
I1207 03:15:55.178969 2039878400 net.cpp:157] Top shape: 500 4 (2000)
I1207 03:15:55.178978 2039878400 net.cpp:165] Memory required for data: 1120110000
I1207 03:15:55.178985 2039878400 layer_factory.hpp:76] Creating layer loss
I1207 03:15:55.178997 2039878400 net.cpp:106] Creating Layer loss
I1207 03:15:55.179007 2039878400 net.cpp:454] loss <- out
I1207 03:15:55.179015 2039878400 net.cpp:454] loss <- labels
I1207 03:15:55.179030 2039878400 net.cpp:411] loss -> loss
…
I1207 03:15:55.179648 2039878400 solver.cpp:180] Creating test net (#0) specified by net file: /Users/JonathanLee/Desktop/sandbox/vision/Net/nets/net9/trainer9.prototxt
I1207 03:15:55.179699 2039878400 net.cpp:322] The NetState phase (1) differed from the phase (0) specified by a rule in layer data
I1207 03:15:55.179745 2039878400 net.cpp:49] Initializing net from parameters: 
name: "net"
state {
  phase: TEST
}
layer {
  name: "data"
  type: "HDF5Data"
  top: "data"
  top: "labels"
  include {
    phase: TEST
  }
  hdf5_data_param {
    source: "/Users/JonathanLee/Desktop/sandbox/vision/Net/hdf/test_hdf.txt"
    batch_size: 120
  }
}
layer {
  name: "conv1"
  type: "Convolution"
  bottom: "data"
  top: "conv1"
  param {
    lr_mult: 1
    decay_mult: 1
  }
  param {
    lr_mult: 2
    decay_mult: 0
  }
  convolution_param {
    num_output: 16
    kernel_size: 11
    stride: 1
    weight_filler {
      type: "xavier"
    }
    bias_filler {
      type: "constant"
      value: 0
    }
  }
}
layer {
  name: "reluConv1"
  type: "ReLU"
  bottom: "conv1"
  top: "conv1"
}
layer {
  name: "conv2"
  type: "Convolution"
  bottom: "conv1"
  top: "conv2"
  param {
    lr_mult: 1
    decay_mult: 1
  }
  param {
    lr_mult: 2
    decay_mult: 0
  }
  convolution_param {
    num_output: 16
    kernel_size: 11
    stride: 2
    weight_filler {
      type: "xavier"
    }
    bias_filler {
      type: "constant"
      value: 0
    }
  }
}
layer {
  name: "reluConv2"
  type: "ReLU"
  bottom: "conv2"
  top: "conv2"
}
layer {
  name: "fc1"
  type: "InnerProduct"
  bottom: "conv2"
  top: "fc1"
  param {
    lr_mult: 1
    decay_mult: 1
  }
  param {
    lr_mult: 2
    decay_mult: 0
  }
  inner_product_param {
    num_output: 40
    weight_filler {
      type: "xavier"
    }
    bias_filler {
      type: "constant"
      value: 0
    }
  }
}
layer {
  name: "relu1"
  type: "ReLU"
  bottom: "fc1"
  top: "fc1"
}
layer {
  name: "fc2"
  type: "InnerProduct"
  bottom: "fc1"
  top: "fc2"
  param {
    lr_mult: 1
    decay_mult: 1
  }
  param {
    lr_mult: 2
    decay_mult: 0
  }
  inner_product_param {
    num_output: 4
    weight_filler {
      type: "xavier"
    }
    bias_filler {
      type: "constant"
      value: 0
    }
  }
}
layer {
  name: "out"
  type: "ReLU"
  bottom: "fc2"
  top: "out"
}
layer {
  name: "loss"
  type: "EuclideanLoss"
  bottom: "out"
  bottom: "labels"
  top: "loss"
}
I1207 03:15:55.179960 2039878400 layer_factory.hpp:76] Creating layer data
I1207 03:15:55.179970 2039878400 net.cpp:106] Creating Layer data
I1207 03:15:55.179977 2039878400 net.cpp:411] data -> data
I1207 03:15:55.179988 2039878400 net.cpp:411] data -> labels
I1207 03:15:55.179998 2039878400 hdf5_data_layer.cpp:79] Loading list of HDF5 filenames from: /Users/JonathanLee/Desktop/sandbox/vision/Net/hdf/test_hdf.txt
I1207 03:15:55.180037 2039878400 hdf5_data_layer.cpp:93] Number of HDF5 files: 1
I1207 03:15:55.238898 2039878400 net.cpp:150] Setting up data
I1207 03:15:55.238922 2039878400 net.cpp:157] Top shape: 120 3 125 125 (5625000)
I1207 03:15:55.238940 2039878400 net.cpp:157] Top shape: 120 4 (480)
I1207 03:15:55.238996 2039878400 net.cpp:165] Memory required for data: 22501920
I1207 03:15:55.239047 2039878400 layer_factory.hpp:76] Creating layer conv1
I1207 03:15:55.239063 2039878400 net.cpp:106] Creating Layer conv1
I1207 03:15:55.239070 2039878400 net.cpp:454] conv1 <- data
I1207 03:15:55.239083 2039878400 net.cpp:411] conv1 -> conv1
I1207 03:15:55.239197 2039878400 net.cpp:150] Setting up conv1
I1207 03:15:55.239203 2039878400 net.cpp:157] Top shape: 120 16 115 115 (25392000)
I1207 03:15:55.239220 2039878400 net.cpp:165] Memory required for data: 124069920
I1207 03:15:55.239228 2039878400 layer_factory.hpp:76] Creating layer reluConv1
I1207 03:15:55.239234 2039878400 net.cpp:106] Creating Layer reluConv1
I1207 03:15:55.239238 2039878400 net.cpp:454] reluConv1 <- conv1
I1207 03:15:55.239244 2039878400 net.cpp:397] reluConv1 -> conv1 (in-place)
I1207 03:15:55.239251 2039878400 net.cpp:150] Setting up reluConv1
I1207 03:15:55.239258 2039878400 net.cpp:157] Top shape: 120 16 115 115 (25392000)
I1207 03:15:55.239267 2039878400 net.cpp:165] Memory required for data: 225637920
I1207 03:15:55.239274 2039878400 layer_factory.hpp:76] Creating layer conv2
I1207 03:15:55.239280 2039878400 net.cpp:106] Creating Layer conv2
I1207 03:15:55.239284 2039878400 net.cpp:454] conv2 <- conv1
I1207 03:15:55.239289 2039878400 net.cpp:411] conv2 -> conv2
I1207 03:15:55.239619 2039878400 net.cpp:150] Setting up conv2
I1207 03:15:55.239624 2039878400 net.cpp:157] Top shape: 120 16 53 53 (5393280)
I1207 03:15:55.239639 2039878400 net.cpp:165] Memory required for data: 247211040
I1207 03:15:55.239651 2039878400 layer_factory.hpp:76] Creating layer reluConv2
I1207 03:15:55.239668 2039878400 net.cpp:106] Creating Layer reluConv2
I1207 03:15:55.239672 2039878400 net.cpp:454] reluConv2 <- conv2
I1207 03:15:55.239678 2039878400 net.cpp:397] reluConv2 -> conv2 (in-place)
I1207 03:15:55.239683 2039878400 net.cpp:150] Setting up reluConv2
I1207 03:15:55.239687 2039878400 net.cpp:157] Top shape: 120 16 53 53 (5393280)
I1207 03:15:55.239692 2039878400 net.cpp:165] Memory required for data: 268784160
I1207 03:15:55.239696 2039878400 layer_factory.hpp:76] Creating layer fc1
I1207 03:15:55.239706 2039878400 net.cpp:106] Creating Layer fc1
I1207 03:15:55.239712 2039878400 net.cpp:454] fc1 <- conv2
I1207 03:15:55.239718 2039878400 net.cpp:411] fc1 -> fc1
I1207 03:15:55.254079 2039878400 net.cpp:150] Setting up fc1
I1207 03:15:55.254101 2039878400 net.cpp:157] Top shape: 120 40 (4800)
I1207 03:15:55.254117 2039878400 net.cpp:165] Memory required for data: 268803360
I1207 03:15:55.254127 2039878400 layer_factory.hpp:76] Creating layer relu1
I1207 03:15:55.254134 2039878400 net.cpp:106] Creating Layer relu1
I1207 03:15:55.254138 2039878400 net.cpp:454] relu1 <- fc1
I1207 03:15:55.254143 2039878400 net.cpp:397] relu1 -> fc1 (in-place)
I1207 03:15:55.254161 2039878400 net.cpp:150] Setting up relu1
I1207 03:15:55.254164 2039878400 net.cpp:157] Top shape: 120 40 (4800)
I1207 03:15:55.254169 2039878400 net.cpp:165] Memory required for data: 268822560
I1207 03:15:55.254173 2039878400 layer_factory.hpp:76] Creating layer fc2
I1207 03:15:55.254180 2039878400 net.cpp:106] Creating Layer fc2
I1207 03:15:55.254184 2039878400 net.cpp:454] fc2 <- fc1
I1207 03:15:55.254190 2039878400 net.cpp:411] fc2 -> fc2
I1207 03:15:55.254205 2039878400 net.cpp:150] Setting up fc2
I1207 03:15:55.254209 2039878400 net.cpp:157] Top shape: 120 4 (480)
I1207 03:15:55.254223 2039878400 net.cpp:165] Memory required for data: 268824480
I1207 03:15:55.254228 2039878400 layer_factory.hpp:76] Creating layer out
I1207 03:15:55.254245 2039878400 net.cpp:106] Creating Layer out
I1207 03:15:55.254267 2039878400 net.cpp:454] out <- fc2
I1207 03:15:55.254284 2039878400 net.cpp:411] out -> out
I1207 03:15:55.254294 2039878400 net.cpp:150] Setting up out
I1207 03:15:55.254298 2039878400 net.cpp:157] Top shape: 120 4 (480)
I1207 03:15:55.254304 2039878400 net.cpp:165] Memory required for data: 268826400
I1207 03:15:55.254308 2039878400 layer_factory.hpp:76] Creating layer loss
I1207 03:15:55.254315 2039878400 net.cpp:106] Creating Layer loss
I1207 03:15:55.254358 2039878400 net.cpp:454] loss <- out
I1207 03:15:55.254374 2039878400 net.cpp:454] loss <- labels
I1207 03:15:55.254379 2039878400 net.cpp:411] loss -> loss
…
