…
I1204 04:10:04.597291 1969066752 solver.cpp:90] Creating training net from net file: /Users/JonathanLee/Desktop/sandbox/vision/Net/nets/net9/trainer9.prototxt
I1204 04:10:04.597597 1969066752 net.cpp:322] The NetState phase (0) differed from the phase (1) specified by a rule in layer data
I1204 04:10:04.597620 1969066752 net.cpp:49] Initializing net from parameters: 
name: "net"
state {
  phase: TRAIN
}
layer {
  name: "data"
  type: "HDF5Data"
  top: "data"
  top: "labels"
  include {
    phase: TRAIN
  }
  hdf5_data_param {
    source: "/Users/JonathanLee/Desktop/sandbox/vision/Net/hdf/train_hdf.txt"
    batch_size: 450
  }
}
layer {
  name: "conv1"
  type: "Convolution"
  bottom: "data"
  top: "conv1"
  param {
    lr_mult: 1
    decay_mult: 1
  }
  param {
    lr_mult: 2
    decay_mult: 0
  }
  convolution_param {
    num_output: 16
    kernel_size: 11
    stride: 1
    weight_filler {
      type: "xavier"
    }
    bias_filler {
      type: "constant"
      value: 0
    }
  }
}
layer {
  name: "reluConv1"
  type: "ReLU"
  bottom: "conv1"
  top: "conv1"
}
layer {
  name: "conv2"
  type: "Convolution"
  bottom: "conv1"
  top: "conv2"
  param {
    lr_mult: 1
    decay_mult: 1
  }
  param {
    lr_mult: 2
    decay_mult: 0
  }
  convolution_param {
    num_output: 16
    kernel_size: 11
    stride: 2
    weight_filler {
      type: "xavier"
    }
    bias_filler {
      type: "constant"
      value: 0
    }
  }
}
layer {
  name: "reluConv2"
  type: "ReLU"
  bottom: "conv2"
  top: "conv2"
}
layer {
  name: "fc1"
  type: "InnerProduct"
  bottom: "conv2"
  top: "fc1"
  param {
    lr_mult: 1
    decay_mult: 1
  }
  param {
    lr_mult: 2
    decay_mult: 0
  }
  inner_product_param {
    num_output: 40
    weight_filler {
      type: "xavier"
    }
    bias_filler {
      type: "constant"
      value: 0
    }
  }
}
layer {
  name: "relu1"
  type: "ReLU"
  bottom: "fc1"
  top: "fc1"
}
layer {
  name: "fc2"
  type: "InnerProduct"
  bottom: "fc1"
  top: "fc2"
  param {
    lr_mult: 1
    decay_mult: 1
  }
  param {
    lr_mult: 2
    decay_mult: 0
  }
  inner_product_param {
    num_output: 4
    weight_filler {
      type: "xavier"
    }
    bias_filler {
      type: "constant"
      value: 0
    }
  }
}
layer {
  name: "relu2"
  type: "ReLU"
  bottom: "fc2"
  top: "fc2"
}
layer {
  name: "out"
  type: "TanH"
  bottom: "fc2"
  top: "out"
}
layer {
  name: "loss"
  type: "EuclideanLoss"
  bottom: "out"
  bottom: "labels"
  top: "loss"
}
I1204 04:10:04.597821 1969066752 layer_factory.hpp:76] Creating layer data
I1204 04:10:04.597857 1969066752 net.cpp:106] Creating Layer data
I1204 04:10:04.597877 1969066752 net.cpp:411] data -> data
I1204 04:10:04.597911 1969066752 net.cpp:411] data -> labels
I1204 04:10:04.597937 1969066752 hdf5_data_layer.cpp:79] Loading list of HDF5 filenames from: /Users/JonathanLee/Desktop/sandbox/vision/Net/hdf/train_hdf.txt
I1204 04:10:04.598027 1969066752 hdf5_data_layer.cpp:93] Number of HDF5 files: 1
I1204 04:10:04.599606 1969066752 hdf5.cpp:32] Datatype class: H5T_FLOAT
I1204 04:10:04.868242 1969066752 net.cpp:150] Setting up data
I1204 04:10:04.868294 1969066752 net.cpp:157] Top shape: 450 3 125 125 (21093750)
I1204 04:10:04.868336 1969066752 net.cpp:157] Top shape: 450 4 (1800)
I1204 04:10:04.868348 1969066752 net.cpp:165] Memory required for data: 84382200
I1204 04:10:04.868383 1969066752 layer_factory.hpp:76] Creating layer conv1
I1204 04:10:04.868409 1969066752 net.cpp:106] Creating Layer conv1
I1204 04:10:04.868423 1969066752 net.cpp:454] conv1 <- data
I1204 04:10:04.868441 1969066752 net.cpp:411] conv1 -> conv1
I1204 04:10:04.875340 1969066752 net.cpp:150] Setting up conv1
I1204 04:10:04.875358 1969066752 net.cpp:157] Top shape: 450 16 115 115 (95220000)
I1204 04:10:04.875390 1969066752 net.cpp:165] Memory required for data: 465262200
I1204 04:10:04.875417 1969066752 layer_factory.hpp:76] Creating layer reluConv1
I1204 04:10:04.875464 1969066752 net.cpp:106] Creating Layer reluConv1
I1204 04:10:04.875488 1969066752 net.cpp:454] reluConv1 <- conv1
I1204 04:10:04.875517 1969066752 net.cpp:397] reluConv1 -> conv1 (in-place)
I1204 04:10:04.875565 1969066752 net.cpp:150] Setting up reluConv1
I1204 04:10:04.875578 1969066752 net.cpp:157] Top shape: 450 16 115 115 (95220000)
I1204 04:10:04.875624 1969066752 net.cpp:165] Memory required for data: 846142200
I1204 04:10:04.875648 1969066752 layer_factory.hpp:76] Creating layer conv2
I1204 04:10:04.875713 1969066752 net.cpp:106] Creating Layer conv2
I1204 04:10:04.875731 1969066752 net.cpp:454] conv2 <- conv1
I1204 04:10:04.875788 1969066752 net.cpp:411] conv2 -> conv2
I1204 04:10:04.876201 1969066752 net.cpp:150] Setting up conv2
I1204 04:10:04.876212 1969066752 net.cpp:157] Top shape: 450 16 53 53 (20224800)
I1204 04:10:04.876219 1969066752 net.cpp:165] Memory required for data: 927041400
I1204 04:10:04.876226 1969066752 layer_factory.hpp:76] Creating layer reluConv2
I1204 04:10:04.876233 1969066752 net.cpp:106] Creating Layer reluConv2
I1204 04:10:04.876272 1969066752 net.cpp:454] reluConv2 <- conv2
I1204 04:10:04.876297 1969066752 net.cpp:397] reluConv2 -> conv2 (in-place)
I1204 04:10:04.876320 1969066752 net.cpp:150] Setting up reluConv2
I1204 04:10:04.876353 1969066752 net.cpp:157] Top shape: 450 16 53 53 (20224800)
I1204 04:10:04.876374 1969066752 net.cpp:165] Memory required for data: 1007940600
I1204 04:10:04.876407 1969066752 layer_factory.hpp:76] Creating layer fc1
I1204 04:10:04.876451 1969066752 net.cpp:106] Creating Layer fc1
I1204 04:10:04.876466 1969066752 net.cpp:454] fc1 <- conv2
I1204 04:10:04.876482 1969066752 net.cpp:411] fc1 -> fc1
I1204 04:10:04.898413 1969066752 net.cpp:150] Setting up fc1
I1204 04:10:04.898432 1969066752 net.cpp:157] Top shape: 450 40 (18000)
I1204 04:10:04.898437 1969066752 net.cpp:165] Memory required for data: 1008012600
I1204 04:10:04.898447 1969066752 layer_factory.hpp:76] Creating layer relu1
I1204 04:10:04.898458 1969066752 net.cpp:106] Creating Layer relu1
I1204 04:10:04.898474 1969066752 net.cpp:454] relu1 <- fc1
I1204 04:10:04.898516 1969066752 net.cpp:397] relu1 -> fc1 (in-place)
I1204 04:10:04.898557 1969066752 net.cpp:150] Setting up relu1
I1204 04:10:04.898576 1969066752 net.cpp:157] Top shape: 450 40 (18000)
I1204 04:10:04.898618 1969066752 net.cpp:165] Memory required for data: 1008084600
I1204 04:10:04.898634 1969066752 layer_factory.hpp:76] Creating layer fc2
I1204 04:10:04.898663 1969066752 net.cpp:106] Creating Layer fc2
I1204 04:10:04.898679 1969066752 net.cpp:454] fc2 <- fc1
I1204 04:10:04.898720 1969066752 net.cpp:411] fc2 -> fc2
I1204 04:10:04.898790 1969066752 net.cpp:150] Setting up fc2
I1204 04:10:04.898805 1969066752 net.cpp:157] Top shape: 450 4 (1800)
I1204 04:10:04.898833 1969066752 net.cpp:165] Memory required for data: 1008091800
I1204 04:10:04.898844 1969066752 layer_factory.hpp:76] Creating layer relu2
I1204 04:10:04.898862 1969066752 net.cpp:106] Creating Layer relu2
I1204 04:10:04.898883 1969066752 net.cpp:454] relu2 <- fc2
I1204 04:10:04.898898 1969066752 net.cpp:397] relu2 -> fc2 (in-place)
I1204 04:10:04.898921 1969066752 net.cpp:150] Setting up relu2
I1204 04:10:04.898941 1969066752 net.cpp:157] Top shape: 450 4 (1800)
I1204 04:10:04.898972 1969066752 net.cpp:165] Memory required for data: 1008099000
I1204 04:10:04.898988 1969066752 layer_factory.hpp:76] Creating layer out
I1204 04:10:04.899000 1969066752 net.cpp:106] Creating Layer out
I1204 04:10:04.899008 1969066752 net.cpp:454] out <- fc2
I1204 04:10:04.899039 1969066752 net.cpp:411] out -> out
I1204 04:10:04.899057 1969066752 net.cpp:150] Setting up out
I1204 04:10:04.899065 1969066752 net.cpp:157] Top shape: 450 4 (1800)
I1204 04:10:04.899072 1969066752 net.cpp:165] Memory required for data: 1008106200
I1204 04:10:04.899080 1969066752 layer_factory.hpp:76] Creating layer loss
I1204 04:10:04.899139 1969066752 net.cpp:106] Creating Layer loss
I1204 04:10:04.899189 1969066752 net.cpp:454] loss <- out
I1204 04:10:04.899215 1969066752 net.cpp:454] loss <- labels
I1204 04:10:04.899246 1969066752 net.cpp:411] loss -> loss
…
I1204 04:10:04.899950 1969066752 solver.cpp:180] Creating test net (#0) specified by net file: /Users/JonathanLee/Desktop/sandbox/vision/Net/nets/net9/trainer9.prototxt
I1204 04:10:04.899974 1969066752 net.cpp:322] The NetState phase (1) differed from the phase (0) specified by a rule in layer data
I1204 04:10:04.899996 1969066752 net.cpp:49] Initializing net from parameters: 
name: "net"
state {
  phase: TEST
}
layer {
  name: "data"
  type: "HDF5Data"
  top: "data"
  top: "labels"
  include {
    phase: TEST
  }
  hdf5_data_param {
    source: "/Users/JonathanLee/Desktop/sandbox/vision/Net/hdf/test_hdf.txt"
    batch_size: 120
  }
}
layer {
  name: "conv1"
  type: "Convolution"
  bottom: "data"
  top: "conv1"
  param {
    lr_mult: 1
    decay_mult: 1
  }
  param {
    lr_mult: 2
    decay_mult: 0
  }
  convolution_param {
    num_output: 16
    kernel_size: 11
    stride: 1
    weight_filler {
      type: "xavier"
    }
    bias_filler {
      type: "constant"
      value: 0
    }
  }
}
layer {
  name: "reluConv1"
  type: "ReLU"
  bottom: "conv1"
  top: "conv1"
}
layer {
  name: "conv2"
  type: "Convolution"
  bottom: "conv1"
  top: "conv2"
  param {
    lr_mult: 1
    decay_mult: 1
  }
  param {
    lr_mult: 2
    decay_mult: 0
  }
  convolution_param {
    num_output: 16
    kernel_size: 11
    stride: 2
    weight_filler {
      type: "xavier"
    }
    bias_filler {
      type: "constant"
      value: 0
    }
  }
}
layer {
  name: "reluConv2"
  type: "ReLU"
  bottom: "conv2"
  top: "conv2"
}
layer {
  name: "fc1"
  type: "InnerProduct"
  bottom: "conv2"
  top: "fc1"
  param {
    lr_mult: 1
    decay_mult: 1
  }
  param {
    lr_mult: 2
    decay_mult: 0
  }
  inner_product_param {
    num_output: 40
    weight_filler {
      type: "xavier"
    }
    bias_filler {
      type: "constant"
      value: 0
    }
  }
}
layer {
  name: "relu1"
  type: "ReLU"
  bottom: "fc1"
  top: "fc1"
}
layer {
  name: "fc2"
  type: "InnerProduct"
  bottom: "fc1"
  top: "fc2"
  param {
    lr_mult: 1
    decay_mult: 1
  }
  param {
    lr_mult: 2
    decay_mult: 0
  }
  inner_product_param {
    num_output: 4
    weight_filler {
      type: "xavier"
    }
    bias_filler {
      type: "constant"
      value: 0
    }
  }
}
layer {
  name: "relu2"
  type: "ReLU"
  bottom: "fc2"
  top: "fc2"
}
layer {
  name: "out"
  type: "TanH"
  bottom: "fc2"
  top: "out"
}
layer {
  name: "loss"
  type: "EuclideanLoss"
  bottom: "out"
  bottom: "labels"
  top: "loss"
}
I1204 04:10:04.900125 1969066752 layer_factory.hpp:76] Creating layer data
I1204 04:10:04.900209 1969066752 net.cpp:106] Creating Layer data
I1204 04:10:04.900238 1969066752 net.cpp:411] data -> data
I1204 04:10:04.900264 1969066752 net.cpp:411] data -> labels
I1204 04:10:04.900285 1969066752 hdf5_data_layer.cpp:79] Loading list of HDF5 filenames from: /Users/JonathanLee/Desktop/sandbox/vision/Net/hdf/test_hdf.txt
I1204 04:10:04.900321 1969066752 hdf5_data_layer.cpp:93] Number of HDF5 files: 1
I1204 04:10:04.977319 1969066752 net.cpp:150] Setting up data
I1204 04:10:04.977341 1969066752 net.cpp:157] Top shape: 120 3 125 125 (5625000)
I1204 04:10:04.977352 1969066752 net.cpp:157] Top shape: 120 4 (480)
I1204 04:10:04.977360 1969066752 net.cpp:165] Memory required for data: 22501920
I1204 04:10:04.977367 1969066752 layer_factory.hpp:76] Creating layer conv1
I1204 04:10:04.977401 1969066752 net.cpp:106] Creating Layer conv1
I1204 04:10:04.977427 1969066752 net.cpp:454] conv1 <- data
I1204 04:10:04.977458 1969066752 net.cpp:411] conv1 -> conv1
I1204 04:10:04.977612 1969066752 net.cpp:150] Setting up conv1
I1204 04:10:04.977620 1969066752 net.cpp:157] Top shape: 120 16 115 115 (25392000)
I1204 04:10:04.977627 1969066752 net.cpp:165] Memory required for data: 124069920
I1204 04:10:04.977660 1969066752 layer_factory.hpp:76] Creating layer reluConv1
I1204 04:10:04.977679 1969066752 net.cpp:106] Creating Layer reluConv1
I1204 04:10:04.977696 1969066752 net.cpp:454] reluConv1 <- conv1
I1204 04:10:04.977723 1969066752 net.cpp:397] reluConv1 -> conv1 (in-place)
I1204 04:10:04.977758 1969066752 net.cpp:150] Setting up reluConv1
I1204 04:10:04.977782 1969066752 net.cpp:157] Top shape: 120 16 115 115 (25392000)
I1204 04:10:04.977805 1969066752 net.cpp:165] Memory required for data: 225637920
I1204 04:10:04.977812 1969066752 layer_factory.hpp:76] Creating layer conv2
I1204 04:10:04.977823 1969066752 net.cpp:106] Creating Layer conv2
I1204 04:10:04.977826 1969066752 net.cpp:454] conv2 <- conv1
I1204 04:10:04.977831 1969066752 net.cpp:411] conv2 -> conv2
I1204 04:10:04.978152 1969066752 net.cpp:150] Setting up conv2
I1204 04:10:04.978163 1969066752 net.cpp:157] Top shape: 120 16 53 53 (5393280)
I1204 04:10:04.978168 1969066752 net.cpp:165] Memory required for data: 247211040
I1204 04:10:04.978176 1969066752 layer_factory.hpp:76] Creating layer reluConv2
I1204 04:10:04.978183 1969066752 net.cpp:106] Creating Layer reluConv2
I1204 04:10:04.978199 1969066752 net.cpp:454] reluConv2 <- conv2
I1204 04:10:04.978211 1969066752 net.cpp:397] reluConv2 -> conv2 (in-place)
I1204 04:10:04.978221 1969066752 net.cpp:150] Setting up reluConv2
I1204 04:10:04.978227 1969066752 net.cpp:157] Top shape: 120 16 53 53 (5393280)
I1204 04:10:04.978250 1969066752 net.cpp:165] Memory required for data: 268784160
I1204 04:10:04.978263 1969066752 layer_factory.hpp:76] Creating layer fc1
I1204 04:10:04.978276 1969066752 net.cpp:106] Creating Layer fc1
I1204 04:10:04.978282 1969066752 net.cpp:454] fc1 <- conv2
I1204 04:10:04.978315 1969066752 net.cpp:411] fc1 -> fc1
I1204 04:10:04.998826 1969066752 net.cpp:150] Setting up fc1
I1204 04:10:04.998843 1969066752 net.cpp:157] Top shape: 120 40 (4800)
I1204 04:10:04.998848 1969066752 net.cpp:165] Memory required for data: 268803360
I1204 04:10:04.998858 1969066752 layer_factory.hpp:76] Creating layer relu1
I1204 04:10:04.998865 1969066752 net.cpp:106] Creating Layer relu1
I1204 04:10:04.998880 1969066752 net.cpp:454] relu1 <- fc1
I1204 04:10:04.998939 1969066752 net.cpp:397] relu1 -> fc1 (in-place)
I1204 04:10:04.998966 1969066752 net.cpp:150] Setting up relu1
I1204 04:10:04.998991 1969066752 net.cpp:157] Top shape: 120 40 (4800)
I1204 04:10:04.999022 1969066752 net.cpp:165] Memory required for data: 268822560
I1204 04:10:04.999037 1969066752 layer_factory.hpp:76] Creating layer fc2
I1204 04:10:04.999048 1969066752 net.cpp:106] Creating Layer fc2
I1204 04:10:04.999055 1969066752 net.cpp:454] fc2 <- fc1
I1204 04:10:04.999083 1969066752 net.cpp:411] fc2 -> fc2
I1204 04:10:04.999122 1969066752 net.cpp:150] Setting up fc2
I1204 04:10:04.999138 1969066752 net.cpp:157] Top shape: 120 4 (480)
I1204 04:10:04.999191 1969066752 net.cpp:165] Memory required for data: 268824480
I1204 04:10:04.999222 1969066752 layer_factory.hpp:76] Creating layer relu2
I1204 04:10:04.999269 1969066752 net.cpp:106] Creating Layer relu2
I1204 04:10:04.999295 1969066752 net.cpp:454] relu2 <- fc2
I1204 04:10:04.999317 1969066752 net.cpp:397] relu2 -> fc2 (in-place)
I1204 04:10:04.999359 1969066752 net.cpp:150] Setting up relu2
I1204 04:10:04.999374 1969066752 net.cpp:157] Top shape: 120 4 (480)
I1204 04:10:04.999380 1969066752 net.cpp:165] Memory required for data: 268826400
I1204 04:10:04.999384 1969066752 layer_factory.hpp:76] Creating layer out
I1204 04:10:04.999390 1969066752 net.cpp:106] Creating Layer out
I1204 04:10:04.999394 1969066752 net.cpp:454] out <- fc2
I1204 04:10:04.999411 1969066752 net.cpp:411] out -> out
I1204 04:10:04.999459 1969066752 net.cpp:150] Setting up out
I1204 04:10:04.999501 1969066752 net.cpp:157] Top shape: 120 4 (480)
I1204 04:10:04.999516 1969066752 net.cpp:165] Memory required for data: 268828320
I1204 04:10:04.999555 1969066752 layer_factory.hpp:76] Creating layer loss
I1204 04:10:04.999578 1969066752 net.cpp:106] Creating Layer loss
I1204 04:10:04.999596 1969066752 net.cpp:454] loss <- out
I1204 04:10:04.999639 1969066752 net.cpp:454] loss <- labels
I1204 04:10:04.999686 1969066752 net.cpp:411] loss -> loss
…
