…
I1204 04:06:40.959466 1969066752 solver.cpp:90] Creating training net from net file: /Users/JonathanLee/Desktop/sandbox/vision/Net/nets/net7/trainer7.prototxt
I1204 04:06:40.959738 1969066752 net.cpp:322] The NetState phase (0) differed from the phase (1) specified by a rule in layer data
I1204 04:06:40.959764 1969066752 net.cpp:49] Initializing net from parameters: 
name: "net"
state {
  phase: TRAIN
}
layer {
  name: "data"
  type: "HDF5Data"
  top: "data"
  top: "labels"
  include {
    phase: TRAIN
  }
  hdf5_data_param {
    source: "/Users/JonathanLee/Desktop/sandbox/vision/Net/hdf/train_hdf.txt"
    batch_size: 450
  }
}
layer {
  name: "conv1"
  type: "Convolution"
  bottom: "data"
  top: "conv1"
  param {
    lr_mult: 1
    decay_mult: 1
  }
  param {
    lr_mult: 2
    decay_mult: 0
  }
  convolution_param {
    num_output: 16
    kernel_size: 11
    stride: 1
    weight_filler {
      type: "xavier"
    }
    bias_filler {
      type: "constant"
      value: 0
    }
  }
}
layer {
  name: "reluConv1"
  type: "ReLU"
  bottom: "conv1"
  top: "conv1"
}
layer {
  name: "conv2"
  type: "Convolution"
  bottom: "conv1"
  top: "conv2"
  param {
    lr_mult: 1
    decay_mult: 1
  }
  param {
    lr_mult: 2
    decay_mult: 0
  }
  convolution_param {
    num_output: 16
    kernel_size: 11
    stride: 2
    weight_filler {
      type: "xavier"
    }
    bias_filler {
      type: "constant"
      value: 0
    }
  }
}
layer {
  name: "reluConv2"
  type: "ReLU"
  bottom: "conv2"
  top: "conv2"
}
layer {
  name: "fc1"
  type: "InnerProduct"
  bottom: "conv2"
  top: "fc1"
  param {
    lr_mult: 1
    decay_mult: 1
  }
  param {
    lr_mult: 2
    decay_mult: 0
  }
  inner_product_param {
    num_output: 4
    weight_filler {
      type: "xavier"
    }
    bias_filler {
      type: "constant"
      value: 0
    }
  }
}
layer {
  name: "out"
  type: "TanH"
  bottom: "fc1"
  top: "out"
}
layer {
  name: "loss"
  type: "EuclideanLoss"
  bottom: "out"
  bottom: "labels"
  top: "loss"
}
I1204 04:06:40.959939 1969066752 layer_factory.hpp:76] Creating layer data
I1204 04:06:40.959988 1969066752 net.cpp:106] Creating Layer data
I1204 04:06:40.959998 1969066752 net.cpp:411] data -> data
I1204 04:06:40.960023 1969066752 net.cpp:411] data -> labels
I1204 04:06:40.960062 1969066752 hdf5_data_layer.cpp:79] Loading list of HDF5 filenames from: /Users/JonathanLee/Desktop/sandbox/vision/Net/hdf/train_hdf.txt
I1204 04:06:40.960110 1969066752 hdf5_data_layer.cpp:93] Number of HDF5 files: 1
I1204 04:06:40.962541 1969066752 hdf5.cpp:32] Datatype class: H5T_FLOAT
I1204 04:06:41.236757 1969066752 net.cpp:150] Setting up data
I1204 04:06:41.236783 1969066752 net.cpp:157] Top shape: 450 3 125 125 (21093750)
I1204 04:06:41.236791 1969066752 net.cpp:157] Top shape: 450 4 (1800)
I1204 04:06:41.236837 1969066752 net.cpp:165] Memory required for data: 84382200
I1204 04:06:41.236857 1969066752 layer_factory.hpp:76] Creating layer conv1
I1204 04:06:41.236876 1969066752 net.cpp:106] Creating Layer conv1
I1204 04:06:41.236887 1969066752 net.cpp:454] conv1 <- data
I1204 04:06:41.236899 1969066752 net.cpp:411] conv1 -> conv1
I1204 04:06:41.244932 1969066752 net.cpp:150] Setting up conv1
I1204 04:06:41.244958 1969066752 net.cpp:157] Top shape: 450 16 115 115 (95220000)
I1204 04:06:41.244971 1969066752 net.cpp:165] Memory required for data: 465262200
I1204 04:06:41.245005 1969066752 layer_factory.hpp:76] Creating layer reluConv1
I1204 04:06:41.245035 1969066752 net.cpp:106] Creating Layer reluConv1
I1204 04:06:41.245045 1969066752 net.cpp:454] reluConv1 <- conv1
I1204 04:06:41.245095 1969066752 net.cpp:397] reluConv1 -> conv1 (in-place)
I1204 04:06:41.245115 1969066752 net.cpp:150] Setting up reluConv1
I1204 04:06:41.245175 1969066752 net.cpp:157] Top shape: 450 16 115 115 (95220000)
I1204 04:06:41.245194 1969066752 net.cpp:165] Memory required for data: 846142200
I1204 04:06:41.245205 1969066752 layer_factory.hpp:76] Creating layer conv2
I1204 04:06:41.245215 1969066752 net.cpp:106] Creating Layer conv2
I1204 04:06:41.245220 1969066752 net.cpp:454] conv2 <- conv1
I1204 04:06:41.245237 1969066752 net.cpp:411] conv2 -> conv2
I1204 04:06:41.245641 1969066752 net.cpp:150] Setting up conv2
I1204 04:06:41.245654 1969066752 net.cpp:157] Top shape: 450 16 53 53 (20224800)
I1204 04:06:41.245666 1969066752 net.cpp:165] Memory required for data: 927041400
I1204 04:06:41.245694 1969066752 layer_factory.hpp:76] Creating layer reluConv2
I1204 04:06:41.245721 1969066752 net.cpp:106] Creating Layer reluConv2
I1204 04:06:41.245733 1969066752 net.cpp:454] reluConv2 <- conv2
I1204 04:06:41.245743 1969066752 net.cpp:397] reluConv2 -> conv2 (in-place)
I1204 04:06:41.245754 1969066752 net.cpp:150] Setting up reluConv2
I1204 04:06:41.245760 1969066752 net.cpp:157] Top shape: 450 16 53 53 (20224800)
I1204 04:06:41.245769 1969066752 net.cpp:165] Memory required for data: 1007940600
I1204 04:06:41.245776 1969066752 layer_factory.hpp:76] Creating layer fc1
I1204 04:06:41.245792 1969066752 net.cpp:106] Creating Layer fc1
I1204 04:06:41.245810 1969066752 net.cpp:454] fc1 <- conv2
I1204 04:06:41.245822 1969066752 net.cpp:411] fc1 -> fc1
I1204 04:06:41.247162 1969066752 net.cpp:150] Setting up fc1
I1204 04:06:41.247177 1969066752 net.cpp:157] Top shape: 450 4 (1800)
I1204 04:06:41.247182 1969066752 net.cpp:165] Memory required for data: 1007947800
I1204 04:06:41.247191 1969066752 layer_factory.hpp:76] Creating layer out
I1204 04:06:41.247198 1969066752 net.cpp:106] Creating Layer out
I1204 04:06:41.247202 1969066752 net.cpp:454] out <- fc1
I1204 04:06:41.247238 1969066752 net.cpp:411] out -> out
I1204 04:06:41.247256 1969066752 net.cpp:150] Setting up out
I1204 04:06:41.247284 1969066752 net.cpp:157] Top shape: 450 4 (1800)
I1204 04:06:41.247292 1969066752 net.cpp:165] Memory required for data: 1007955000
I1204 04:06:41.247298 1969066752 layer_factory.hpp:76] Creating layer loss
I1204 04:06:41.247308 1969066752 net.cpp:106] Creating Layer loss
I1204 04:06:41.247314 1969066752 net.cpp:454] loss <- out
I1204 04:06:41.247319 1969066752 net.cpp:454] loss <- labels
I1204 04:06:41.247350 1969066752 net.cpp:411] loss -> loss
…
I1204 04:06:41.247789 1969066752 solver.cpp:180] Creating test net (#0) specified by net file: /Users/JonathanLee/Desktop/sandbox/vision/Net/nets/net7/trainer7.prototxt
I1204 04:06:41.247815 1969066752 net.cpp:322] The NetState phase (1) differed from the phase (0) specified by a rule in layer data
I1204 04:06:41.247838 1969066752 net.cpp:49] Initializing net from parameters: 
name: "net"
state {
  phase: TEST
}
layer {
  name: "data"
  type: "HDF5Data"
  top: "data"
  top: "labels"
  include {
    phase: TEST
  }
  hdf5_data_param {
    source: "/Users/JonathanLee/Desktop/sandbox/vision/Net/hdf/test_hdf.txt"
    batch_size: 120
  }
}
layer {
  name: "conv1"
  type: "Convolution"
  bottom: "data"
  top: "conv1"
  param {
    lr_mult: 1
    decay_mult: 1
  }
  param {
    lr_mult: 2
    decay_mult: 0
  }
  convolution_param {
    num_output: 16
    kernel_size: 11
    stride: 1
    weight_filler {
      type: "xavier"
    }
    bias_filler {
      type: "constant"
      value: 0
    }
  }
}
layer {
  name: "reluConv1"
  type: "ReLU"
  bottom: "conv1"
  top: "conv1"
}
layer {
  name: "conv2"
  type: "Convolution"
  bottom: "conv1"
  top: "conv2"
  param {
    lr_mult: 1
    decay_mult: 1
  }
  param {
    lr_mult: 2
    decay_mult: 0
  }
  convolution_param {
    num_output: 16
    kernel_size: 11
    stride: 2
    weight_filler {
      type: "xavier"
    }
    bias_filler {
      type: "constant"
      value: 0
    }
  }
}
layer {
  name: "reluConv2"
  type: "ReLU"
  bottom: "conv2"
  top: "conv2"
}
layer {
  name: "fc1"
  type: "InnerProduct"
  bottom: "conv2"
  top: "fc1"
  param {
    lr_mult: 1
    decay_mult: 1
  }
  param {
    lr_mult: 2
    decay_mult: 0
  }
  inner_product_param {
    num_output: 4
    weight_filler {
      type: "xavier"
    }
    bias_filler {
      type: "constant"
      value: 0
    }
  }
}
layer {
  name: "out"
  type: "TanH"
  bottom: "fc1"
  top: "out"
}
layer {
  name: "loss"
  type: "EuclideanLoss"
  bottom: "out"
  bottom: "labels"
  top: "loss"
}
I1204 04:06:41.248066 1969066752 layer_factory.hpp:76] Creating layer data
I1204 04:06:41.248101 1969066752 net.cpp:106] Creating Layer data
I1204 04:06:41.248109 1969066752 net.cpp:411] data -> data
I1204 04:06:41.248122 1969066752 net.cpp:411] data -> labels
I1204 04:06:41.248144 1969066752 hdf5_data_layer.cpp:79] Loading list of HDF5 filenames from: /Users/JonathanLee/Desktop/sandbox/vision/Net/hdf/test_hdf.txt
I1204 04:06:41.248194 1969066752 hdf5_data_layer.cpp:93] Number of HDF5 files: 1
I1204 04:06:41.324692 1969066752 net.cpp:150] Setting up data
I1204 04:06:41.324715 1969066752 net.cpp:157] Top shape: 120 3 125 125 (5625000)
I1204 04:06:41.324726 1969066752 net.cpp:157] Top shape: 120 4 (480)
I1204 04:06:41.324733 1969066752 net.cpp:165] Memory required for data: 22501920
I1204 04:06:41.324741 1969066752 layer_factory.hpp:76] Creating layer conv1
I1204 04:06:41.324776 1969066752 net.cpp:106] Creating Layer conv1
I1204 04:06:41.324792 1969066752 net.cpp:454] conv1 <- data
I1204 04:06:41.324815 1969066752 net.cpp:411] conv1 -> conv1
I1204 04:06:41.324918 1969066752 net.cpp:150] Setting up conv1
I1204 04:06:41.324939 1969066752 net.cpp:157] Top shape: 120 16 115 115 (25392000)
I1204 04:06:41.324945 1969066752 net.cpp:165] Memory required for data: 124069920
I1204 04:06:41.324954 1969066752 layer_factory.hpp:76] Creating layer reluConv1
I1204 04:06:41.324960 1969066752 net.cpp:106] Creating Layer reluConv1
I1204 04:06:41.324964 1969066752 net.cpp:454] reluConv1 <- conv1
I1204 04:06:41.324971 1969066752 net.cpp:397] reluConv1 -> conv1 (in-place)
I1204 04:06:41.324982 1969066752 net.cpp:150] Setting up reluConv1
I1204 04:06:41.325001 1969066752 net.cpp:157] Top shape: 120 16 115 115 (25392000)
I1204 04:06:41.325044 1969066752 net.cpp:165] Memory required for data: 225637920
I1204 04:06:41.325057 1969066752 layer_factory.hpp:76] Creating layer conv2
I1204 04:06:41.325069 1969066752 net.cpp:106] Creating Layer conv2
I1204 04:06:41.325078 1969066752 net.cpp:454] conv2 <- conv1
I1204 04:06:41.325084 1969066752 net.cpp:411] conv2 -> conv2
I1204 04:06:41.325410 1969066752 net.cpp:150] Setting up conv2
I1204 04:06:41.325417 1969066752 net.cpp:157] Top shape: 120 16 53 53 (5393280)
I1204 04:06:41.325423 1969066752 net.cpp:165] Memory required for data: 247211040
I1204 04:06:41.325430 1969066752 layer_factory.hpp:76] Creating layer reluConv2
I1204 04:06:41.325436 1969066752 net.cpp:106] Creating Layer reluConv2
I1204 04:06:41.325440 1969066752 net.cpp:454] reluConv2 <- conv2
I1204 04:06:41.325495 1969066752 net.cpp:397] reluConv2 -> conv2 (in-place)
I1204 04:06:41.325536 1969066752 net.cpp:150] Setting up reluConv2
I1204 04:06:41.325554 1969066752 net.cpp:157] Top shape: 120 16 53 53 (5393280)
I1204 04:06:41.325606 1969066752 net.cpp:165] Memory required for data: 268784160
I1204 04:06:41.325618 1969066752 layer_factory.hpp:76] Creating layer fc1
I1204 04:06:41.325630 1969066752 net.cpp:106] Creating Layer fc1
I1204 04:06:41.325646 1969066752 net.cpp:454] fc1 <- conv2
I1204 04:06:41.325673 1969066752 net.cpp:411] fc1 -> fc1
I1204 04:06:41.327231 1969066752 net.cpp:150] Setting up fc1
I1204 04:06:41.327246 1969066752 net.cpp:157] Top shape: 120 4 (480)
I1204 04:06:41.327251 1969066752 net.cpp:165] Memory required for data: 268786080
I1204 04:06:41.327265 1969066752 layer_factory.hpp:76] Creating layer out
I1204 04:06:41.327271 1969066752 net.cpp:106] Creating Layer out
I1204 04:06:41.327275 1969066752 net.cpp:454] out <- fc1
I1204 04:06:41.327280 1969066752 net.cpp:411] out -> out
I1204 04:06:41.327308 1969066752 net.cpp:150] Setting up out
I1204 04:06:41.327314 1969066752 net.cpp:157] Top shape: 120 4 (480)
I1204 04:06:41.327321 1969066752 net.cpp:165] Memory required for data: 268788000
I1204 04:06:41.327327 1969066752 layer_factory.hpp:76] Creating layer loss
I1204 04:06:41.327345 1969066752 net.cpp:106] Creating Layer loss
I1204 04:06:41.327355 1969066752 net.cpp:454] loss <- out
I1204 04:06:41.327363 1969066752 net.cpp:454] loss <- labels
I1204 04:06:41.327386 1969066752 net.cpp:411] loss -> loss
…
