…
I1204 04:03:07.874555 1969066752 solver.cpp:90] Creating training net from net file: /Users/JonathanLee/Desktop/sandbox/vision/Net/nets/net5/trainer5.prototxt
I1204 04:03:07.874769 1969066752 net.cpp:322] The NetState phase (0) differed from the phase (1) specified by a rule in layer data
I1204 04:03:07.874788 1969066752 net.cpp:49] Initializing net from parameters: 
name: "net"
state {
  phase: TRAIN
}
layer {
  name: "data"
  type: "HDF5Data"
  top: "data"
  top: "labels"
  include {
    phase: TRAIN
  }
  hdf5_data_param {
    source: "/Users/JonathanLee/Desktop/sandbox/vision/Net/hdf/train_hdf.txt"
    batch_size: 450
  }
}
layer {
  name: "conv1"
  type: "Convolution"
  bottom: "data"
  top: "conv1"
  param {
    lr_mult: 1
    decay_mult: 1
  }
  param {
    lr_mult: 2
    decay_mult: 0
  }
  convolution_param {
    num_output: 16
    kernel_size: 11
    stride: 1
    weight_filler {
      type: "xavier"
    }
    bias_filler {
      type: "constant"
      value: 0
    }
  }
}
layer {
  name: "reluConv1"
  type: "ReLU"
  bottom: "conv1"
  top: "conv1"
}
layer {
  name: "fc1"
  type: "InnerProduct"
  bottom: "conv1"
  top: "fc1"
  param {
    lr_mult: 1
    decay_mult: 1
  }
  param {
    lr_mult: 2
    decay_mult: 0
  }
  inner_product_param {
    num_output: 4
    weight_filler {
      type: "xavier"
    }
    bias_filler {
      type: "constant"
      value: 0
    }
  }
}
layer {
  name: "out"
  type: "TanH"
  bottom: "fc1"
  top: "out"
}
layer {
  name: "loss"
  type: "EuclideanLoss"
  bottom: "out"
  bottom: "labels"
  top: "loss"
}
I1204 04:03:07.874897 1969066752 layer_factory.hpp:76] Creating layer data
I1204 04:03:07.874917 1969066752 net.cpp:106] Creating Layer data
I1204 04:03:07.874924 1969066752 net.cpp:411] data -> data
I1204 04:03:07.874943 1969066752 net.cpp:411] data -> labels
I1204 04:03:07.874954 1969066752 hdf5_data_layer.cpp:79] Loading list of HDF5 filenames from: /Users/JonathanLee/Desktop/sandbox/vision/Net/hdf/train_hdf.txt
I1204 04:03:07.874990 1969066752 hdf5_data_layer.cpp:93] Number of HDF5 files: 1
I1204 04:03:07.876382 1969066752 hdf5.cpp:32] Datatype class: H5T_FLOAT
I1204 04:03:08.108358 1969066752 net.cpp:150] Setting up data
I1204 04:03:08.108386 1969066752 net.cpp:157] Top shape: 450 3 125 125 (21093750)
I1204 04:03:08.108397 1969066752 net.cpp:157] Top shape: 450 4 (1800)
I1204 04:03:08.108402 1969066752 net.cpp:165] Memory required for data: 84382200
I1204 04:03:08.108409 1969066752 layer_factory.hpp:76] Creating layer conv1
I1204 04:03:08.108420 1969066752 net.cpp:106] Creating Layer conv1
I1204 04:03:08.108441 1969066752 net.cpp:454] conv1 <- data
I1204 04:03:08.108516 1969066752 net.cpp:411] conv1 -> conv1
I1204 04:03:08.115454 1969066752 net.cpp:150] Setting up conv1
I1204 04:03:08.115479 1969066752 net.cpp:157] Top shape: 450 16 115 115 (95220000)
I1204 04:03:08.115492 1969066752 net.cpp:165] Memory required for data: 465262200
I1204 04:03:08.115538 1969066752 layer_factory.hpp:76] Creating layer reluConv1
I1204 04:03:08.115561 1969066752 net.cpp:106] Creating Layer reluConv1
I1204 04:03:08.115584 1969066752 net.cpp:454] reluConv1 <- conv1
I1204 04:03:08.115608 1969066752 net.cpp:397] reluConv1 -> conv1 (in-place)
I1204 04:03:08.115624 1969066752 net.cpp:150] Setting up reluConv1
I1204 04:03:08.115630 1969066752 net.cpp:157] Top shape: 450 16 115 115 (95220000)
I1204 04:03:08.115639 1969066752 net.cpp:165] Memory required for data: 846142200
I1204 04:03:08.115646 1969066752 layer_factory.hpp:76] Creating layer fc1
I1204 04:03:08.115658 1969066752 net.cpp:106] Creating Layer fc1
I1204 04:03:08.115676 1969066752 net.cpp:454] fc1 <- conv1
I1204 04:03:08.115695 1969066752 net.cpp:411] fc1 -> fc1
I1204 04:03:08.123036 1969066752 net.cpp:150] Setting up fc1
I1204 04:03:08.123386 1969066752 net.cpp:157] Top shape: 450 4 (1800)
I1204 04:03:08.123414 1969066752 net.cpp:165] Memory required for data: 846149400
I1204 04:03:08.123440 1969066752 layer_factory.hpp:76] Creating layer out
I1204 04:03:08.123469 1969066752 net.cpp:106] Creating Layer out
I1204 04:03:08.123478 1969066752 net.cpp:454] out <- fc1
I1204 04:03:08.123488 1969066752 net.cpp:411] out -> out
I1204 04:03:08.123504 1969066752 net.cpp:150] Setting up out
I1204 04:03:08.123512 1969066752 net.cpp:157] Top shape: 450 4 (1800)
I1204 04:03:08.123522 1969066752 net.cpp:165] Memory required for data: 846156600
I1204 04:03:08.123540 1969066752 layer_factory.hpp:76] Creating layer loss
I1204 04:03:08.123592 1969066752 net.cpp:106] Creating Layer loss
I1204 04:03:08.123611 1969066752 net.cpp:454] loss <- out
I1204 04:03:08.123621 1969066752 net.cpp:454] loss <- labels
I1204 04:03:08.123651 1969066752 net.cpp:411] loss -> loss
…
I1204 04:03:08.124083 1969066752 solver.cpp:180] Creating test net (#0) specified by net file: /Users/JonathanLee/Desktop/sandbox/vision/Net/nets/net5/trainer5.prototxt
I1204 04:03:08.124119 1969066752 net.cpp:322] The NetState phase (1) differed from the phase (0) specified by a rule in layer data
I1204 04:03:08.124135 1969066752 net.cpp:49] Initializing net from parameters: 
name: "net"
state {
  phase: TEST
}
layer {
  name: "data"
  type: "HDF5Data"
  top: "data"
  top: "labels"
  include {
    phase: TEST
  }
  hdf5_data_param {
    source: "/Users/JonathanLee/Desktop/sandbox/vision/Net/hdf/test_hdf.txt"
    batch_size: 120
  }
}
layer {
  name: "conv1"
  type: "Convolution"
  bottom: "data"
  top: "conv1"
  param {
    lr_mult: 1
    decay_mult: 1
  }
  param {
    lr_mult: 2
    decay_mult: 0
  }
  convolution_param {
    num_output: 16
    kernel_size: 11
    stride: 1
    weight_filler {
      type: "xavier"
    }
    bias_filler {
      type: "constant"
      value: 0
    }
  }
}
layer {
  name: "reluConv1"
  type: "ReLU"
  bottom: "conv1"
  top: "conv1"
}
layer {
  name: "fc1"
  type: "InnerProduct"
  bottom: "conv1"
  top: "fc1"
  param {
    lr_mult: 1
    decay_mult: 1
  }
  param {
    lr_mult: 2
    decay_mult: 0
  }
  inner_product_param {
    num_output: 4
    weight_filler {
      type: "xavier"
    }
    bias_filler {
      type: "constant"
      value: 0
    }
  }
}
layer {
  name: "out"
  type: "TanH"
  bottom: "fc1"
  top: "out"
}
layer {
  name: "loss"
  type: "EuclideanLoss"
  bottom: "out"
  bottom: "labels"
  top: "loss"
}
I1204 04:03:08.124264 1969066752 layer_factory.hpp:76] Creating layer data
I1204 04:03:08.124279 1969066752 net.cpp:106] Creating Layer data
I1204 04:03:08.124289 1969066752 net.cpp:411] data -> data
I1204 04:03:08.124303 1969066752 net.cpp:411] data -> labels
I1204 04:03:08.124316 1969066752 hdf5_data_layer.cpp:79] Loading list of HDF5 filenames from: /Users/JonathanLee/Desktop/sandbox/vision/Net/hdf/test_hdf.txt
I1204 04:03:08.124362 1969066752 hdf5_data_layer.cpp:93] Number of HDF5 files: 1
I1204 04:03:08.195619 1969066752 net.cpp:150] Setting up data
I1204 04:03:08.195641 1969066752 net.cpp:157] Top shape: 120 3 125 125 (5625000)
I1204 04:03:08.195670 1969066752 net.cpp:157] Top shape: 120 4 (480)
I1204 04:03:08.195716 1969066752 net.cpp:165] Memory required for data: 22501920
I1204 04:03:08.195742 1969066752 layer_factory.hpp:76] Creating layer conv1
I1204 04:03:08.195770 1969066752 net.cpp:106] Creating Layer conv1
I1204 04:03:08.195780 1969066752 net.cpp:454] conv1 <- data
I1204 04:03:08.195793 1969066752 net.cpp:411] conv1 -> conv1
I1204 04:03:08.195942 1969066752 net.cpp:150] Setting up conv1
I1204 04:03:08.195961 1969066752 net.cpp:157] Top shape: 120 16 115 115 (25392000)
I1204 04:03:08.196002 1969066752 net.cpp:165] Memory required for data: 124069920
I1204 04:03:08.196032 1969066752 layer_factory.hpp:76] Creating layer reluConv1
I1204 04:03:08.196051 1969066752 net.cpp:106] Creating Layer reluConv1
I1204 04:03:08.196082 1969066752 net.cpp:454] reluConv1 <- conv1
I1204 04:03:08.196110 1969066752 net.cpp:397] reluConv1 -> conv1 (in-place)
I1204 04:03:08.196121 1969066752 net.cpp:150] Setting up reluConv1
I1204 04:03:08.196130 1969066752 net.cpp:157] Top shape: 120 16 115 115 (25392000)
I1204 04:03:08.196140 1969066752 net.cpp:165] Memory required for data: 225637920
I1204 04:03:08.196156 1969066752 layer_factory.hpp:76] Creating layer fc1
I1204 04:03:08.196167 1969066752 net.cpp:106] Creating Layer fc1
I1204 04:03:08.196176 1969066752 net.cpp:454] fc1 <- conv1
I1204 04:03:08.196185 1969066752 net.cpp:411] fc1 -> fc1
I1204 04:03:08.205355 1969066752 net.cpp:150] Setting up fc1
I1204 04:03:08.205376 1969066752 net.cpp:157] Top shape: 120 4 (480)
I1204 04:03:08.205387 1969066752 net.cpp:165] Memory required for data: 225639840
I1204 04:03:08.205587 1969066752 layer_factory.hpp:76] Creating layer out
I1204 04:03:08.205641 1969066752 net.cpp:106] Creating Layer out
I1204 04:03:08.206146 1969066752 net.cpp:454] out <- fc1
I1204 04:03:08.206212 1969066752 net.cpp:411] out -> out
I1204 04:03:08.206239 1969066752 net.cpp:150] Setting up out
I1204 04:03:08.206264 1969066752 net.cpp:157] Top shape: 120 4 (480)
I1204 04:03:08.206286 1969066752 net.cpp:165] Memory required for data: 225641760
I1204 04:03:08.206311 1969066752 layer_factory.hpp:76] Creating layer loss
I1204 04:03:08.206331 1969066752 net.cpp:106] Creating Layer loss
I1204 04:03:08.206394 1969066752 net.cpp:454] loss <- out
I1204 04:03:08.206436 1969066752 net.cpp:454] loss <- labels
I1204 04:03:08.206507 1969066752 net.cpp:411] loss -> loss
…
